…
I1003 09:38:48.982151 26722 net.cpp:294] The NetState phase (0) differed from the phase (1) specified by a rule in layer data
I1003 09:38:48.982182 26722 net.cpp:294] The NetState phase (0) differed from the phase (1) specified by a rule in layer accuracy
I1003 09:38:48.982439 26722 net.cpp:51] Initializing net from parameters: 
name: "ZNet"
state {
  phase: TRAIN
  level: 0
  stage: ""
}
layer {
  name: "data"
  type: "HDF5Data"
  top: "data"
  top: "label"
  include {
    phase: TRAIN
  }
  hdf5_data_param {
    source: "/home/grochette/Documents/SegNet/data/HDF5/Train/hdf5_list.txt"
    batch_size: 16
    shuffle: true
  }
}
layer {
  name: "batchnorm0"
  type: "BatchNorm"
  bottom: "data"
  top: "data"
}
layer {
  name: "conv1_1"
  type: "Convolution"
  bottom: "data"
  top: "conv1_1"
  param {
    lr_mult: 1
    decay_mult: 1
  }
  param {
    lr_mult: 2
    decay_mult: 0
  }
  convolution_param {
    num_output: 32
    pad: 1
    kernel_size: 3
    stride: 1
    weight_filler {
      type: "xavier"
    }
    bias_filler {
      type: "constant"
    }
  }
}
layer {
  name: "batchnorm1_1"
  type: "BatchNorm"
  bottom: "conv1_1"
  top: "conv1_1"
}
layer {
  name: "elu1_1"
  type: "ELU"
  bottom: "conv1_1"
  top: "conv1_1"
}
layer {
  name: "conv1_2"
  type: "Convolution"
  bottom: "conv1_1"
  top: "conv1_2"
  param {
    lr_mult: 1
    decay_mult: 1
  }
  param {
    lr_mult: 2
    decay_mult: 0
  }
  convolution_param {
    num_output: 32
    pad: 1
    kernel_size: 3
    stride: 1
    weight_filler {
      type: "xavier"
    }
    bias_filler {
      type: "constant"
    }
  }
}
layer {
  name: "batchnorm1_2"
  type: "BatchNorm"
  bottom: "conv1_2"
  top: "conv1_2"
}
layer {
  name: "elu1_2"
  type: "ELU"
  bottom: "conv1_2"
  top: "conv1_2"
}
layer {
  name: "pool1"
  type: "Pooling"
  bottom: "conv1_2"
  top: "pool1"
  top: "pool1_mask"
  top: "pool1_argmax_count"
  pooling_param {
    pool: MAX
    kernel_size: 4
    stride: 4
  }
}
layer {
  name: "conv2_1"
  type: "Convolution"
  bottom: "pool1"
  top: "conv2_1"
  param {
    lr_mult: 1
    decay_mult: 1
  }
  param {
    lr_mult: 2
    decay_mult: 0
  }
  convolution_param {
    num_output: 64
    pad: 1
    kernel_size: 3
    stride: 1
    weight_filler {
      type: "xavier"
    }
    bias_filler {
      type: "constant"
    }
  }
}
layer {
  name: "batchnorm2_1"
  type: "BatchNorm"
  bottom: "conv2_1"
  top: "conv2_1"
}
layer {
  name: "elu2_1"
  type: "ELU"
  bottom: "conv2_1"
  top: "conv2_1"
}
layer {
  name: "conv2_2"
  type: "Convolution"
  bottom: "conv2_1"
  top: "conv2_2"
  param {
    lr_mult: 1
    decay_mult: 1
  }
  param {
    lr_mult: 2
    decay_mult: 0
  }
  convolution_param {
    num_output: 64
    pad: 1
    kernel_size: 3
    stride: 1
    weight_filler {
      type: "xavier"
    }
    bias_filler {
      type: "constant"
    }
  }
}
layer {
  name: "batchnorm2_2"
  type: "BatchNorm"
  bottom: "conv2_2"
  top: "conv2_2"
}
layer {
  name: "elu2_2"
  type: "ELU"
  bottom: "conv2_2"
  top: "conv2_2"
}
layer {
  name: "pool2"
  type: "Pooling"
  bottom: "conv2_2"
  top: "pool2"
  top: "pool2_mask"
  top: "pool2_argmax_count"
  pooling_param {
    pool: MAX
    kernel_size: 4
    stride: 4
  }
}
layer {
  name: "conv3_1"
  type: "Convolution"
  bottom: "pool2"
  top: "conv3_1"
  param {
    lr_mult: 1
    decay_mult: 1
  }
  param {
    lr_mult: 2
    decay_mult: 0
  }
  convolution_param {
    num_output: 128
    pad: 1
    kernel_size: 3
    stride: 1
    weight_filler {
      type: "xavier"
    }
    bias_filler {
      type: "constant"
    }
  }
}
layer {
  name: "batchnorm3_1"
  type: "BatchNorm"
  bottom: "conv3_1"
  top: "conv3_1"
}
layer {
  name: "elu3_1"
  type: "ELU"
  bottom: "conv3_1"
  top: "conv3_1"
}
layer {
  name: "conv3_2"
  type: "Convolution"
  bottom: "conv3_1"
  top: "conv3_2"
  param {
    lr_mult: 1
    decay_mult: 1
  }
  param {
    lr_mult: 2
    decay_mult: 0
  }
  convolution_param {
    num_output: 128
    pad: 1
    kernel_size: 3
    stride: 1
    weight_filler {
      type: "xavier"
    }
    bias_filler {
      type: "constant"
    }
  }
}
layer {
  name: "batchnorm3_2"
  type: "BatchNorm"
  bottom: "conv3_2"
  top: "conv3_2"
}
layer {
  name: "elu3_2"
  type: "ELU"
  bottom: "conv3_2"
  top: "conv3_2"
}
layer {
  name: "conv3_3"
  type: "Convolution"
  bottom: "conv3_2"
  top: "conv3_3"
  param {
    lr_mult: 1
    decay_mult: 1
  }
  param {
    lr_mult: 2
    decay_mult: 0
  }
  convolution_param {
    num_output: 128
    pad: 1
    kernel_size: 3
    stride: 1
    weight_filler {
      type: "xavier"
    }
    bias_filler {
      type: "constant"
    }
  }
}
layer {
  name: "batchnorm3_3"
  type: "BatchNorm"
  bottom: "conv3_3"
  top: "conv3_3"
}
layer {
  name: "elu3_3"
  type: "ELU"
  bottom: "conv3_3"
  top: "conv3_3"
}
layer {
  name: "pool3"
  type: "Pooling"
  bottom: "conv3_3"
  top: "pool3"
  top: "pool3_mask"
  top: "pool3_argmax_count"
  pooling_param {
    pool: MAX
    kernel_size: 2
    stride: 2
  }
}
layer {
  name: "conv4_1"
  type: "Convolution"
  bottom: "pool3"
  top: "conv4_1"
  param {
    lr_mult: 1
    decay_mult: 1
  }
  param {
    lr_mult: 2
    decay_mult: 0
  }
  convolution_param {
    num_output: 256
    pad: 1
    kernel_size: 3
    stride: 1
    weight_filler {
      type: "xavier"
    }
    bias_filler {
      type: "constant"
    }
  }
}
layer {
  name: "batchnorm4_1"
  type: "BatchNorm"
  bottom: "conv4_1"
  top: "conv4_1"
}
layer {
  name: "elu4_1"
  type: "ELU"
  bottom: "conv4_1"
  top: "conv4_1"
}
layer {
  name: "conv4_2"
  type: "Convolution"
  bottom: "conv4_1"
  top: "conv4_2"
  param {
    lr_mult: 1
    decay_mult: 1
  }
  param {
    lr_mult: 2
    decay_mult: 0
  }
  convolution_param {
    num_output: 256
    pad: 1
    kernel_size: 3
    stride: 1
    weight_filler {
      type: "xavier"
    }
    bias_filler {
      type: "constant"
    }
  }
}
layer {
  name: "batchnorm4_2"
  type: "BatchNorm"
  bottom: "conv4_2"
  top: "conv4_2"
}
layer {
  name: "elu4_2"
  type: "ELU"
  bottom: "conv4_2"
  top: "conv4_2"
}
layer {
  name: "deconv4_3"
  type: "Deconvolution"
  bottom: "conv4_2"
  top: "deconv4_3"
  param {
    lr_mult: 1
    decay_mult: 1
  }
  param {
    lr_mult: 2
    decay_mult: 0
  }
  convolution_param {
    num_output: 128
    pad: 1
    kernel_size: 3
    stride: 1
    weight_filler {
      type: "xavier"
    }
    bias_filler {
      type: "constant"
    }
  }
}
layer {
  name: "debatchnorm4_3"
  type: "BatchNorm"
  bottom: "deconv4_3"
  top: "deconv4_3"
}
layer {
  name: "deelu4_3"
  type: "ELU"
  bottom: "deconv4_3"
  top: "deconv4_3"
}
layer {
  name: "unpool3"
  type: "Unpooling"
  bottom: "deconv4_3"
  bottom: "pool3_mask"
  bottom: "pool3_argmax_count"
  top: "unpool3"
  pooling_param {
    pool: MAX
    kernel_size: 2
    stride: 2
  }
}
layer {
  name: "deconv3_1"
  type: "Deconvolution"
  bottom: "unpool3"
  top: "deconv3_1"
  param {
    lr_mult: 1
    decay_mult: 1
  }
  param {
    lr_mult: 2
    decay_mult: 0
  }
  convolution_param {
    num_output: 128
    pad: 1
    kernel_size: 3
    stride: 1
    weight_filler {
      type: "xavier"
    }
    bias_filler {
      type: "constant"
    }
  }
}
layer {
  name: "debatchnorm3_1"
  type: "BatchNorm"
  bottom: "deconv3_1"
  top: "deconv3_1"
}
layer {
  name: "deelu3_1"
  type: "ELU"
  bottom: "deconv3_1"
  top: "deconv3_1"
}
layer {
  name: "deconv3_2"
  type: "Deconvolution"
  bottom: "deconv3_1"
  top: "deconv3_2"
  param {
    lr_mult: 1
    decay_mult: 1
  }
  param {
    lr_mult: 2
    decay_mult: 0
  }
  convolution_param {
    num_output: 128
    pad: 1
    kernel_size: 3
    stride: 1
    weight_filler {
      type: "xavier"
    }
    bias_filler {
      type: "constant"
    }
  }
}
layer {
  name: "debatchnorm3_2"
  type: "BatchNorm"
  bottom: "deconv3_2"
  top: "deconv3_2"
}
layer {
  name: "deelu3_2"
  type: "ELU"
  bottom: "deconv3_2"
  top: "deconv3_2"
}
layer {
  name: "deconv3_3"
  type: "Deconvolution"
  bottom: "deconv3_2"
  top: "deconv3_3"
  param {
    lr_mult: 1
    decay_mult: 1
  }
  param {
    lr_mult: 2
    decay_mult: 0
  }
  convolution_param {
    num_output: 64
    pad: 1
    kernel_size: 3
    stride: 1
    weight_filler {
      type: "xavier"
    }
    bias_filler {
      type: "constant"
    }
  }
}
layer {
  name: "debatchnorm3_3"
  type: "BatchNorm"
  bottom: "deconv3_3"
  top: "deconv3_3"
}
layer {
  name: "deelu3_3"
  type: "ELU"
  bottom: "deconv3_3"
  top: "deconv3_3"
}
layer {
  name: "unpool2"
  type: "Unpooling"
  bottom: "deconv3_3"
  bottom: "pool2_mask"
  bottom: "pool2_argmax_count"
  top: "unpool2"
  pooling_param {
    pool: MAX
    kernel_size: 4
    stride: 4
  }
}
layer {
  name: "deconv2_1"
  type: "Deconvolution"
  bottom: "unpool2"
  top: "deconv2_1"
  param {
    lr_mult: 1
    decay_mult: 1
  }
  param {
    lr_mult: 2
    decay_mult: 0
  }
  convolution_param {
    num_output: 64
    pad: 1
    kernel_size: 3
    stride: 1
    weight_filler {
      type: "xavier"
    }
    bias_filler {
      type: "constant"
    }
  }
}
layer {
  name: "debatchnorm2_1"
  type: "BatchNorm"
  bottom: "deconv2_1"
  top: "deconv2_1"
}
layer {
  name: "deelu2_1"
  type: "ELU"
  bottom: "deconv2_1"
  top: "deconv2_1"
}
layer {
  name: "deconv2_2"
  type: "Deconvolution"
  bottom: "deconv2_1"
  top: "deconv2_2"
  param {
    lr_mult: 1
    decay_mult: 1
  }
  param {
    lr_mult: 2
    decay_mult: 0
  }
  convolution_param {
    num_output: 32
    pad: 1
    kernel_size: 3
    stride: 1
    weight_filler {
      type: "xavier"
    }
    bias_filler {
      type: "constant"
    }
  }
}
layer {
  name: "debatchnorm2_2"
  type: "BatchNorm"
  bottom: "deconv2_2"
  top: "deconv2_2"
}
layer {
  name: "deelu2_2"
  type: "ELU"
  bottom: "deconv2_2"
  top: "deconv2_2"
}
layer {
  name: "unpool1"
  type: "Unpooling"
  bottom: "deconv2_2"
  bottom: "pool1_mask"
  bottom: "pool1_argmax_count"
  top: "unpool1"
  pooling_param {
    pool: MAX
    kernel_size: 4
    stride: 4
  }
}
layer {
  name: "deconv1_1"
  type: "Deconvolution"
  bottom: "unpool1"
  top: "deconv1_1"
  param {
    lr_mult: 1
    decay_mult: 1
  }
  param {
    lr_mult: 2
    decay_mult: 0
  }
  convolution_param {
    num_output: 32
    pad: 1
    kernel_size: 3
    stride: 1
    weight_filler {
      type: "xavier"
    }
    bias_filler {
      type: "constant"
    }
  }
}
layer {
  name: "debatchnorm1_1"
  type: "BatchNorm"
  bottom: "deconv1_1"
  top: "deconv1_1"
}
layer {
  name: "deelu1_1"
  type: "ELU"
  bottom: "deconv1_1"
  top: "deconv1_1"
}
layer {
  name: "deconv1_2"
  type: "Deconvolution"
  bottom: "deconv1_1"
  top: "deconv1_2"
  param {
    lr_mult: 1
    decay_mult: 1
  }
  param {
    lr_mult: 2
    decay_mult: 0
  }
  convolution_param {
    num_output: 32
    pad: 1
    kernel_size: 3
    stride: 1
    weight_filler {
      type: "xavier"
    }
    bias_filler {
      type: "constant"
    }
  }
}
layer {
  name: "debatchnorm1_2"
  type: "BatchNorm"
  bottom: "deconv1_2"
  top: "deconv1_2"
}
layer {
  name: "deelu1_2"
  type: "ELU"
  bottom: "deconv1_2"
  top: "deconv1_2"
}
layer {
  name: "segmentation"
  type: "Convolution"
  bottom: "deconv1_2"
  top: "segmentation"
  param {
    lr_mult: 1
    decay_mult: 1
  }
  param {
    lr_mult: 2
    decay_mult: 0
  }
  convolution_param {
    num_output: 3
    pad: 0
    kernel_size: 1
    weight_filler {
      type: "xavier"
    }
    bias_filler {
      type: "constant"
    }
  }
}
layer {
  name: "infogainLoss"
  type: "InfogainLoss"
  bottom: "segmentation"
  bottom: "label"
  top: "loss"
  loss_param {
    ignore_label: 3
  }
  infogain_loss_param {
    source: "/home/grochette/Documents/SegNet/data/OnlyVegas/infogainH.binaryproto"
  }
}
I1003 09:38:48.983214 26722 layer_factory.hpp:77] Creating layer data
I1003 09:38:48.983227 26722 net.cpp:84] Creating Layer data
I1003 09:38:48.983383 26722 net.cpp:380] data -> data
I1003 09:38:48.983402 26722 net.cpp:380] data -> label
I1003 09:38:48.983410 26722 hdf5_data_layer.cpp:80] Loading list of HDF5 filenames from: /home/grochette/Documents/SegNet/data/HDF5/Train/hdf5_list.txt
I1003 09:38:48.983641 26722 hdf5_data_layer.cpp:94] Number of HDF5 files: 16
I1003 09:38:48.984493 26722 hdf5.cpp:32] Datatype class: H5T_FLOAT
I1003 09:38:51.187907 26722 hdf5.cpp:35] Datatype class: H5T_INTEGER
I1003 09:38:51.563360 26722 net.cpp:122] Setting up data
I1003 09:38:51.563386 26722 net.cpp:129] Top shape: 16 4 224 224 (3211264)
I1003 09:38:51.563392 26722 net.cpp:129] Top shape: 16 1 224 224 (802816)
I1003 09:38:51.563395 26722 net.cpp:137] Memory required for data: 16056320
I1003 09:38:51.563401 26722 layer_factory.hpp:77] Creating layer batchnorm0
I1003 09:38:51.563411 26722 net.cpp:84] Creating Layer batchnorm0
I1003 09:38:51.563417 26722 net.cpp:406] batchnorm0 <- data
I1003 09:38:51.563428 26722 net.cpp:367] batchnorm0 -> data (in-place)
I1003 09:38:51.564080 26722 net.cpp:122] Setting up batchnorm0
I1003 09:38:51.564091 26722 net.cpp:129] Top shape: 16 4 224 224 (3211264)
I1003 09:38:51.564095 26722 net.cpp:137] Memory required for data: 28901376
I1003 09:38:51.564113 26722 layer_factory.hpp:77] Creating layer conv1_1
I1003 09:38:51.564129 26722 net.cpp:84] Creating Layer conv1_1
I1003 09:38:51.564134 26722 net.cpp:406] conv1_1 <- data
I1003 09:38:51.564141 26722 net.cpp:380] conv1_1 -> conv1_1
I1003 09:38:52.227907 26722 net.cpp:122] Setting up conv1_1
I1003 09:38:52.227933 26722 net.cpp:129] Top shape: 16 32 224 224 (25690112)
I1003 09:38:52.227937 26722 net.cpp:137] Memory required for data: 131661824
I1003 09:38:52.227951 26722 layer_factory.hpp:77] Creating layer batchnorm1_1
I1003 09:38:52.227960 26722 net.cpp:84] Creating Layer batchnorm1_1
I1003 09:38:52.227967 26722 net.cpp:406] batchnorm1_1 <- conv1_1
I1003 09:38:52.227974 26722 net.cpp:367] batchnorm1_1 -> conv1_1 (in-place)
I1003 09:38:52.228197 26722 net.cpp:122] Setting up batchnorm1_1
I1003 09:38:52.228206 26722 net.cpp:129] Top shape: 16 32 224 224 (25690112)
I1003 09:38:52.228209 26722 net.cpp:137] Memory required for data: 234422272
I1003 09:38:52.228216 26722 layer_factory.hpp:77] Creating layer elu1_1
I1003 09:38:52.228224 26722 net.cpp:84] Creating Layer elu1_1
I1003 09:38:52.228225 26722 net.cpp:406] elu1_1 <- conv1_1
I1003 09:38:52.228231 26722 net.cpp:367] elu1_1 -> conv1_1 (in-place)
I1003 09:38:52.228240 26722 net.cpp:122] Setting up elu1_1
I1003 09:38:52.228247 26722 net.cpp:129] Top shape: 16 32 224 224 (25690112)
I1003 09:38:52.228255 26722 net.cpp:137] Memory required for data: 337182720
I1003 09:38:52.228260 26722 layer_factory.hpp:77] Creating layer conv1_2
I1003 09:38:52.228274 26722 net.cpp:84] Creating Layer conv1_2
I1003 09:38:52.228296 26722 net.cpp:406] conv1_2 <- conv1_1
I1003 09:38:52.228304 26722 net.cpp:380] conv1_2 -> conv1_2
I1003 09:38:52.230497 26722 net.cpp:122] Setting up conv1_2
I1003 09:38:52.230511 26722 net.cpp:129] Top shape: 16 32 224 224 (25690112)
I1003 09:38:52.230518 26722 net.cpp:137] Memory required for data: 439943168
I1003 09:38:52.230530 26722 layer_factory.hpp:77] Creating layer batchnorm1_2
I1003 09:38:52.230538 26722 net.cpp:84] Creating Layer batchnorm1_2
I1003 09:38:52.230543 26722 net.cpp:406] batchnorm1_2 <- conv1_2
I1003 09:38:52.230551 26722 net.cpp:367] batchnorm1_2 -> conv1_2 (in-place)
I1003 09:38:52.230751 26722 net.cpp:122] Setting up batchnorm1_2
I1003 09:38:52.230759 26722 net.cpp:129] Top shape: 16 32 224 224 (25690112)
I1003 09:38:52.230764 26722 net.cpp:137] Memory required for data: 542703616
I1003 09:38:52.230774 26722 layer_factory.hpp:77] Creating layer elu1_2
I1003 09:38:52.230779 26722 net.cpp:84] Creating Layer elu1_2
I1003 09:38:52.230784 26722 net.cpp:406] elu1_2 <- conv1_2
I1003 09:38:52.230790 26722 net.cpp:367] elu1_2 -> conv1_2 (in-place)
I1003 09:38:52.230798 26722 net.cpp:122] Setting up elu1_2
I1003 09:38:52.230825 26722 net.cpp:129] Top shape: 16 32 224 224 (25690112)
I1003 09:38:52.230830 26722 net.cpp:137] Memory required for data: 645464064
I1003 09:38:52.230834 26722 layer_factory.hpp:77] Creating layer pool1
I1003 09:38:52.230844 26722 layer_factory.cpp:91] cuDNN does not support multiple tops. Using Caffe's own pooling layer.
I1003 09:38:52.230856 26722 net.cpp:84] Creating Layer pool1
I1003 09:38:52.230860 26722 net.cpp:406] pool1 <- conv1_2
I1003 09:38:52.230867 26722 net.cpp:380] pool1 -> pool1
I1003 09:38:52.230878 26722 net.cpp:380] pool1 -> pool1_mask
I1003 09:38:52.230886 26722 net.cpp:380] pool1 -> pool1_argmax_count
I1003 09:38:52.230942 26722 net.cpp:122] Setting up pool1
I1003 09:38:52.230949 26722 net.cpp:129] Top shape: 16 32 56 56 (1605632)
I1003 09:38:52.230957 26722 net.cpp:129] Top shape: 16 32 56 56 (1605632)
I1003 09:38:52.230962 26722 net.cpp:129] Top shape: 16 32 224 224 (25690112)
I1003 09:38:52.230967 26722 net.cpp:137] Memory required for data: 761069568
I1003 09:38:52.230971 26722 layer_factory.hpp:77] Creating layer conv2_1
I1003 09:38:52.230983 26722 net.cpp:84] Creating Layer conv2_1
I1003 09:38:52.230986 26722 net.cpp:406] conv2_1 <- pool1
I1003 09:38:52.230994 26722 net.cpp:380] conv2_1 -> conv2_1
I1003 09:38:52.233178 26722 net.cpp:122] Setting up conv2_1
I1003 09:38:52.233192 26722 net.cpp:129] Top shape: 16 64 56 56 (3211264)
I1003 09:38:52.233198 26722 net.cpp:137] Memory required for data: 773914624
I1003 09:38:52.233207 26722 layer_factory.hpp:77] Creating layer batchnorm2_1
I1003 09:38:52.233214 26722 net.cpp:84] Creating Layer batchnorm2_1
I1003 09:38:52.233219 26722 net.cpp:406] batchnorm2_1 <- conv2_1
I1003 09:38:52.233227 26722 net.cpp:367] batchnorm2_1 -> conv2_1 (in-place)
I1003 09:38:52.233431 26722 net.cpp:122] Setting up batchnorm2_1
I1003 09:38:52.233439 26722 net.cpp:129] Top shape: 16 64 56 56 (3211264)
I1003 09:38:52.233444 26722 net.cpp:137] Memory required for data: 786759680
I1003 09:38:52.233461 26722 layer_factory.hpp:77] Creating layer elu2_1
I1003 09:38:52.233467 26722 net.cpp:84] Creating Layer elu2_1
I1003 09:38:52.233472 26722 net.cpp:406] elu2_1 <- conv2_1
I1003 09:38:52.233479 26722 net.cpp:367] elu2_1 -> conv2_1 (in-place)
I1003 09:38:52.233485 26722 net.cpp:122] Setting up elu2_1
I1003 09:38:52.233491 26722 net.cpp:129] Top shape: 16 64 56 56 (3211264)
I1003 09:38:52.233496 26722 net.cpp:137] Memory required for data: 799604736
I1003 09:38:52.233502 26722 layer_factory.hpp:77] Creating layer conv2_2
I1003 09:38:52.233511 26722 net.cpp:84] Creating Layer conv2_2
I1003 09:38:52.233515 26722 net.cpp:406] conv2_2 <- conv2_1
I1003 09:38:52.233523 26722 net.cpp:380] conv2_2 -> conv2_2
I1003 09:38:52.235388 26722 net.cpp:122] Setting up conv2_2
I1003 09:38:52.235400 26722 net.cpp:129] Top shape: 16 64 56 56 (3211264)
I1003 09:38:52.235404 26722 net.cpp:137] Memory required for data: 812449792
I1003 09:38:52.235409 26722 layer_factory.hpp:77] Creating layer batchnorm2_2
I1003 09:38:52.235415 26722 net.cpp:84] Creating Layer batchnorm2_2
I1003 09:38:52.235419 26722 net.cpp:406] batchnorm2_2 <- conv2_2
I1003 09:38:52.235422 26722 net.cpp:367] batchnorm2_2 -> conv2_2 (in-place)
I1003 09:38:52.235608 26722 net.cpp:122] Setting up batchnorm2_2
I1003 09:38:52.235615 26722 net.cpp:129] Top shape: 16 64 56 56 (3211264)
I1003 09:38:52.235618 26722 net.cpp:137] Memory required for data: 825294848
I1003 09:38:52.235625 26722 layer_factory.hpp:77] Creating layer elu2_2
I1003 09:38:52.235628 26722 net.cpp:84] Creating Layer elu2_2
I1003 09:38:52.235632 26722 net.cpp:406] elu2_2 <- conv2_2
I1003 09:38:52.235635 26722 net.cpp:367] elu2_2 -> conv2_2 (in-place)
I1003 09:38:52.235641 26722 net.cpp:122] Setting up elu2_2
I1003 09:38:52.235646 26722 net.cpp:129] Top shape: 16 64 56 56 (3211264)
I1003 09:38:52.235651 26722 net.cpp:137] Memory required for data: 838139904
I1003 09:38:52.235656 26722 layer_factory.hpp:77] Creating layer pool2
I1003 09:38:52.235662 26722 layer_factory.cpp:91] cuDNN does not support multiple tops. Using Caffe's own pooling layer.
I1003 09:38:52.235679 26722 net.cpp:84] Creating Layer pool2
I1003 09:38:52.235685 26722 net.cpp:406] pool2 <- conv2_2
I1003 09:38:52.235692 26722 net.cpp:380] pool2 -> pool2
I1003 09:38:52.235700 26722 net.cpp:380] pool2 -> pool2_mask
I1003 09:38:52.235708 26722 net.cpp:380] pool2 -> pool2_argmax_count
I1003 09:38:52.235757 26722 net.cpp:122] Setting up pool2
I1003 09:38:52.235764 26722 net.cpp:129] Top shape: 16 64 14 14 (200704)
I1003 09:38:52.235767 26722 net.cpp:129] Top shape: 16 64 14 14 (200704)
I1003 09:38:52.235771 26722 net.cpp:129] Top shape: 16 64 56 56 (3211264)
I1003 09:38:52.235774 26722 net.cpp:137] Memory required for data: 852590592
I1003 09:38:52.235777 26722 layer_factory.hpp:77] Creating layer conv3_1
I1003 09:38:52.235786 26722 net.cpp:84] Creating Layer conv3_1
I1003 09:38:52.235790 26722 net.cpp:406] conv3_1 <- pool2
I1003 09:38:52.235797 26722 net.cpp:380] conv3_1 -> conv3_1
I1003 09:38:52.238288 26722 net.cpp:122] Setting up conv3_1
I1003 09:38:52.238301 26722 net.cpp:129] Top shape: 16 128 14 14 (401408)
I1003 09:38:52.238303 26722 net.cpp:137] Memory required for data: 854196224
I1003 09:38:52.238310 26722 layer_factory.hpp:77] Creating layer batchnorm3_1
I1003 09:38:52.238317 26722 net.cpp:84] Creating Layer batchnorm3_1
I1003 09:38:52.238319 26722 net.cpp:406] batchnorm3_1 <- conv3_1
I1003 09:38:52.238323 26722 net.cpp:367] batchnorm3_1 -> conv3_1 (in-place)
I1003 09:38:52.238509 26722 net.cpp:122] Setting up batchnorm3_1
I1003 09:38:52.238517 26722 net.cpp:129] Top shape: 16 128 14 14 (401408)
I1003 09:38:52.238523 26722 net.cpp:137] Memory required for data: 855801856
I1003 09:38:52.238533 26722 layer_factory.hpp:77] Creating layer elu3_1
I1003 09:38:52.238539 26722 net.cpp:84] Creating Layer elu3_1
I1003 09:38:52.238544 26722 net.cpp:406] elu3_1 <- conv3_1
I1003 09:38:52.238551 26722 net.cpp:367] elu3_1 -> conv3_1 (in-place)
I1003 09:38:52.238559 26722 net.cpp:122] Setting up elu3_1
I1003 09:38:52.238565 26722 net.cpp:129] Top shape: 16 128 14 14 (401408)
I1003 09:38:52.238569 26722 net.cpp:137] Memory required for data: 857407488
I1003 09:38:52.238574 26722 layer_factory.hpp:77] Creating layer conv3_2
I1003 09:38:52.238584 26722 net.cpp:84] Creating Layer conv3_2
I1003 09:38:52.238590 26722 net.cpp:406] conv3_2 <- conv3_1
I1003 09:38:52.238596 26722 net.cpp:380] conv3_2 -> conv3_2
I1003 09:38:52.241029 26722 net.cpp:122] Setting up conv3_2
I1003 09:38:52.241042 26722 net.cpp:129] Top shape: 16 128 14 14 (401408)
I1003 09:38:52.241048 26722 net.cpp:137] Memory required for data: 859013120
I1003 09:38:52.241057 26722 layer_factory.hpp:77] Creating layer batchnorm3_2
I1003 09:38:52.241065 26722 net.cpp:84] Creating Layer batchnorm3_2
I1003 09:38:52.241070 26722 net.cpp:406] batchnorm3_2 <- conv3_2
I1003 09:38:52.241077 26722 net.cpp:367] batchnorm3_2 -> conv3_2 (in-place)
I1003 09:38:52.241269 26722 net.cpp:122] Setting up batchnorm3_2
I1003 09:38:52.241276 26722 net.cpp:129] Top shape: 16 128 14 14 (401408)
I1003 09:38:52.241279 26722 net.cpp:137] Memory required for data: 860618752
I1003 09:38:52.241291 26722 layer_factory.hpp:77] Creating layer elu3_2
I1003 09:38:52.241295 26722 net.cpp:84] Creating Layer elu3_2
I1003 09:38:52.241298 26722 net.cpp:406] elu3_2 <- conv3_2
I1003 09:38:52.241302 26722 net.cpp:367] elu3_2 -> conv3_2 (in-place)
I1003 09:38:52.241307 26722 net.cpp:122] Setting up elu3_2
I1003 09:38:52.241312 26722 net.cpp:129] Top shape: 16 128 14 14 (401408)
I1003 09:38:52.241315 26722 net.cpp:137] Memory required for data: 862224384
I1003 09:38:52.241319 26722 layer_factory.hpp:77] Creating layer conv3_3
I1003 09:38:52.241328 26722 net.cpp:84] Creating Layer conv3_3
I1003 09:38:52.241333 26722 net.cpp:406] conv3_3 <- conv3_2
I1003 09:38:52.241336 26722 net.cpp:380] conv3_3 -> conv3_3
I1003 09:38:52.244223 26722 net.cpp:122] Setting up conv3_3
I1003 09:38:52.244236 26722 net.cpp:129] Top shape: 16 128 14 14 (401408)
I1003 09:38:52.244240 26722 net.cpp:137] Memory required for data: 863830016
I1003 09:38:52.244247 26722 layer_factory.hpp:77] Creating layer batchnorm3_3
I1003 09:38:52.244269 26722 net.cpp:84] Creating Layer batchnorm3_3
I1003 09:38:52.244274 26722 net.cpp:406] batchnorm3_3 <- conv3_3
I1003 09:38:52.244282 26722 net.cpp:367] batchnorm3_3 -> conv3_3 (in-place)
I1003 09:38:52.244474 26722 net.cpp:122] Setting up batchnorm3_3
I1003 09:38:52.244482 26722 net.cpp:129] Top shape: 16 128 14 14 (401408)
I1003 09:38:52.244488 26722 net.cpp:137] Memory required for data: 865435648
I1003 09:38:52.244498 26722 layer_factory.hpp:77] Creating layer elu3_3
I1003 09:38:52.244503 26722 net.cpp:84] Creating Layer elu3_3
I1003 09:38:52.244508 26722 net.cpp:406] elu3_3 <- conv3_3
I1003 09:38:52.244514 26722 net.cpp:367] elu3_3 -> conv3_3 (in-place)
I1003 09:38:52.244520 26722 net.cpp:122] Setting up elu3_3
I1003 09:38:52.244527 26722 net.cpp:129] Top shape: 16 128 14 14 (401408)
I1003 09:38:52.244531 26722 net.cpp:137] Memory required for data: 867041280
I1003 09:38:52.244537 26722 layer_factory.hpp:77] Creating layer pool3
I1003 09:38:52.244542 26722 layer_factory.cpp:91] cuDNN does not support multiple tops. Using Caffe's own pooling layer.
I1003 09:38:52.244549 26722 net.cpp:84] Creating Layer pool3
I1003 09:38:52.244554 26722 net.cpp:406] pool3 <- conv3_3
I1003 09:38:52.244562 26722 net.cpp:380] pool3 -> pool3
I1003 09:38:52.244570 26722 net.cpp:380] pool3 -> pool3_mask
I1003 09:38:52.244580 26722 net.cpp:380] pool3 -> pool3_argmax_count
I1003 09:38:52.244630 26722 net.cpp:122] Setting up pool3
I1003 09:38:52.244638 26722 net.cpp:129] Top shape: 16 128 7 7 (100352)
I1003 09:38:52.244645 26722 net.cpp:129] Top shape: 16 128 7 7 (100352)
I1003 09:38:52.244652 26722 net.cpp:129] Top shape: 16 128 14 14 (401408)
I1003 09:38:52.244657 26722 net.cpp:137] Memory required for data: 869449728
I1003 09:38:52.244663 26722 layer_factory.hpp:77] Creating layer conv4_1
I1003 09:38:52.244673 26722 net.cpp:84] Creating Layer conv4_1
I1003 09:38:52.244678 26722 net.cpp:406] conv4_1 <- pool3
I1003 09:38:52.244685 26722 net.cpp:380] conv4_1 -> conv4_1
I1003 09:38:52.248368 26722 net.cpp:122] Setting up conv4_1
I1003 09:38:52.248380 26722 net.cpp:129] Top shape: 16 256 7 7 (200704)
I1003 09:38:52.248386 26722 net.cpp:137] Memory required for data: 870252544
I1003 09:38:52.248399 26722 layer_factory.hpp:77] Creating layer batchnorm4_1
I1003 09:38:52.248407 26722 net.cpp:84] Creating Layer batchnorm4_1
I1003 09:38:52.248412 26722 net.cpp:406] batchnorm4_1 <- conv4_1
I1003 09:38:52.248420 26722 net.cpp:367] batchnorm4_1 -> conv4_1 (in-place)
I1003 09:38:52.248610 26722 net.cpp:122] Setting up batchnorm4_1
I1003 09:38:52.248617 26722 net.cpp:129] Top shape: 16 256 7 7 (200704)
I1003 09:38:52.248620 26722 net.cpp:137] Memory required for data: 871055360
I1003 09:38:52.248626 26722 layer_factory.hpp:77] Creating layer elu4_1
I1003 09:38:52.248631 26722 net.cpp:84] Creating Layer elu4_1
I1003 09:38:52.248634 26722 net.cpp:406] elu4_1 <- conv4_1
I1003 09:38:52.248638 26722 net.cpp:367] elu4_1 -> conv4_1 (in-place)
I1003 09:38:52.248641 26722 net.cpp:122] Setting up elu4_1
I1003 09:38:52.248647 26722 net.cpp:129] Top shape: 16 256 7 7 (200704)
I1003 09:38:52.248652 26722 net.cpp:137] Memory required for data: 871858176
I1003 09:38:52.248657 26722 layer_factory.hpp:77] Creating layer conv4_2
I1003 09:38:52.248668 26722 net.cpp:84] Creating Layer conv4_2
I1003 09:38:52.248672 26722 net.cpp:406] conv4_2 <- conv4_1
I1003 09:38:52.248680 26722 net.cpp:380] conv4_2 -> conv4_2
I1003 09:38:52.255055 26722 net.cpp:122] Setting up conv4_2
I1003 09:38:52.255069 26722 net.cpp:129] Top shape: 16 256 7 7 (200704)
I1003 09:38:52.255072 26722 net.cpp:137] Memory required for data: 872660992
I1003 09:38:52.255079 26722 layer_factory.hpp:77] Creating layer batchnorm4_2
I1003 09:38:52.255086 26722 net.cpp:84] Creating Layer batchnorm4_2
I1003 09:38:52.255089 26722 net.cpp:406] batchnorm4_2 <- conv4_2
I1003 09:38:52.255095 26722 net.cpp:367] batchnorm4_2 -> conv4_2 (in-place)
I1003 09:38:52.255298 26722 net.cpp:122] Setting up batchnorm4_2
I1003 09:38:52.255306 26722 net.cpp:129] Top shape: 16 256 7 7 (200704)
I1003 09:38:52.255321 26722 net.cpp:137] Memory required for data: 873463808
I1003 09:38:52.255327 26722 layer_factory.hpp:77] Creating layer elu4_2
I1003 09:38:52.255332 26722 net.cpp:84] Creating Layer elu4_2
I1003 09:38:52.255336 26722 net.cpp:406] elu4_2 <- conv4_2
I1003 09:38:52.255342 26722 net.cpp:367] elu4_2 -> conv4_2 (in-place)
I1003 09:38:52.255347 26722 net.cpp:122] Setting up elu4_2
I1003 09:38:52.255352 26722 net.cpp:129] Top shape: 16 256 7 7 (200704)
I1003 09:38:52.255354 26722 net.cpp:137] Memory required for data: 874266624
I1003 09:38:52.255357 26722 layer_factory.hpp:77] Creating layer deconv4_3
I1003 09:38:52.255375 26722 net.cpp:84] Creating Layer deconv4_3
I1003 09:38:52.255379 26722 net.cpp:406] deconv4_3 <- conv4_2
I1003 09:38:52.255384 26722 net.cpp:380] deconv4_3 -> deconv4_3
I1003 09:38:52.257669 26722 net.cpp:122] Setting up deconv4_3
I1003 09:38:52.257683 26722 net.cpp:129] Top shape: 16 128 7 7 (100352)
I1003 09:38:52.257686 26722 net.cpp:137] Memory required for data: 874668032
I1003 09:38:52.257692 26722 layer_factory.hpp:77] Creating layer debatchnorm4_3
I1003 09:38:52.257699 26722 net.cpp:84] Creating Layer debatchnorm4_3
I1003 09:38:52.257702 26722 net.cpp:406] debatchnorm4_3 <- deconv4_3
I1003 09:38:52.257707 26722 net.cpp:367] debatchnorm4_3 -> deconv4_3 (in-place)
I1003 09:38:52.257903 26722 net.cpp:122] Setting up debatchnorm4_3
I1003 09:38:52.257910 26722 net.cpp:129] Top shape: 16 128 7 7 (100352)
I1003 09:38:52.257912 26722 net.cpp:137] Memory required for data: 875069440
I1003 09:38:52.257920 26722 layer_factory.hpp:77] Creating layer deelu4_3
I1003 09:38:52.257923 26722 net.cpp:84] Creating Layer deelu4_3
I1003 09:38:52.257926 26722 net.cpp:406] deelu4_3 <- deconv4_3
I1003 09:38:52.257931 26722 net.cpp:367] deelu4_3 -> deconv4_3 (in-place)
I1003 09:38:52.257936 26722 net.cpp:122] Setting up deelu4_3
I1003 09:38:52.257942 26722 net.cpp:129] Top shape: 16 128 7 7 (100352)
I1003 09:38:52.257947 26722 net.cpp:137] Memory required for data: 875470848
I1003 09:38:52.257952 26722 layer_factory.hpp:77] Creating layer unpool3
I1003 09:38:52.257962 26722 net.cpp:84] Creating Layer unpool3
I1003 09:38:52.257966 26722 net.cpp:406] unpool3 <- deconv4_3
I1003 09:38:52.257973 26722 net.cpp:406] unpool3 <- pool3_mask
I1003 09:38:52.257978 26722 net.cpp:406] unpool3 <- pool3_argmax_count
I1003 09:38:52.257987 26722 net.cpp:380] unpool3 -> unpool3
I1003 09:38:52.258014 26722 net.cpp:122] Setting up unpool3
I1003 09:38:52.258021 26722 net.cpp:129] Top shape: 16 128 14 14 (401408)
I1003 09:38:52.258025 26722 net.cpp:137] Memory required for data: 877076480
I1003 09:38:52.258031 26722 layer_factory.hpp:77] Creating layer deconv3_1
I1003 09:38:52.258041 26722 net.cpp:84] Creating Layer deconv3_1
I1003 09:38:52.258046 26722 net.cpp:406] deconv3_1 <- unpool3
I1003 09:38:52.258054 26722 net.cpp:380] deconv3_1 -> deconv3_1
I1003 09:38:52.259497 26722 net.cpp:122] Setting up deconv3_1
I1003 09:38:52.259508 26722 net.cpp:129] Top shape: 16 128 14 14 (401408)
I1003 09:38:52.259510 26722 net.cpp:137] Memory required for data: 878682112
I1003 09:38:52.259516 26722 layer_factory.hpp:77] Creating layer debatchnorm3_1
I1003 09:38:52.259522 26722 net.cpp:84] Creating Layer debatchnorm3_1
I1003 09:38:52.259526 26722 net.cpp:406] debatchnorm3_1 <- deconv3_1
I1003 09:38:52.259534 26722 net.cpp:367] debatchnorm3_1 -> deconv3_1 (in-place)
I1003 09:38:52.259733 26722 net.cpp:122] Setting up debatchnorm3_1
I1003 09:38:52.259740 26722 net.cpp:129] Top shape: 16 128 14 14 (401408)
I1003 09:38:52.259743 26722 net.cpp:137] Memory required for data: 880287744
I1003 09:38:52.259749 26722 layer_factory.hpp:77] Creating layer deelu3_1
I1003 09:38:52.259753 26722 net.cpp:84] Creating Layer deelu3_1
I1003 09:38:52.259757 26722 net.cpp:406] deelu3_1 <- deconv3_1
I1003 09:38:52.259760 26722 net.cpp:367] deelu3_1 -> deconv3_1 (in-place)
I1003 09:38:52.259764 26722 net.cpp:122] Setting up deelu3_1
I1003 09:38:52.259768 26722 net.cpp:129] Top shape: 16 128 14 14 (401408)
I1003 09:38:52.259771 26722 net.cpp:137] Memory required for data: 881893376
I1003 09:38:52.259789 26722 layer_factory.hpp:77] Creating layer deconv3_2
I1003 09:38:52.259795 26722 net.cpp:84] Creating Layer deconv3_2
I1003 09:38:52.259799 26722 net.cpp:406] deconv3_2 <- deconv3_1
I1003 09:38:52.259804 26722 net.cpp:380] deconv3_2 -> deconv3_2
I1003 09:38:52.261258 26722 net.cpp:122] Setting up deconv3_2
I1003 09:38:52.261268 26722 net.cpp:129] Top shape: 16 128 14 14 (401408)
I1003 09:38:52.261271 26722 net.cpp:137] Memory required for data: 883499008
I1003 09:38:52.261277 26722 layer_factory.hpp:77] Creating layer debatchnorm3_2
I1003 09:38:52.261282 26722 net.cpp:84] Creating Layer debatchnorm3_2
I1003 09:38:52.261286 26722 net.cpp:406] debatchnorm3_2 <- deconv3_2
I1003 09:38:52.261291 26722 net.cpp:367] debatchnorm3_2 -> deconv3_2 (in-place)
I1003 09:38:52.261487 26722 net.cpp:122] Setting up debatchnorm3_2
I1003 09:38:52.261493 26722 net.cpp:129] Top shape: 16 128 14 14 (401408)
I1003 09:38:52.261497 26722 net.cpp:137] Memory required for data: 885104640
I1003 09:38:52.261502 26722 layer_factory.hpp:77] Creating layer deelu3_2
I1003 09:38:52.261507 26722 net.cpp:84] Creating Layer deelu3_2
I1003 09:38:52.261509 26722 net.cpp:406] deelu3_2 <- deconv3_2
I1003 09:38:52.261514 26722 net.cpp:367] deelu3_2 -> deconv3_2 (in-place)
I1003 09:38:52.261518 26722 net.cpp:122] Setting up deelu3_2
I1003 09:38:52.261523 26722 net.cpp:129] Top shape: 16 128 14 14 (401408)
I1003 09:38:52.261526 26722 net.cpp:137] Memory required for data: 886710272
I1003 09:38:52.261533 26722 layer_factory.hpp:77] Creating layer deconv3_3
I1003 09:38:52.261540 26722 net.cpp:84] Creating Layer deconv3_3
I1003 09:38:52.261545 26722 net.cpp:406] deconv3_3 <- deconv3_2
I1003 09:38:52.261554 26722 net.cpp:380] deconv3_3 -> deconv3_3
I1003 09:38:52.262184 26722 net.cpp:122] Setting up deconv3_3
I1003 09:38:52.262192 26722 net.cpp:129] Top shape: 16 64 14 14 (200704)
I1003 09:38:52.262198 26722 net.cpp:137] Memory required for data: 887513088
I1003 09:38:52.262214 26722 layer_factory.hpp:77] Creating layer debatchnorm3_3
I1003 09:38:52.262223 26722 net.cpp:84] Creating Layer debatchnorm3_3
I1003 09:38:52.262226 26722 net.cpp:406] debatchnorm3_3 <- deconv3_3
I1003 09:38:52.262234 26722 net.cpp:367] debatchnorm3_3 -> deconv3_3 (in-place)
I1003 09:38:52.262447 26722 net.cpp:122] Setting up debatchnorm3_3
I1003 09:38:52.262454 26722 net.cpp:129] Top shape: 16 64 14 14 (200704)
I1003 09:38:52.262459 26722 net.cpp:137] Memory required for data: 888315904
I1003 09:38:52.262468 26722 layer_factory.hpp:77] Creating layer deelu3_3
I1003 09:38:52.262475 26722 net.cpp:84] Creating Layer deelu3_3
I1003 09:38:52.262478 26722 net.cpp:406] deelu3_3 <- deconv3_3
I1003 09:38:52.262485 26722 net.cpp:367] deelu3_3 -> deconv3_3 (in-place)
I1003 09:38:52.262492 26722 net.cpp:122] Setting up deelu3_3
I1003 09:38:52.262498 26722 net.cpp:129] Top shape: 16 64 14 14 (200704)
I1003 09:38:52.262502 26722 net.cpp:137] Memory required for data: 889118720
I1003 09:38:52.262507 26722 layer_factory.hpp:77] Creating layer unpool2
I1003 09:38:52.262516 26722 net.cpp:84] Creating Layer unpool2
I1003 09:38:52.262521 26722 net.cpp:406] unpool2 <- deconv3_3
I1003 09:38:52.262526 26722 net.cpp:406] unpool2 <- pool2_mask
I1003 09:38:52.262531 26722 net.cpp:406] unpool2 <- pool2_argmax_count
I1003 09:38:52.262539 26722 net.cpp:380] unpool2 -> unpool2
I1003 09:38:52.262567 26722 net.cpp:122] Setting up unpool2
I1003 09:38:52.262573 26722 net.cpp:129] Top shape: 16 64 56 56 (3211264)
I1003 09:38:52.262574 26722 net.cpp:137] Memory required for data: 901963776
I1003 09:38:52.262578 26722 layer_factory.hpp:77] Creating layer deconv2_1
I1003 09:38:52.262584 26722 net.cpp:84] Creating Layer deconv2_1
I1003 09:38:52.262588 26722 net.cpp:406] deconv2_1 <- unpool2
I1003 09:38:52.262593 26722 net.cpp:380] deconv2_1 -> deconv2_1
I1003 09:38:52.263032 26722 net.cpp:122] Setting up deconv2_1
I1003 09:38:52.263039 26722 net.cpp:129] Top shape: 16 64 56 56 (3211264)
I1003 09:38:52.263042 26722 net.cpp:137] Memory required for data: 914808832
I1003 09:38:52.263047 26722 layer_factory.hpp:77] Creating layer debatchnorm2_1
I1003 09:38:52.263063 26722 net.cpp:84] Creating Layer debatchnorm2_1
I1003 09:38:52.263067 26722 net.cpp:406] debatchnorm2_1 <- deconv2_1
I1003 09:38:52.263072 26722 net.cpp:367] debatchnorm2_1 -> deconv2_1 (in-place)
I1003 09:38:52.263278 26722 net.cpp:122] Setting up debatchnorm2_1
I1003 09:38:52.263285 26722 net.cpp:129] Top shape: 16 64 56 56 (3211264)
I1003 09:38:52.263288 26722 net.cpp:137] Memory required for data: 927653888
I1003 09:38:52.263293 26722 layer_factory.hpp:77] Creating layer deelu2_1
I1003 09:38:52.263298 26722 net.cpp:84] Creating Layer deelu2_1
I1003 09:38:52.263303 26722 net.cpp:406] deelu2_1 <- deconv2_1
I1003 09:38:52.263305 26722 net.cpp:367] deelu2_1 -> deconv2_1 (in-place)
I1003 09:38:52.263309 26722 net.cpp:122] Setting up deelu2_1
I1003 09:38:52.263314 26722 net.cpp:129] Top shape: 16 64 56 56 (3211264)
I1003 09:38:52.263316 26722 net.cpp:137] Memory required for data: 940498944
I1003 09:38:52.263320 26722 layer_factory.hpp:77] Creating layer deconv2_2
I1003 09:38:52.263329 26722 net.cpp:84] Creating Layer deconv2_2
I1003 09:38:52.263332 26722 net.cpp:406] deconv2_2 <- deconv2_1
I1003 09:38:52.263341 26722 net.cpp:380] deconv2_2 -> deconv2_2
I1003 09:38:52.263697 26722 net.cpp:122] Setting up deconv2_2
I1003 09:38:52.263705 26722 net.cpp:129] Top shape: 16 32 56 56 (1605632)
I1003 09:38:52.263710 26722 net.cpp:137] Memory required for data: 946921472
I1003 09:38:52.263718 26722 layer_factory.hpp:77] Creating layer debatchnorm2_2
I1003 09:38:52.263725 26722 net.cpp:84] Creating Layer debatchnorm2_2
I1003 09:38:52.263730 26722 net.cpp:406] debatchnorm2_2 <- deconv2_2
I1003 09:38:52.263736 26722 net.cpp:367] debatchnorm2_2 -> deconv2_2 (in-place)
I1003 09:38:52.263941 26722 net.cpp:122] Setting up debatchnorm2_2
I1003 09:38:52.263948 26722 net.cpp:129] Top shape: 16 32 56 56 (1605632)
I1003 09:38:52.263952 26722 net.cpp:137] Memory required for data: 953344000
I1003 09:38:52.263962 26722 layer_factory.hpp:77] Creating layer deelu2_2
I1003 09:38:52.263967 26722 net.cpp:84] Creating Layer deelu2_2
I1003 09:38:52.263972 26722 net.cpp:406] deelu2_2 <- deconv2_2
I1003 09:38:52.263978 26722 net.cpp:367] deelu2_2 -> deconv2_2 (in-place)
I1003 09:38:52.263984 26722 net.cpp:122] Setting up deelu2_2
I1003 09:38:52.263991 26722 net.cpp:129] Top shape: 16 32 56 56 (1605632)
I1003 09:38:52.263995 26722 net.cpp:137] Memory required for data: 959766528
I1003 09:38:52.263999 26722 layer_factory.hpp:77] Creating layer unpool1
I1003 09:38:52.264010 26722 net.cpp:84] Creating Layer unpool1
I1003 09:38:52.264015 26722 net.cpp:406] unpool1 <- deconv2_2
I1003 09:38:52.264021 26722 net.cpp:406] unpool1 <- pool1_mask
I1003 09:38:52.264026 26722 net.cpp:406] unpool1 <- pool1_argmax_count
I1003 09:38:52.264034 26722 net.cpp:380] unpool1 -> unpool1
I1003 09:38:52.264063 26722 net.cpp:122] Setting up unpool1
I1003 09:38:52.264070 26722 net.cpp:129] Top shape: 16 32 224 224 (25690112)
I1003 09:38:52.264075 26722 net.cpp:137] Memory required for data: 1062526976
I1003 09:38:52.264080 26722 layer_factory.hpp:77] Creating layer deconv1_1
I1003 09:38:52.264087 26722 net.cpp:84] Creating Layer deconv1_1
I1003 09:38:52.264092 26722 net.cpp:406] deconv1_1 <- unpool1
I1003 09:38:52.264099 26722 net.cpp:380] deconv1_1 -> deconv1_1
I1003 09:38:52.264405 26722 net.cpp:122] Setting up deconv1_1
I1003 09:38:52.264413 26722 net.cpp:129] Top shape: 16 32 224 224 (25690112)
I1003 09:38:52.264418 26722 net.cpp:137] Memory required for data: 1165287424
I1003 09:38:52.264425 26722 layer_factory.hpp:77] Creating layer debatchnorm1_1
I1003 09:38:52.264432 26722 net.cpp:84] Creating Layer debatchnorm1_1
I1003 09:38:52.264437 26722 net.cpp:406] debatchnorm1_1 <- deconv1_1
I1003 09:38:52.264446 26722 net.cpp:367] debatchnorm1_1 -> deconv1_1 (in-place)
I1003 09:38:52.264664 26722 net.cpp:122] Setting up debatchnorm1_1
I1003 09:38:52.264672 26722 net.cpp:129] Top shape: 16 32 224 224 (25690112)
I1003 09:38:52.264677 26722 net.cpp:137] Memory required for data: 1268047872
I1003 09:38:52.264686 26722 layer_factory.hpp:77] Creating layer deelu1_1
I1003 09:38:52.264700 26722 net.cpp:84] Creating Layer deelu1_1
I1003 09:38:52.264705 26722 net.cpp:406] deelu1_1 <- deconv1_1
I1003 09:38:52.264714 26722 net.cpp:367] deelu1_1 -> deconv1_1 (in-place)
I1003 09:38:52.264719 26722 net.cpp:122] Setting up deelu1_1
I1003 09:38:52.264726 26722 net.cpp:129] Top shape: 16 32 224 224 (25690112)
I1003 09:38:52.264730 26722 net.cpp:137] Memory required for data: 1370808320
I1003 09:38:52.264736 26722 layer_factory.hpp:77] Creating layer deconv1_2
I1003 09:38:52.264746 26722 net.cpp:84] Creating Layer deconv1_2
I1003 09:38:52.264750 26722 net.cpp:406] deconv1_2 <- deconv1_1
I1003 09:38:52.264757 26722 net.cpp:380] deconv1_2 -> deconv1_2
I1003 09:38:52.265074 26722 net.cpp:122] Setting up deconv1_2
I1003 09:38:52.265082 26722 net.cpp:129] Top shape: 16 32 224 224 (25690112)
I1003 09:38:52.265085 26722 net.cpp:137] Memory required for data: 1473568768
I1003 09:38:52.265089 26722 layer_factory.hpp:77] Creating layer debatchnorm1_2
I1003 09:38:52.265095 26722 net.cpp:84] Creating Layer debatchnorm1_2
I1003 09:38:52.265099 26722 net.cpp:406] debatchnorm1_2 <- deconv1_2
I1003 09:38:52.265102 26722 net.cpp:367] debatchnorm1_2 -> deconv1_2 (in-place)
I1003 09:38:52.265755 26722 net.cpp:122] Setting up debatchnorm1_2
I1003 09:38:52.265766 26722 net.cpp:129] Top shape: 16 32 224 224 (25690112)
I1003 09:38:52.265769 26722 net.cpp:137] Memory required for data: 1576329216
I1003 09:38:52.265775 26722 layer_factory.hpp:77] Creating layer deelu1_2
I1003 09:38:52.265779 26722 net.cpp:84] Creating Layer deelu1_2
I1003 09:38:52.265784 26722 net.cpp:406] deelu1_2 <- deconv1_2
I1003 09:38:52.265787 26722 net.cpp:367] deelu1_2 -> deconv1_2 (in-place)
I1003 09:38:52.265792 26722 net.cpp:122] Setting up deelu1_2
I1003 09:38:52.265795 26722 net.cpp:129] Top shape: 16 32 224 224 (25690112)
I1003 09:38:52.265800 26722 net.cpp:137] Memory required for data: 1679089664
I1003 09:38:52.265805 26722 layer_factory.hpp:77] Creating layer segmentation
I1003 09:38:52.265820 26722 net.cpp:84] Creating Layer segmentation
I1003 09:38:52.265823 26722 net.cpp:406] segmentation <- deconv1_2
I1003 09:38:52.265832 26722 net.cpp:380] segmentation -> segmentation
I1003 09:38:52.267701 26722 net.cpp:122] Setting up segmentation
I1003 09:38:52.267715 26722 net.cpp:129] Top shape: 16 3 224 224 (2408448)
I1003 09:38:52.267721 26722 net.cpp:137] Memory required for data: 1688723456
I1003 09:38:52.267731 26722 layer_factory.hpp:77] Creating layer infogainLoss
I1003 09:38:52.267918 26722 net.cpp:84] Creating Layer infogainLoss
I1003 09:38:52.267926 26722 net.cpp:406] infogainLoss <- segmentation
I1003 09:38:52.267933 26722 net.cpp:406] infogainLoss <- label
I1003 09:38:52.267944 26722 net.cpp:380] infogainLoss -> loss
…
I1003 09:38:52.272986 26722 solver.cpp:172] Creating test net (#0) specified by net file: train_val.prototxt
I1003 09:38:52.273047 26722 net.cpp:294] The NetState phase (1) differed from the phase (0) specified by a rule in layer data
I1003 09:38:52.273337 26722 net.cpp:51] Initializing net from parameters: 
name: "ZNet"
state {
  phase: TEST
}
layer {
  name: "data"
  type: "HDF5Data"
  top: "data"
  top: "label"
  include {
    phase: TEST
  }
  hdf5_data_param {
    source: "/home/grochette/Documents/SegNet/data/HDF5/Validation/hdf5_list.txt"
    batch_size: 2
  }
}
layer {
  name: "batchnorm0"
  type: "BatchNorm"
  bottom: "data"
  top: "data"
}
layer {
  name: "conv1_1"
  type: "Convolution"
  bottom: "data"
  top: "conv1_1"
  param {
    lr_mult: 1
    decay_mult: 1
  }
  param {
    lr_mult: 2
    decay_mult: 0
  }
  convolution_param {
    num_output: 32
    pad: 1
    kernel_size: 3
    stride: 1
    weight_filler {
      type: "xavier"
    }
    bias_filler {
      type: "constant"
    }
  }
}
layer {
  name: "batchnorm1_1"
  type: "BatchNorm"
  bottom: "conv1_1"
  top: "conv1_1"
}
layer {
  name: "elu1_1"
  type: "ELU"
  bottom: "conv1_1"
  top: "conv1_1"
}
layer {
  name: "conv1_2"
  type: "Convolution"
  bottom: "conv1_1"
  top: "conv1_2"
  param {
    lr_mult: 1
    decay_mult: 1
  }
  param {
    lr_mult: 2
    decay_mult: 0
  }
  convolution_param {
    num_output: 32
    pad: 1
    kernel_size: 3
    stride: 1
    weight_filler {
      type: "xavier"
    }
    bias_filler {
      type: "constant"
    }
  }
}
layer {
  name: "batchnorm1_2"
  type: "BatchNorm"
  bottom: "conv1_2"
  top: "conv1_2"
}
layer {
  name: "elu1_2"
  type: "ELU"
  bottom: "conv1_2"
  top: "conv1_2"
}
layer {
  name: "pool1"
  type: "Pooling"
  bottom: "conv1_2"
  top: "pool1"
  top: "pool1_mask"
  top: "pool1_argmax_count"
  pooling_param {
    pool: MAX
    kernel_size: 4
    stride: 4
  }
}
layer {
  name: "conv2_1"
  type: "Convolution"
  bottom: "pool1"
  top: "conv2_1"
  param {
    lr_mult: 1
    decay_mult: 1
  }
  param {
    lr_mult: 2
    decay_mult: 0
  }
  convolution_param {
    num_output: 64
    pad: 1
    kernel_size: 3
    stride: 1
    weight_filler {
      type: "xavier"
    }
    bias_filler {
      type: "constant"
    }
  }
}
layer {
  name: "batchnorm2_1"
  type: "BatchNorm"
  bottom: "conv2_1"
  top: "conv2_1"
}
layer {
  name: "elu2_1"
  type: "ELU"
  bottom: "conv2_1"
  top: "conv2_1"
}
layer {
  name: "conv2_2"
  type: "Convolution"
  bottom: "conv2_1"
  top: "conv2_2"
  param {
    lr_mult: 1
    decay_mult: 1
  }
  param {
    lr_mult: 2
    decay_mult: 0
  }
  convolution_param {
    num_output: 64
    pad: 1
    kernel_size: 3
    stride: 1
    weight_filler {
      type: "xavier"
    }
    bias_filler {
      type: "constant"
    }
  }
}
layer {
  name: "batchnorm2_2"
  type: "BatchNorm"
  bottom: "conv2_2"
  top: "conv2_2"
}
layer {
  name: "elu2_2"
  type: "ELU"
  bottom: "conv2_2"
  top: "conv2_2"
}
layer {
  name: "pool2"
  type: "Pooling"
  bottom: "conv2_2"
  top: "pool2"
  top: "pool2_mask"
  top: "pool2_argmax_count"
  pooling_param {
    pool: MAX
    kernel_size: 4
    stride: 4
  }
}
layer {
  name: "conv3_1"
  type: "Convolution"
  bottom: "pool2"
  top: "conv3_1"
  param {
    lr_mult: 1
    decay_mult: 1
  }
  param {
    lr_mult: 2
    decay_mult: 0
  }
  convolution_param {
    num_output: 128
    pad: 1
    kernel_size: 3
    stride: 1
    weight_filler {
      type: "xavier"
    }
    bias_filler {
      type: "constant"
    }
  }
}
layer {
  name: "batchnorm3_1"
  type: "BatchNorm"
  bottom: "conv3_1"
  top: "conv3_1"
}
layer {
  name: "elu3_1"
  type: "ELU"
  bottom: "conv3_1"
  top: "conv3_1"
}
layer {
  name: "conv3_2"
  type: "Convolution"
  bottom: "conv3_1"
  top: "conv3_2"
  param {
    lr_mult: 1
    decay_mult: 1
  }
  param {
    lr_mult: 2
    decay_mult: 0
  }
  convolution_param {
    num_output: 128
    pad: 1
    kernel_size: 3
    stride: 1
    weight_filler {
      type: "xavier"
    }
    bias_filler {
      type: "constant"
    }
  }
}
layer {
  name: "batchnorm3_2"
  type: "BatchNorm"
  bottom: "conv3_2"
  top: "conv3_2"
}
layer {
  name: "elu3_2"
  type: "ELU"
  bottom: "conv3_2"
  top: "conv3_2"
}
layer {
  name: "conv3_3"
  type: "Convolution"
  bottom: "conv3_2"
  top: "conv3_3"
  param {
    lr_mult: 1
    decay_mult: 1
  }
  param {
    lr_mult: 2
    decay_mult: 0
  }
  convolution_param {
    num_output: 128
    pad: 1
    kernel_size: 3
    stride: 1
    weight_filler {
      type: "xavier"
    }
    bias_filler {
      type: "constant"
    }
  }
}
layer {
  name: "batchnorm3_3"
  type: "BatchNorm"
  bottom: "conv3_3"
  top: "conv3_3"
}
layer {
  name: "elu3_3"
  type: "ELU"
  bottom: "conv3_3"
  top: "conv3_3"
}
layer {
  name: "pool3"
  type: "Pooling"
  bottom: "conv3_3"
  top: "pool3"
  top: "pool3_mask"
  top: "pool3_argmax_count"
  pooling_param {
    pool: MAX
    kernel_size: 2
    stride: 2
  }
}
layer {
  name: "conv4_1"
  type: "Convolution"
  bottom: "pool3"
  top: "conv4_1"
  param {
    lr_mult: 1
    decay_mult: 1
  }
  param {
    lr_mult: 2
    decay_mult: 0
  }
  convolution_param {
    num_output: 256
    pad: 1
    kernel_size: 3
    stride: 1
    weight_filler {
      type: "xavier"
    }
    bias_filler {
      type: "constant"
    }
  }
}
layer {
  name: "batchnorm4_1"
  type: "BatchNorm"
  bottom: "conv4_1"
  top: "conv4_1"
}
layer {
  name: "elu4_1"
  type: "ELU"
  bottom: "conv4_1"
  top: "conv4_1"
}
layer {
  name: "conv4_2"
  type: "Convolution"
  bottom: "conv4_1"
  top: "conv4_2"
  param {
    lr_mult: 1
    decay_mult: 1
  }
  param {
    lr_mult: 2
    decay_mult: 0
  }
  convolution_param {
    num_output: 256
    pad: 1
    kernel_size: 3
    stride: 1
    weight_filler {
      type: "xavier"
    }
    bias_filler {
      type: "constant"
    }
  }
}
layer {
  name: "batchnorm4_2"
  type: "BatchNorm"
  bottom: "conv4_2"
  top: "conv4_2"
}
layer {
  name: "elu4_2"
  type: "ELU"
  bottom: "conv4_2"
  top: "conv4_2"
}
layer {
  name: "deconv4_3"
  type: "Deconvolution"
  bottom: "conv4_2"
  top: "deconv4_3"
  param {
    lr_mult: 1
    decay_mult: 1
  }
  param {
    lr_mult: 2
    decay_mult: 0
  }
  convolution_param {
    num_output: 128
    pad: 1
    kernel_size: 3
    stride: 1
    weight_filler {
      type: "xavier"
    }
    bias_filler {
      type: "constant"
    }
  }
}
layer {
  name: "debatchnorm4_3"
  type: "BatchNorm"
  bottom: "deconv4_3"
  top: "deconv4_3"
}
layer {
  name: "deelu4_3"
  type: "ELU"
  bottom: "deconv4_3"
  top: "deconv4_3"
}
layer {
  name: "unpool3"
  type: "Unpooling"
  bottom: "deconv4_3"
  bottom: "pool3_mask"
  bottom: "pool3_argmax_count"
  top: "unpool3"
  pooling_param {
    pool: MAX
    kernel_size: 2
    stride: 2
  }
}
layer {
  name: "deconv3_1"
  type: "Deconvolution"
  bottom: "unpool3"
  top: "deconv3_1"
  param {
    lr_mult: 1
    decay_mult: 1
  }
  param {
    lr_mult: 2
    decay_mult: 0
  }
  convolution_param {
    num_output: 128
    pad: 1
    kernel_size: 3
    stride: 1
    weight_filler {
      type: "xavier"
    }
    bias_filler {
      type: "constant"
    }
  }
}
layer {
  name: "debatchnorm3_1"
  type: "BatchNorm"
  bottom: "deconv3_1"
  top: "deconv3_1"
}
layer {
  name: "deelu3_1"
  type: "ELU"
  bottom: "deconv3_1"
  top: "deconv3_1"
}
layer {
  name: "deconv3_2"
  type: "Deconvolution"
  bottom: "deconv3_1"
  top: "deconv3_2"
  param {
    lr_mult: 1
    decay_mult: 1
  }
  param {
    lr_mult: 2
    decay_mult: 0
  }
  convolution_param {
    num_output: 128
    pad: 1
    kernel_size: 3
    stride: 1
    weight_filler {
      type: "xavier"
    }
    bias_filler {
      type: "constant"
    }
  }
}
layer {
  name: "debatchnorm3_2"
  type: "BatchNorm"
  bottom: "deconv3_2"
  top: "deconv3_2"
}
layer {
  name: "deelu3_2"
  type: "ELU"
  bottom: "deconv3_2"
  top: "deconv3_2"
}
layer {
  name: "deconv3_3"
  type: "Deconvolution"
  bottom: "deconv3_2"
  top: "deconv3_3"
  param {
    lr_mult: 1
    decay_mult: 1
  }
  param {
    lr_mult: 2
    decay_mult: 0
  }
  convolution_param {
    num_output: 64
    pad: 1
    kernel_size: 3
    stride: 1
    weight_filler {
      type: "xavier"
    }
    bias_filler {
      type: "constant"
    }
  }
}
layer {
  name: "debatchnorm3_3"
  type: "BatchNorm"
  bottom: "deconv3_3"
  top: "deconv3_3"
}
layer {
  name: "deelu3_3"
  type: "ELU"
  bottom: "deconv3_3"
  top: "deconv3_3"
}
layer {
  name: "unpool2"
  type: "Unpooling"
  bottom: "deconv3_3"
  bottom: "pool2_mask"
  bottom: "pool2_argmax_count"
  top: "unpool2"
  pooling_param {
    pool: MAX
    kernel_size: 4
    stride: 4
  }
}
layer {
  name: "deconv2_1"
  type: "Deconvolution"
  bottom: "unpool2"
  top: "deconv2_1"
  param {
    lr_mult: 1
    decay_mult: 1
  }
  param {
    lr_mult: 2
    decay_mult: 0
  }
  convolution_param {
    num_output: 64
    pad: 1
    kernel_size: 3
    stride: 1
    weight_filler {
      type: "xavier"
    }
    bias_filler {
      type: "constant"
    }
  }
}
layer {
  name: "debatchnorm2_1"
  type: "BatchNorm"
  bottom: "deconv2_1"
  top: "deconv2_1"
}
layer {
  name: "deelu2_1"
  type: "ELU"
  bottom: "deconv2_1"
  top: "deconv2_1"
}
layer {
  name: "deconv2_2"
  type: "Deconvolution"
  bottom: "deconv2_1"
  top: "deconv2_2"
  param {
    lr_mult: 1
    decay_mult: 1
  }
  param {
    lr_mult: 2
    decay_mult: 0
  }
  convolution_param {
    num_output: 32
    pad: 1
    kernel_size: 3
    stride: 1
    weight_filler {
      type: "xavier"
    }
    bias_filler {
      type: "constant"
    }
  }
}
layer {
  name: "debatchnorm2_2"
  type: "BatchNorm"
  bottom: "deconv2_2"
  top: "deconv2_2"
}
layer {
  name: "deelu2_2"
  type: "ELU"
  bottom: "deconv2_2"
  top: "deconv2_2"
}
layer {
  name: "unpool1"
  type: "Unpooling"
  bottom: "deconv2_2"
  bottom: "pool1_mask"
  bottom: "pool1_argmax_count"
  top: "unpool1"
  pooling_param {
    pool: MAX
    kernel_size: 4
    stride: 4
  }
}
layer {
  name: "deconv1_1"
  type: "Deconvolution"
  bottom: "unpool1"
  top: "deconv1_1"
  param {
    lr_mult: 1
    decay_mult: 1
  }
  param {
    lr_mult: 2
    decay_mult: 0
  }
  convolution_param {
    num_output: 32
    pad: 1
    kernel_size: 3
    stride: 1
    weight_filler {
      type: "xavier"
    }
    bias_filler {
      type: "constant"
    }
  }
}
layer {
  name: "debatchnorm1_1"
  type: "BatchNorm"
  bottom: "deconv1_1"
  top: "deconv1_1"
}
layer {
  name: "deelu1_1"
  type: "ELU"
  bottom: "deconv1_1"
  top: "deconv1_1"
}
layer {
  name: "deconv1_2"
  type: "Deconvolution"
  bottom: "deconv1_1"
  top: "deconv1_2"
  param {
    lr_mult: 1
    decay_mult: 1
  }
  param {
    lr_mult: 2
    decay_mult: 0
  }
  convolution_param {
    num_output: 32
    pad: 1
    kernel_size: 3
    stride: 1
    weight_filler {
      type: "xavier"
    }
    bias_filler {
      type: "constant"
    }
  }
}
layer {
  name: "debatchnorm1_2"
  type: "BatchNorm"
  bottom: "deconv1_2"
  top: "deconv1_2"
}
layer {
  name: "deelu1_2"
  type: "ELU"
  bottom: "deconv1_2"
  top: "deconv1_2"
}
layer {
  name: "segmentation"
  type: "Convolution"
  bottom: "deconv1_2"
  top: "segmentation"
  param {
    lr_mult: 1
    decay_mult: 1
  }
  param {
    lr_mult: 2
    decay_mult: 0
  }
  convolution_param {
    num_output: 3
    pad: 0
    kernel_size: 1
    weight_filler {
      type: "xavier"
    }
    bias_filler {
      type: "constant"
    }
  }
}
layer {
  name: "infogainLoss"
  type: "InfogainLoss"
  bottom: "segmentation"
  bottom: "label"
  top: "loss"
  loss_param {
    ignore_label: 3
  }
  infogain_loss_param {
    source: "/home/grochette/Documents/SegNet/data/OnlyVegas/infogainH.binaryproto"
  }
}
layer {
  name: "accuracy"
  type: "Accuracy"
  bottom: "segmentation"
  bottom: "label"
  top: "accuracy"
  top: "per_class_accuracy"
  include {
    phase: TEST
  }
  accuracy_param {
    ignore_label: 3
  }
}
I1003 09:38:52.273838 26722 layer_factory.hpp:77] Creating layer data
I1003 09:38:52.273847 26722 net.cpp:84] Creating Layer data
I1003 09:38:52.273852 26722 net.cpp:380] data -> data
I1003 09:38:52.273860 26722 net.cpp:380] data -> label
I1003 09:38:52.273869 26722 hdf5_data_layer.cpp:80] Loading list of HDF5 filenames from: /home/grochette/Documents/SegNet/data/HDF5/Validation/hdf5_list.txt
I1003 09:38:52.274097 26722 hdf5_data_layer.cpp:94] Number of HDF5 files: 2
I1003 09:38:55.013169 26722 net.cpp:122] Setting up data
I1003 09:38:55.013193 26722 net.cpp:129] Top shape: 2 4 224 224 (401408)
I1003 09:38:55.013200 26722 net.cpp:129] Top shape: 2 1 224 224 (100352)
I1003 09:38:55.013201 26722 net.cpp:137] Memory required for data: 2007040
I1003 09:38:55.013207 26722 layer_factory.hpp:77] Creating layer label_data_1_split
I1003 09:38:55.013218 26722 net.cpp:84] Creating Layer label_data_1_split
I1003 09:38:55.013223 26722 net.cpp:406] label_data_1_split <- label
I1003 09:38:55.013260 26722 net.cpp:380] label_data_1_split -> label_data_1_split_0
I1003 09:38:55.013272 26722 net.cpp:380] label_data_1_split -> label_data_1_split_1
I1003 09:38:55.013321 26722 net.cpp:122] Setting up label_data_1_split
I1003 09:38:55.013330 26722 net.cpp:129] Top shape: 2 1 224 224 (100352)
I1003 09:38:55.013337 26722 net.cpp:129] Top shape: 2 1 224 224 (100352)
I1003 09:38:55.013342 26722 net.cpp:137] Memory required for data: 2809856
I1003 09:38:55.013347 26722 layer_factory.hpp:77] Creating layer batchnorm0
I1003 09:38:55.013356 26722 net.cpp:84] Creating Layer batchnorm0
I1003 09:38:55.013361 26722 net.cpp:406] batchnorm0 <- data
I1003 09:38:55.013368 26722 net.cpp:367] batchnorm0 -> data (in-place)
I1003 09:38:55.013589 26722 net.cpp:122] Setting up batchnorm0
I1003 09:38:55.013597 26722 net.cpp:129] Top shape: 2 4 224 224 (401408)
I1003 09:38:55.013602 26722 net.cpp:137] Memory required for data: 4415488
I1003 09:38:55.013615 26722 layer_factory.hpp:77] Creating layer conv1_1
I1003 09:38:55.013628 26722 net.cpp:84] Creating Layer conv1_1
I1003 09:38:55.013633 26722 net.cpp:406] conv1_1 <- data
I1003 09:38:55.013640 26722 net.cpp:380] conv1_1 -> conv1_1
I1003 09:38:55.015847 26722 net.cpp:122] Setting up conv1_1
I1003 09:38:55.015861 26722 net.cpp:129] Top shape: 2 32 224 224 (3211264)
I1003 09:38:55.015868 26722 net.cpp:137] Memory required for data: 17260544
I1003 09:38:55.015880 26722 layer_factory.hpp:77] Creating layer batchnorm1_1
I1003 09:38:55.015889 26722 net.cpp:84] Creating Layer batchnorm1_1
I1003 09:38:55.015893 26722 net.cpp:406] batchnorm1_1 <- conv1_1
I1003 09:38:55.015902 26722 net.cpp:367] batchnorm1_1 -> conv1_1 (in-place)
I1003 09:38:55.016150 26722 net.cpp:122] Setting up batchnorm1_1
I1003 09:38:55.016157 26722 net.cpp:129] Top shape: 2 32 224 224 (3211264)
I1003 09:38:55.016160 26722 net.cpp:137] Memory required for data: 30105600
I1003 09:38:55.016167 26722 layer_factory.hpp:77] Creating layer elu1_1
I1003 09:38:55.016172 26722 net.cpp:84] Creating Layer elu1_1
I1003 09:38:55.016175 26722 net.cpp:406] elu1_1 <- conv1_1
I1003 09:38:55.016178 26722 net.cpp:367] elu1_1 -> conv1_1 (in-place)
I1003 09:38:55.016185 26722 net.cpp:122] Setting up elu1_1
I1003 09:38:55.016187 26722 net.cpp:129] Top shape: 2 32 224 224 (3211264)
I1003 09:38:55.016191 26722 net.cpp:137] Memory required for data: 42950656
I1003 09:38:55.016196 26722 layer_factory.hpp:77] Creating layer conv1_2
I1003 09:38:55.016208 26722 net.cpp:84] Creating Layer conv1_2
I1003 09:38:55.016212 26722 net.cpp:406] conv1_2 <- conv1_1
I1003 09:38:55.016219 26722 net.cpp:380] conv1_2 -> conv1_2
I1003 09:38:55.018479 26722 net.cpp:122] Setting up conv1_2
I1003 09:38:55.018493 26722 net.cpp:129] Top shape: 2 32 224 224 (3211264)
I1003 09:38:55.018499 26722 net.cpp:137] Memory required for data: 55795712
I1003 09:38:55.018512 26722 layer_factory.hpp:77] Creating layer batchnorm1_2
I1003 09:38:55.018520 26722 net.cpp:84] Creating Layer batchnorm1_2
I1003 09:38:55.018525 26722 net.cpp:406] batchnorm1_2 <- conv1_2
I1003 09:38:55.018533 26722 net.cpp:367] batchnorm1_2 -> conv1_2 (in-place)
I1003 09:38:55.018762 26722 net.cpp:122] Setting up batchnorm1_2
I1003 09:38:55.018770 26722 net.cpp:129] Top shape: 2 32 224 224 (3211264)
I1003 09:38:55.018775 26722 net.cpp:137] Memory required for data: 68640768
I1003 09:38:55.018786 26722 layer_factory.hpp:77] Creating layer elu1_2
I1003 09:38:55.018795 26722 net.cpp:84] Creating Layer elu1_2
I1003 09:38:55.018798 26722 net.cpp:406] elu1_2 <- conv1_2
I1003 09:38:55.018805 26722 net.cpp:367] elu1_2 -> conv1_2 (in-place)
I1003 09:38:55.018836 26722 net.cpp:122] Setting up elu1_2
I1003 09:38:55.018842 26722 net.cpp:129] Top shape: 2 32 224 224 (3211264)
I1003 09:38:55.018846 26722 net.cpp:137] Memory required for data: 81485824
I1003 09:38:55.018852 26722 layer_factory.hpp:77] Creating layer pool1
I1003 09:38:55.018858 26722 layer_factory.cpp:91] cuDNN does not support multiple tops. Using Caffe's own pooling layer.
I1003 09:38:55.018865 26722 net.cpp:84] Creating Layer pool1
I1003 09:38:55.018870 26722 net.cpp:406] pool1 <- conv1_2
I1003 09:38:55.018878 26722 net.cpp:380] pool1 -> pool1
I1003 09:38:55.018887 26722 net.cpp:380] pool1 -> pool1_mask
I1003 09:38:55.018893 26722 net.cpp:380] pool1 -> pool1_argmax_count
I1003 09:38:55.018952 26722 net.cpp:122] Setting up pool1
I1003 09:38:55.018959 26722 net.cpp:129] Top shape: 2 32 56 56 (200704)
I1003 09:38:55.018963 26722 net.cpp:129] Top shape: 2 32 56 56 (200704)
I1003 09:38:55.018967 26722 net.cpp:129] Top shape: 2 32 224 224 (3211264)
I1003 09:38:55.018970 26722 net.cpp:137] Memory required for data: 95936512
I1003 09:38:55.018973 26722 layer_factory.hpp:77] Creating layer conv2_1
I1003 09:38:55.018981 26722 net.cpp:84] Creating Layer conv2_1
I1003 09:38:55.018985 26722 net.cpp:406] conv2_1 <- pool1
I1003 09:38:55.018990 26722 net.cpp:380] conv2_1 -> conv2_1
I1003 09:38:55.020609 26722 net.cpp:122] Setting up conv2_1
I1003 09:38:55.020623 26722 net.cpp:129] Top shape: 2 64 56 56 (401408)
I1003 09:38:55.020629 26722 net.cpp:137] Memory required for data: 97542144
I1003 09:38:55.020638 26722 layer_factory.hpp:77] Creating layer batchnorm2_1
I1003 09:38:55.020647 26722 net.cpp:84] Creating Layer batchnorm2_1
I1003 09:38:55.020651 26722 net.cpp:406] batchnorm2_1 <- conv2_1
I1003 09:38:55.020660 26722 net.cpp:367] batchnorm2_1 -> conv2_1 (in-place)
I1003 09:38:55.020889 26722 net.cpp:122] Setting up batchnorm2_1
I1003 09:38:55.020895 26722 net.cpp:129] Top shape: 2 64 56 56 (401408)
I1003 09:38:55.020898 26722 net.cpp:137] Memory required for data: 99147776
I1003 09:38:55.020907 26722 layer_factory.hpp:77] Creating layer elu2_1
I1003 09:38:55.020913 26722 net.cpp:84] Creating Layer elu2_1
I1003 09:38:55.020917 26722 net.cpp:406] elu2_1 <- conv2_1
I1003 09:38:55.020921 26722 net.cpp:367] elu2_1 -> conv2_1 (in-place)
I1003 09:38:55.020925 26722 net.cpp:122] Setting up elu2_1
I1003 09:38:55.020931 26722 net.cpp:129] Top shape: 2 64 56 56 (401408)
I1003 09:38:55.020937 26722 net.cpp:137] Memory required for data: 100753408
I1003 09:38:55.020942 26722 layer_factory.hpp:77] Creating layer conv2_2
I1003 09:38:55.020952 26722 net.cpp:84] Creating Layer conv2_2
I1003 09:38:55.020957 26722 net.cpp:406] conv2_2 <- conv2_1
I1003 09:38:55.020967 26722 net.cpp:380] conv2_2 -> conv2_2
I1003 09:38:55.022974 26722 net.cpp:122] Setting up conv2_2
I1003 09:38:55.022987 26722 net.cpp:129] Top shape: 2 64 56 56 (401408)
I1003 09:38:55.022994 26722 net.cpp:137] Memory required for data: 102359040
I1003 09:38:55.023002 26722 layer_factory.hpp:77] Creating layer batchnorm2_2
I1003 09:38:55.023011 26722 net.cpp:84] Creating Layer batchnorm2_2
I1003 09:38:55.023016 26722 net.cpp:406] batchnorm2_2 <- conv2_2
I1003 09:38:55.023023 26722 net.cpp:367] batchnorm2_2 -> conv2_2 (in-place)
I1003 09:38:55.023250 26722 net.cpp:122] Setting up batchnorm2_2
I1003 09:38:55.023257 26722 net.cpp:129] Top shape: 2 64 56 56 (401408)
I1003 09:38:55.023260 26722 net.cpp:137] Memory required for data: 103964672
I1003 09:38:55.023267 26722 layer_factory.hpp:77] Creating layer elu2_2
I1003 09:38:55.023270 26722 net.cpp:84] Creating Layer elu2_2
I1003 09:38:55.023273 26722 net.cpp:406] elu2_2 <- conv2_2
I1003 09:38:55.023277 26722 net.cpp:367] elu2_2 -> conv2_2 (in-place)
I1003 09:38:55.023281 26722 net.cpp:122] Setting up elu2_2
I1003 09:38:55.023286 26722 net.cpp:129] Top shape: 2 64 56 56 (401408)
I1003 09:38:55.023289 26722 net.cpp:137] Memory required for data: 105570304
I1003 09:38:55.023295 26722 layer_factory.hpp:77] Creating layer pool2
I1003 09:38:55.023299 26722 layer_factory.cpp:91] cuDNN does not support multiple tops. Using Caffe's own pooling layer.
I1003 09:38:55.023319 26722 net.cpp:84] Creating Layer pool2
I1003 09:38:55.023322 26722 net.cpp:406] pool2 <- conv2_2
I1003 09:38:55.023326 26722 net.cpp:380] pool2 -> pool2
I1003 09:38:55.023332 26722 net.cpp:380] pool2 -> pool2_mask
I1003 09:38:55.023337 26722 net.cpp:380] pool2 -> pool2_argmax_count
I1003 09:38:55.023396 26722 net.cpp:122] Setting up pool2
I1003 09:38:55.023401 26722 net.cpp:129] Top shape: 2 64 14 14 (25088)
I1003 09:38:55.023406 26722 net.cpp:129] Top shape: 2 64 14 14 (25088)
I1003 09:38:55.023409 26722 net.cpp:129] Top shape: 2 64 56 56 (401408)
I1003 09:38:55.023412 26722 net.cpp:137] Memory required for data: 107376640
I1003 09:38:55.023416 26722 layer_factory.hpp:77] Creating layer conv3_1
I1003 09:38:55.023423 26722 net.cpp:84] Creating Layer conv3_1
I1003 09:38:55.023427 26722 net.cpp:406] conv3_1 <- pool2
I1003 09:38:55.023432 26722 net.cpp:380] conv3_1 -> conv3_1
I1003 09:38:55.025636 26722 net.cpp:122] Setting up conv3_1
I1003 09:38:55.025650 26722 net.cpp:129] Top shape: 2 128 14 14 (50176)
I1003 09:38:55.025655 26722 net.cpp:137] Memory required for data: 107577344
I1003 09:38:55.025660 26722 layer_factory.hpp:77] Creating layer batchnorm3_1
I1003 09:38:55.025665 26722 net.cpp:84] Creating Layer batchnorm3_1
I1003 09:38:55.025668 26722 net.cpp:406] batchnorm3_1 <- conv3_1
I1003 09:38:55.025676 26722 net.cpp:367] batchnorm3_1 -> conv3_1 (in-place)
I1003 09:38:55.025898 26722 net.cpp:122] Setting up batchnorm3_1
I1003 09:38:55.025904 26722 net.cpp:129] Top shape: 2 128 14 14 (50176)
I1003 09:38:55.025907 26722 net.cpp:137] Memory required for data: 107778048
I1003 09:38:55.025914 26722 layer_factory.hpp:77] Creating layer elu3_1
I1003 09:38:55.025918 26722 net.cpp:84] Creating Layer elu3_1
I1003 09:38:55.025921 26722 net.cpp:406] elu3_1 <- conv3_1
I1003 09:38:55.025925 26722 net.cpp:367] elu3_1 -> conv3_1 (in-place)
I1003 09:38:55.025929 26722 net.cpp:122] Setting up elu3_1
I1003 09:38:55.025933 26722 net.cpp:129] Top shape: 2 128 14 14 (50176)
I1003 09:38:55.025938 26722 net.cpp:137] Memory required for data: 107978752
I1003 09:38:55.025941 26722 layer_factory.hpp:77] Creating layer conv3_2
I1003 09:38:55.025951 26722 net.cpp:84] Creating Layer conv3_2
I1003 09:38:55.025955 26722 net.cpp:406] conv3_2 <- conv3_1
I1003 09:38:55.025961 26722 net.cpp:380] conv3_2 -> conv3_2
I1003 09:38:55.028986 26722 net.cpp:122] Setting up conv3_2
I1003 09:38:55.029000 26722 net.cpp:129] Top shape: 2 128 14 14 (50176)
I1003 09:38:55.029003 26722 net.cpp:137] Memory required for data: 108179456
I1003 09:38:55.029011 26722 layer_factory.hpp:77] Creating layer batchnorm3_2
I1003 09:38:55.029017 26722 net.cpp:84] Creating Layer batchnorm3_2
I1003 09:38:55.029023 26722 net.cpp:406] batchnorm3_2 <- conv3_2
I1003 09:38:55.029032 26722 net.cpp:367] batchnorm3_2 -> conv3_2 (in-place)
I1003 09:38:55.029268 26722 net.cpp:122] Setting up batchnorm3_2
I1003 09:38:55.029276 26722 net.cpp:129] Top shape: 2 128 14 14 (50176)
I1003 09:38:55.029283 26722 net.cpp:137] Memory required for data: 108380160
I1003 09:38:55.029297 26722 layer_factory.hpp:77] Creating layer elu3_2
I1003 09:38:55.029304 26722 net.cpp:84] Creating Layer elu3_2
I1003 09:38:55.029307 26722 net.cpp:406] elu3_2 <- conv3_2
I1003 09:38:55.029314 26722 net.cpp:367] elu3_2 -> conv3_2 (in-place)
I1003 09:38:55.029320 26722 net.cpp:122] Setting up elu3_2
I1003 09:38:55.029323 26722 net.cpp:129] Top shape: 2 128 14 14 (50176)
I1003 09:38:55.029327 26722 net.cpp:137] Memory required for data: 108580864
I1003 09:38:55.029331 26722 layer_factory.hpp:77] Creating layer conv3_3
I1003 09:38:55.029340 26722 net.cpp:84] Creating Layer conv3_3
I1003 09:38:55.029345 26722 net.cpp:406] conv3_3 <- conv3_2
I1003 09:38:55.029351 26722 net.cpp:380] conv3_3 -> conv3_3
I1003 09:38:55.032393 26722 net.cpp:122] Setting up conv3_3
I1003 09:38:55.032407 26722 net.cpp:129] Top shape: 2 128 14 14 (50176)
I1003 09:38:55.032411 26722 net.cpp:137] Memory required for data: 108781568
I1003 09:38:55.032418 26722 layer_factory.hpp:77] Creating layer batchnorm3_3
I1003 09:38:55.032440 26722 net.cpp:84] Creating Layer batchnorm3_3
I1003 09:38:55.032444 26722 net.cpp:406] batchnorm3_3 <- conv3_3
I1003 09:38:55.032454 26722 net.cpp:367] batchnorm3_3 -> conv3_3 (in-place)
I1003 09:38:55.032680 26722 net.cpp:122] Setting up batchnorm3_3
I1003 09:38:55.032688 26722 net.cpp:129] Top shape: 2 128 14 14 (50176)
I1003 09:38:55.032694 26722 net.cpp:137] Memory required for data: 108982272
I1003 09:38:55.032704 26722 layer_factory.hpp:77] Creating layer elu3_3
I1003 09:38:55.032711 26722 net.cpp:84] Creating Layer elu3_3
I1003 09:38:55.032716 26722 net.cpp:406] elu3_3 <- conv3_3
I1003 09:38:55.032726 26722 net.cpp:367] elu3_3 -> conv3_3 (in-place)
I1003 09:38:55.032732 26722 net.cpp:122] Setting up elu3_3
I1003 09:38:55.032739 26722 net.cpp:129] Top shape: 2 128 14 14 (50176)
I1003 09:38:55.032744 26722 net.cpp:137] Memory required for data: 109182976
I1003 09:38:55.032749 26722 layer_factory.hpp:77] Creating layer pool3
I1003 09:38:55.032757 26722 layer_factory.cpp:91] cuDNN does not support multiple tops. Using Caffe's own pooling layer.
I1003 09:38:55.032764 26722 net.cpp:84] Creating Layer pool3
I1003 09:38:55.032769 26722 net.cpp:406] pool3 <- conv3_3
I1003 09:38:55.032778 26722 net.cpp:380] pool3 -> pool3
I1003 09:38:55.032785 26722 net.cpp:380] pool3 -> pool3_mask
I1003 09:38:55.032793 26722 net.cpp:380] pool3 -> pool3_argmax_count
I1003 09:38:55.032855 26722 net.cpp:122] Setting up pool3
I1003 09:38:55.032863 26722 net.cpp:129] Top shape: 2 128 7 7 (12544)
I1003 09:38:55.032869 26722 net.cpp:129] Top shape: 2 128 7 7 (12544)
I1003 09:38:55.032876 26722 net.cpp:129] Top shape: 2 128 14 14 (50176)
I1003 09:38:55.032881 26722 net.cpp:137] Memory required for data: 109484032
I1003 09:38:55.032886 26722 layer_factory.hpp:77] Creating layer conv4_1
I1003 09:38:55.032897 26722 net.cpp:84] Creating Layer conv4_1
I1003 09:38:55.032902 26722 net.cpp:406] conv4_1 <- pool3
I1003 09:38:55.032912 26722 net.cpp:380] conv4_1 -> conv4_1
I1003 09:38:55.036736 26722 net.cpp:122] Setting up conv4_1
I1003 09:38:55.036749 26722 net.cpp:129] Top shape: 2 256 7 7 (25088)
I1003 09:38:55.036756 26722 net.cpp:137] Memory required for data: 109584384
I1003 09:38:55.036765 26722 layer_factory.hpp:77] Creating layer batchnorm4_1
I1003 09:38:55.036774 26722 net.cpp:84] Creating Layer batchnorm4_1
I1003 09:38:55.036779 26722 net.cpp:406] batchnorm4_1 <- conv4_1
I1003 09:38:55.036787 26722 net.cpp:367] batchnorm4_1 -> conv4_1 (in-place)
I1003 09:38:55.037015 26722 net.cpp:122] Setting up batchnorm4_1
I1003 09:38:55.037024 26722 net.cpp:129] Top shape: 2 256 7 7 (25088)
I1003 09:38:55.037026 26722 net.cpp:137] Memory required for data: 109684736
I1003 09:38:55.037032 26722 layer_factory.hpp:77] Creating layer elu4_1
I1003 09:38:55.037036 26722 net.cpp:84] Creating Layer elu4_1
I1003 09:38:55.037039 26722 net.cpp:406] elu4_1 <- conv4_1
I1003 09:38:55.037044 26722 net.cpp:367] elu4_1 -> conv4_1 (in-place)
I1003 09:38:55.037047 26722 net.cpp:122] Setting up elu4_1
I1003 09:38:55.037052 26722 net.cpp:129] Top shape: 2 256 7 7 (25088)
I1003 09:38:55.037055 26722 net.cpp:137] Memory required for data: 109785088
I1003 09:38:55.037061 26722 layer_factory.hpp:77] Creating layer conv4_2
I1003 09:38:55.037072 26722 net.cpp:84] Creating Layer conv4_2
I1003 09:38:55.037077 26722 net.cpp:406] conv4_2 <- conv4_1
I1003 09:38:55.037087 26722 net.cpp:380] conv4_2 -> conv4_2
I1003 09:38:55.043934 26722 net.cpp:122] Setting up conv4_2
I1003 09:38:55.043956 26722 net.cpp:129] Top shape: 2 256 7 7 (25088)
I1003 09:38:55.043959 26722 net.cpp:137] Memory required for data: 109885440
I1003 09:38:55.043968 26722 layer_factory.hpp:77] Creating layer batchnorm4_2
I1003 09:38:55.043975 26722 net.cpp:84] Creating Layer batchnorm4_2
I1003 09:38:55.043980 26722 net.cpp:406] batchnorm4_2 <- conv4_2
I1003 09:38:55.043987 26722 net.cpp:367] batchnorm4_2 -> conv4_2 (in-place)
I1003 09:38:55.044226 26722 net.cpp:122] Setting up batchnorm4_2
I1003 09:38:55.044232 26722 net.cpp:129] Top shape: 2 256 7 7 (25088)
I1003 09:38:55.044256 26722 net.cpp:137] Memory required for data: 109985792
I1003 09:38:55.044265 26722 layer_factory.hpp:77] Creating layer elu4_2
I1003 09:38:55.044275 26722 net.cpp:84] Creating Layer elu4_2
I1003 09:38:55.044278 26722 net.cpp:406] elu4_2 <- conv4_2
I1003 09:38:55.044283 26722 net.cpp:367] elu4_2 -> conv4_2 (in-place)
I1003 09:38:55.044289 26722 net.cpp:122] Setting up elu4_2
I1003 09:38:55.044293 26722 net.cpp:129] Top shape: 2 256 7 7 (25088)
I1003 09:38:55.044296 26722 net.cpp:137] Memory required for data: 110086144
I1003 09:38:55.044301 26722 layer_factory.hpp:77] Creating layer deconv4_3
I1003 09:38:55.044309 26722 net.cpp:84] Creating Layer deconv4_3
I1003 09:38:55.044313 26722 net.cpp:406] deconv4_3 <- conv4_2
I1003 09:38:55.044319 26722 net.cpp:380] deconv4_3 -> deconv4_3
I1003 09:38:55.046609 26722 net.cpp:122] Setting up deconv4_3
I1003 09:38:55.046622 26722 net.cpp:129] Top shape: 2 128 7 7 (12544)
I1003 09:38:55.046624 26722 net.cpp:137] Memory required for data: 110136320
I1003 09:38:55.046631 26722 layer_factory.hpp:77] Creating layer debatchnorm4_3
I1003 09:38:55.046638 26722 net.cpp:84] Creating Layer debatchnorm4_3
I1003 09:38:55.046643 26722 net.cpp:406] debatchnorm4_3 <- deconv4_3
I1003 09:38:55.046648 26722 net.cpp:367] debatchnorm4_3 -> deconv4_3 (in-place)
I1003 09:38:55.046872 26722 net.cpp:122] Setting up debatchnorm4_3
I1003 09:38:55.046880 26722 net.cpp:129] Top shape: 2 128 7 7 (12544)
I1003 09:38:55.046885 26722 net.cpp:137] Memory required for data: 110186496
I1003 09:38:55.046891 26722 layer_factory.hpp:77] Creating layer deelu4_3
I1003 09:38:55.046895 26722 net.cpp:84] Creating Layer deelu4_3
I1003 09:38:55.046900 26722 net.cpp:406] deelu4_3 <- deconv4_3
I1003 09:38:55.046905 26722 net.cpp:367] deelu4_3 -> deconv4_3 (in-place)
I1003 09:38:55.046910 26722 net.cpp:122] Setting up deelu4_3
I1003 09:38:55.046914 26722 net.cpp:129] Top shape: 2 128 7 7 (12544)
I1003 09:38:55.046917 26722 net.cpp:137] Memory required for data: 110236672
I1003 09:38:55.046922 26722 layer_factory.hpp:77] Creating layer unpool3
I1003 09:38:55.046927 26722 net.cpp:84] Creating Layer unpool3
I1003 09:38:55.046931 26722 net.cpp:406] unpool3 <- deconv4_3
I1003 09:38:55.046936 26722 net.cpp:406] unpool3 <- pool3_mask
I1003 09:38:55.046941 26722 net.cpp:406] unpool3 <- pool3_argmax_count
I1003 09:38:55.046947 26722 net.cpp:380] unpool3 -> unpool3
I1003 09:38:55.046978 26722 net.cpp:122] Setting up unpool3
I1003 09:38:55.046985 26722 net.cpp:129] Top shape: 2 128 14 14 (50176)
I1003 09:38:55.046991 26722 net.cpp:137] Memory required for data: 110437376
I1003 09:38:55.046996 26722 layer_factory.hpp:77] Creating layer deconv3_1
I1003 09:38:55.047005 26722 net.cpp:84] Creating Layer deconv3_1
I1003 09:38:55.047010 26722 net.cpp:406] deconv3_1 <- unpool3
I1003 09:38:55.047019 26722 net.cpp:380] deconv3_1 -> deconv3_1
I1003 09:38:55.048487 26722 net.cpp:122] Setting up deconv3_1
I1003 09:38:55.048498 26722 net.cpp:129] Top shape: 2 128 14 14 (50176)
I1003 09:38:55.048503 26722 net.cpp:137] Memory required for data: 110638080
I1003 09:38:55.048512 26722 layer_factory.hpp:77] Creating layer debatchnorm3_1
I1003 09:38:55.048519 26722 net.cpp:84] Creating Layer debatchnorm3_1
I1003 09:38:55.048524 26722 net.cpp:406] debatchnorm3_1 <- deconv3_1
I1003 09:38:55.048534 26722 net.cpp:367] debatchnorm3_1 -> deconv3_1 (in-place)
I1003 09:38:55.048774 26722 net.cpp:122] Setting up debatchnorm3_1
I1003 09:38:55.048782 26722 net.cpp:129] Top shape: 2 128 14 14 (50176)
I1003 09:38:55.048787 26722 net.cpp:137] Memory required for data: 110838784
I1003 09:38:55.048796 26722 layer_factory.hpp:77] Creating layer deelu3_1
I1003 09:38:55.048802 26722 net.cpp:84] Creating Layer deelu3_1
I1003 09:38:55.048806 26722 net.cpp:406] deelu3_1 <- deconv3_1
I1003 09:38:55.048812 26722 net.cpp:367] deelu3_1 -> deconv3_1 (in-place)
I1003 09:38:55.048820 26722 net.cpp:122] Setting up deelu3_1
I1003 09:38:55.048825 26722 net.cpp:129] Top shape: 2 128 14 14 (50176)
I1003 09:38:55.048830 26722 net.cpp:137] Memory required for data: 111039488
I1003 09:38:55.048848 26722 layer_factory.hpp:77] Creating layer deconv3_2
I1003 09:38:55.048858 26722 net.cpp:84] Creating Layer deconv3_2
I1003 09:38:55.048862 26722 net.cpp:406] deconv3_2 <- deconv3_1
I1003 09:38:55.048871 26722 net.cpp:380] deconv3_2 -> deconv3_2
I1003 09:38:55.050348 26722 net.cpp:122] Setting up deconv3_2
I1003 09:38:55.050360 26722 net.cpp:129] Top shape: 2 128 14 14 (50176)
I1003 09:38:55.050365 26722 net.cpp:137] Memory required for data: 111240192
I1003 09:38:55.050374 26722 layer_factory.hpp:77] Creating layer debatchnorm3_2
I1003 09:38:55.050381 26722 net.cpp:84] Creating Layer debatchnorm3_2
I1003 09:38:55.050386 26722 net.cpp:406] debatchnorm3_2 <- deconv3_2
I1003 09:38:55.050393 26722 net.cpp:367] debatchnorm3_2 -> deconv3_2 (in-place)
I1003 09:38:55.050621 26722 net.cpp:122] Setting up debatchnorm3_2
I1003 09:38:55.050629 26722 net.cpp:129] Top shape: 2 128 14 14 (50176)
I1003 09:38:55.050634 26722 net.cpp:137] Memory required for data: 111440896
I1003 09:38:55.050643 26722 layer_factory.hpp:77] Creating layer deelu3_2
I1003 09:38:55.050649 26722 net.cpp:84] Creating Layer deelu3_2
I1003 09:38:55.050654 26722 net.cpp:406] deelu3_2 <- deconv3_2
I1003 09:38:55.050660 26722 net.cpp:367] deelu3_2 -> deconv3_2 (in-place)
I1003 09:38:55.050668 26722 net.cpp:122] Setting up deelu3_2
I1003 09:38:55.050673 26722 net.cpp:129] Top shape: 2 128 14 14 (50176)
I1003 09:38:55.050678 26722 net.cpp:137] Memory required for data: 111641600
I1003 09:38:55.050681 26722 layer_factory.hpp:77] Creating layer deconv3_3
I1003 09:38:55.050689 26722 net.cpp:84] Creating Layer deconv3_3
I1003 09:38:55.050693 26722 net.cpp:406] deconv3_3 <- deconv3_2
I1003 09:38:55.050700 26722 net.cpp:380] deconv3_3 -> deconv3_3
I1003 09:38:55.051364 26722 net.cpp:122] Setting up deconv3_3
I1003 09:38:55.051371 26722 net.cpp:129] Top shape: 2 64 14 14 (25088)
I1003 09:38:55.051375 26722 net.cpp:137] Memory required for data: 111741952
I1003 09:38:55.051390 26722 layer_factory.hpp:77] Creating layer debatchnorm3_3
I1003 09:38:55.051395 26722 net.cpp:84] Creating Layer debatchnorm3_3
I1003 09:38:55.051399 26722 net.cpp:406] debatchnorm3_3 <- deconv3_3
I1003 09:38:55.051406 26722 net.cpp:367] debatchnorm3_3 -> deconv3_3 (in-place)
I1003 09:38:55.051633 26722 net.cpp:122] Setting up debatchnorm3_3
I1003 09:38:55.051640 26722 net.cpp:129] Top shape: 2 64 14 14 (25088)
I1003 09:38:55.051642 26722 net.cpp:137] Memory required for data: 111842304
I1003 09:38:55.051651 26722 layer_factory.hpp:77] Creating layer deelu3_3
I1003 09:38:55.051654 26722 net.cpp:84] Creating Layer deelu3_3
I1003 09:38:55.051658 26722 net.cpp:406] deelu3_3 <- deconv3_3
I1003 09:38:55.051664 26722 net.cpp:367] deelu3_3 -> deconv3_3 (in-place)
I1003 09:38:55.051671 26722 net.cpp:122] Setting up deelu3_3
I1003 09:38:55.051674 26722 net.cpp:129] Top shape: 2 64 14 14 (25088)
I1003 09:38:55.051678 26722 net.cpp:137] Memory required for data: 111942656
I1003 09:38:55.051681 26722 layer_factory.hpp:77] Creating layer unpool2
I1003 09:38:55.051687 26722 net.cpp:84] Creating Layer unpool2
I1003 09:38:55.051692 26722 net.cpp:406] unpool2 <- deconv3_3
I1003 09:38:55.051695 26722 net.cpp:406] unpool2 <- pool2_mask
I1003 09:38:55.051700 26722 net.cpp:406] unpool2 <- pool2_argmax_count
I1003 09:38:55.051707 26722 net.cpp:380] unpool2 -> unpool2
I1003 09:38:55.051736 26722 net.cpp:122] Setting up unpool2
I1003 09:38:55.051743 26722 net.cpp:129] Top shape: 2 64 56 56 (401408)
I1003 09:38:55.051748 26722 net.cpp:137] Memory required for data: 113548288
I1003 09:38:55.051753 26722 layer_factory.hpp:77] Creating layer deconv2_1
I1003 09:38:55.051762 26722 net.cpp:84] Creating Layer deconv2_1
I1003 09:38:55.051767 26722 net.cpp:406] deconv2_1 <- unpool2
I1003 09:38:55.051776 26722 net.cpp:380] deconv2_1 -> deconv2_1
I1003 09:38:55.052253 26722 net.cpp:122] Setting up deconv2_1
I1003 09:38:55.052263 26722 net.cpp:129] Top shape: 2 64 56 56 (401408)
I1003 09:38:55.052266 26722 net.cpp:137] Memory required for data: 115153920
I1003 09:38:55.052274 26722 layer_factory.hpp:77] Creating layer debatchnorm2_1
I1003 09:38:55.052292 26722 net.cpp:84] Creating Layer debatchnorm2_1
I1003 09:38:55.052297 26722 net.cpp:406] debatchnorm2_1 <- deconv2_1
I1003 09:38:55.052305 26722 net.cpp:367] debatchnorm2_1 -> deconv2_1 (in-place)
I1003 09:38:55.052538 26722 net.cpp:122] Setting up debatchnorm2_1
I1003 09:38:55.052547 26722 net.cpp:129] Top shape: 2 64 56 56 (401408)
I1003 09:38:55.052552 26722 net.cpp:137] Memory required for data: 116759552
I1003 09:38:55.052561 26722 layer_factory.hpp:77] Creating layer deelu2_1
I1003 09:38:55.052567 26722 net.cpp:84] Creating Layer deelu2_1
I1003 09:38:55.052572 26722 net.cpp:406] deelu2_1 <- deconv2_1
I1003 09:38:55.052578 26722 net.cpp:367] deelu2_1 -> deconv2_1 (in-place)
I1003 09:38:55.052584 26722 net.cpp:122] Setting up deelu2_1
I1003 09:38:55.052590 26722 net.cpp:129] Top shape: 2 64 56 56 (401408)
I1003 09:38:55.052595 26722 net.cpp:137] Memory required for data: 118365184
I1003 09:38:55.052599 26722 layer_factory.hpp:77] Creating layer deconv2_2
I1003 09:38:55.052608 26722 net.cpp:84] Creating Layer deconv2_2
I1003 09:38:55.052613 26722 net.cpp:406] deconv2_2 <- deconv2_1
I1003 09:38:55.052621 26722 net.cpp:380] deconv2_2 -> deconv2_2
I1003 09:38:55.053020 26722 net.cpp:122] Setting up deconv2_2
I1003 09:38:55.053027 26722 net.cpp:129] Top shape: 2 32 56 56 (200704)
I1003 09:38:55.053031 26722 net.cpp:137] Memory required for data: 119168000
I1003 09:38:55.053037 26722 layer_factory.hpp:77] Creating layer debatchnorm2_2
I1003 09:38:55.053042 26722 net.cpp:84] Creating Layer debatchnorm2_2
I1003 09:38:55.053046 26722 net.cpp:406] debatchnorm2_2 <- deconv2_2
I1003 09:38:55.053052 26722 net.cpp:367] debatchnorm2_2 -> deconv2_2 (in-place)
I1003 09:38:55.053287 26722 net.cpp:122] Setting up debatchnorm2_2
I1003 09:38:55.053294 26722 net.cpp:129] Top shape: 2 32 56 56 (200704)
I1003 09:38:55.053297 26722 net.cpp:137] Memory required for data: 119970816
I1003 09:38:55.053304 26722 layer_factory.hpp:77] Creating layer deelu2_2
I1003 09:38:55.053310 26722 net.cpp:84] Creating Layer deelu2_2
I1003 09:38:55.053313 26722 net.cpp:406] deelu2_2 <- deconv2_2
I1003 09:38:55.053318 26722 net.cpp:367] deelu2_2 -> deconv2_2 (in-place)
I1003 09:38:55.053326 26722 net.cpp:122] Setting up deelu2_2
I1003 09:38:55.053333 26722 net.cpp:129] Top shape: 2 32 56 56 (200704)
I1003 09:38:55.053335 26722 net.cpp:137] Memory required for data: 120773632
I1003 09:38:55.053339 26722 layer_factory.hpp:77] Creating layer unpool1
I1003 09:38:55.053347 26722 net.cpp:84] Creating Layer unpool1
I1003 09:38:55.053352 26722 net.cpp:406] unpool1 <- deconv2_2
I1003 09:38:55.053359 26722 net.cpp:406] unpool1 <- pool1_mask
I1003 09:38:55.053364 26722 net.cpp:406] unpool1 <- pool1_argmax_count
I1003 09:38:55.053371 26722 net.cpp:380] unpool1 -> unpool1
I1003 09:38:55.053400 26722 net.cpp:122] Setting up unpool1
I1003 09:38:55.053408 26722 net.cpp:129] Top shape: 2 32 224 224 (3211264)
I1003 09:38:55.053412 26722 net.cpp:137] Memory required for data: 133618688
I1003 09:38:55.053417 26722 layer_factory.hpp:77] Creating layer deconv1_1
I1003 09:38:55.053427 26722 net.cpp:84] Creating Layer deconv1_1
I1003 09:38:55.053431 26722 net.cpp:406] deconv1_1 <- unpool1
I1003 09:38:55.053441 26722 net.cpp:380] deconv1_1 -> deconv1_1
I1003 09:38:55.053772 26722 net.cpp:122] Setting up deconv1_1
I1003 09:38:55.053782 26722 net.cpp:129] Top shape: 2 32 224 224 (3211264)
I1003 09:38:55.053786 26722 net.cpp:137] Memory required for data: 146463744
I1003 09:38:55.053794 26722 layer_factory.hpp:77] Creating layer debatchnorm1_1
I1003 09:38:55.053802 26722 net.cpp:84] Creating Layer debatchnorm1_1
I1003 09:38:55.053807 26722 net.cpp:406] debatchnorm1_1 <- deconv1_1
I1003 09:38:55.053813 26722 net.cpp:367] debatchnorm1_1 -> deconv1_1 (in-place)
I1003 09:38:55.054491 26722 net.cpp:122] Setting up debatchnorm1_1
I1003 09:38:55.054502 26722 net.cpp:129] Top shape: 2 32 224 224 (3211264)
I1003 09:38:55.054508 26722 net.cpp:137] Memory required for data: 159308800
I1003 09:38:55.054518 26722 layer_factory.hpp:77] Creating layer deelu1_1
I1003 09:38:55.054533 26722 net.cpp:84] Creating Layer deelu1_1
I1003 09:38:55.054538 26722 net.cpp:406] deelu1_1 <- deconv1_1
I1003 09:38:55.054545 26722 net.cpp:367] deelu1_1 -> deconv1_1 (in-place)
I1003 09:38:55.054553 26722 net.cpp:122] Setting up deelu1_1
I1003 09:38:55.054560 26722 net.cpp:129] Top shape: 2 32 224 224 (3211264)
I1003 09:38:55.054564 26722 net.cpp:137] Memory required for data: 172153856
I1003 09:38:55.054570 26722 layer_factory.hpp:77] Creating layer deconv1_2
I1003 09:38:55.054579 26722 net.cpp:84] Creating Layer deconv1_2
I1003 09:38:55.054584 26722 net.cpp:406] deconv1_2 <- deconv1_1
I1003 09:38:55.054592 26722 net.cpp:380] deconv1_2 -> deconv1_2
I1003 09:38:55.054939 26722 net.cpp:122] Setting up deconv1_2
I1003 09:38:55.054950 26722 net.cpp:129] Top shape: 2 32 224 224 (3211264)
I1003 09:38:55.054955 26722 net.cpp:137] Memory required for data: 184998912
I1003 09:38:55.054962 26722 layer_factory.hpp:77] Creating layer debatchnorm1_2
I1003 09:38:55.054970 26722 net.cpp:84] Creating Layer debatchnorm1_2
I1003 09:38:55.054975 26722 net.cpp:406] debatchnorm1_2 <- deconv1_2
I1003 09:38:55.054982 26722 net.cpp:367] debatchnorm1_2 -> deconv1_2 (in-place)
I1003 09:38:55.055222 26722 net.cpp:122] Setting up debatchnorm1_2
I1003 09:38:55.055229 26722 net.cpp:129] Top shape: 2 32 224 224 (3211264)
I1003 09:38:55.055234 26722 net.cpp:137] Memory required for data: 197843968
I1003 09:38:55.055243 26722 layer_factory.hpp:77] Creating layer deelu1_2
I1003 09:38:55.055248 26722 net.cpp:84] Creating Layer deelu1_2
I1003 09:38:55.055254 26722 net.cpp:406] deelu1_2 <- deconv1_2
I1003 09:38:55.055261 26722 net.cpp:367] deelu1_2 -> deconv1_2 (in-place)
I1003 09:38:55.055269 26722 net.cpp:122] Setting up deelu1_2
I1003 09:38:55.055274 26722 net.cpp:129] Top shape: 2 32 224 224 (3211264)
I1003 09:38:55.055279 26722 net.cpp:137] Memory required for data: 210689024
I1003 09:38:55.055284 26722 layer_factory.hpp:77] Creating layer segmentation
I1003 09:38:55.055295 26722 net.cpp:84] Creating Layer segmentation
I1003 09:38:55.055299 26722 net.cpp:406] segmentation <- deconv1_2
I1003 09:38:55.055311 26722 net.cpp:380] segmentation -> segmentation
I1003 09:38:55.057271 26722 net.cpp:122] Setting up segmentation
I1003 09:38:55.057283 26722 net.cpp:129] Top shape: 2 3 224 224 (301056)
I1003 09:38:55.057289 26722 net.cpp:137] Memory required for data: 211893248
I1003 09:38:55.057299 26722 layer_factory.hpp:77] Creating layer segmentation_segmentation_0_split
I1003 09:38:55.057307 26722 net.cpp:84] Creating Layer segmentation_segmentation_0_split
I1003 09:38:55.057312 26722 net.cpp:406] segmentation_segmentation_0_split <- segmentation
I1003 09:38:55.057322 26722 net.cpp:380] segmentation_segmentation_0_split -> segmentation_segmentation_0_split_0
I1003 09:38:55.057332 26722 net.cpp:380] segmentation_segmentation_0_split -> segmentation_segmentation_0_split_1
I1003 09:38:55.057384 26722 net.cpp:122] Setting up segmentation_segmentation_0_split
I1003 09:38:55.057391 26722 net.cpp:129] Top shape: 2 3 224 224 (301056)
I1003 09:38:55.057399 26722 net.cpp:129] Top shape: 2 3 224 224 (301056)
I1003 09:38:55.057404 26722 net.cpp:137] Memory required for data: 214301696
I1003 09:38:55.057409 26722 layer_factory.hpp:77] Creating layer infogainLoss
I1003 09:38:55.057417 26722 net.cpp:84] Creating Layer infogainLoss
I1003 09:38:55.057422 26722 net.cpp:406] infogainLoss <- segmentation_segmentation_0_split_0
I1003 09:38:55.057428 26722 net.cpp:406] infogainLoss <- label_data_1_split_0
I1003 09:38:55.057435 26722 net.cpp:380] infogainLoss -> loss
I1003 09:38:55.057443 26722 layer_factory.hpp:77] Creating layer infogainLoss
I1003 09:38:55.058416 26722 net.cpp:122] Setting up infogainLoss
I1003 09:38:55.058429 26722 net.cpp:129] Top shape: (1)
I1003 09:38:55.058431 26722 net.cpp:132]     with loss weight 1
I1003 09:38:55.058439 26722 net.cpp:137] Memory required for data: 214301700
I1003 09:38:55.058442 26722 layer_factory.hpp:77] Creating layer accuracy
I1003 09:38:55.058450 26722 net.cpp:84] Creating Layer accuracy
I1003 09:38:55.058454 26722 net.cpp:406] accuracy <- segmentation_segmentation_0_split_1
I1003 09:38:55.058470 26722 net.cpp:406] accuracy <- label_data_1_split_1
I1003 09:38:55.058475 26722 net.cpp:380] accuracy -> accuracy
I1003 09:38:55.058499 26722 net.cpp:380] accuracy -> per_class_accuracy
I1003 09:38:55.058545 26722 net.cpp:122] Setting up accuracy
I1003 09:38:55.058552 26722 net.cpp:129] Top shape: (1)
I1003 09:38:55.058554 26722 net.cpp:129] Top shape: 3 (3)
I1003 09:38:55.058557 26722 net.cpp:137] Memory required for data: 214301716
I1003 09:38:55.058560 26722 net.cpp:200] accuracy does not need backward computation.
I1003 09:38:55.058564 26722 net.cpp:198] infogainLoss needs backward computation.
I1003 09:38:55.058568 26722 net.cpp:198] segmentation_segmentation_0_split needs backward computation.
I1003 09:38:55.058571 26722 net.cpp:198] segmentation needs backward computation.
…
