…
I1005 16:58:13.754828 15961 net.cpp:294] The NetState phase (0) differed from the phase (1) specified by a rule in layer data
I1005 16:58:13.754858 15961 net.cpp:294] The NetState phase (0) differed from the phase (1) specified by a rule in layer accuracy
I1005 16:58:13.755116 15961 net.cpp:51] Initializing net from parameters: 
name: "ZNet2"
state {
  phase: TRAIN
  level: 0
  stage: ""
}
layer {
  name: "data"
  type: "HDF5Data"
  top: "data"
  top: "label"
  include {
    phase: TRAIN
  }
  hdf5_data_param {
    source: "/home/grochette/Documents/SegNet/data/HDF5/Train/hdf5_list.txt"
    batch_size: 16
    shuffle: true
  }
}
layer {
  name: "batchnorm0"
  type: "BatchNorm"
  bottom: "data"
  top: "data"
}
layer {
  name: "conv1_1"
  type: "Convolution"
  bottom: "data"
  top: "conv1_1"
  param {
    lr_mult: 1
    decay_mult: 1
  }
  param {
    lr_mult: 2
    decay_mult: 0
  }
  convolution_param {
    num_output: 32
    pad: 1
    kernel_size: 3
    stride: 1
    weight_filler {
      type: "xavier"
    }
    bias_filler {
      type: "constant"
    }
  }
}
layer {
  name: "batchnorm1_1"
  type: "BatchNorm"
  bottom: "conv1_1"
  top: "conv1_1"
}
layer {
  name: "elu1_1"
  type: "ELU"
  bottom: "conv1_1"
  top: "conv1_1"
}
layer {
  name: "conv1_2"
  type: "Convolution"
  bottom: "conv1_1"
  top: "conv1_2"
  param {
    lr_mult: 1
    decay_mult: 1
  }
  param {
    lr_mult: 2
    decay_mult: 0
  }
  convolution_param {
    num_output: 32
    pad: 1
    kernel_size: 3
    stride: 1
    weight_filler {
      type: "xavier"
    }
    bias_filler {
      type: "constant"
    }
  }
}
layer {
  name: "batchnorm1_2"
  type: "BatchNorm"
  bottom: "conv1_2"
  top: "conv1_2"
}
layer {
  name: "elu1_2"
  type: "ELU"
  bottom: "conv1_2"
  top: "conv1_2"
}
layer {
  name: "pool1"
  type: "Pooling"
  bottom: "conv1_2"
  top: "pool1"
  top: "pool1_mask"
  top: "pool1_argmax_count"
  pooling_param {
    pool: MAX
    kernel_size: 4
    stride: 4
  }
}
layer {
  name: "conv2_1"
  type: "Convolution"
  bottom: "pool1"
  top: "conv2_1"
  param {
    lr_mult: 1
    decay_mult: 1
  }
  param {
    lr_mult: 2
    decay_mult: 0
  }
  convolution_param {
    num_output: 64
    pad: 1
    kernel_size: 3
    stride: 1
    weight_filler {
      type: "xavier"
    }
    bias_filler {
      type: "constant"
    }
  }
}
layer {
  name: "batchnorm2_1"
  type: "BatchNorm"
  bottom: "conv2_1"
  top: "conv2_1"
}
layer {
  name: "elu2_1"
  type: "ELU"
  bottom: "conv2_1"
  top: "conv2_1"
}
layer {
  name: "conv2_2"
  type: "Convolution"
  bottom: "conv2_1"
  top: "conv2_2"
  param {
    lr_mult: 1
    decay_mult: 1
  }
  param {
    lr_mult: 2
    decay_mult: 0
  }
  convolution_param {
    num_output: 64
    pad: 1
    kernel_size: 3
    stride: 1
    weight_filler {
      type: "xavier"
    }
    bias_filler {
      type: "constant"
    }
  }
}
layer {
  name: "batchnorm2_2"
  type: "BatchNorm"
  bottom: "conv2_2"
  top: "conv2_2"
}
layer {
  name: "elu2_2"
  type: "ELU"
  bottom: "conv2_2"
  top: "conv2_2"
}
layer {
  name: "pool2"
  type: "Pooling"
  bottom: "conv2_2"
  top: "pool2"
  top: "pool2_mask"
  top: "pool2_argmax_count"
  pooling_param {
    pool: MAX
    kernel_size: 4
    stride: 4
  }
}
layer {
  name: "conv3_1"
  type: "Convolution"
  bottom: "pool2"
  top: "conv3_1"
  param {
    lr_mult: 1
    decay_mult: 1
  }
  param {
    lr_mult: 2
    decay_mult: 0
  }
  convolution_param {
    num_output: 128
    pad: 1
    kernel_size: 3
    stride: 1
    weight_filler {
      type: "xavier"
    }
    bias_filler {
      type: "constant"
    }
  }
}
layer {
  name: "batchnorm3_1"
  type: "BatchNorm"
  bottom: "conv3_1"
  top: "conv3_1"
}
layer {
  name: "elu3_1"
  type: "ELU"
  bottom: "conv3_1"
  top: "conv3_1"
}
layer {
  name: "conv3_2"
  type: "Convolution"
  bottom: "conv3_1"
  top: "conv3_2"
  param {
    lr_mult: 1
    decay_mult: 1
  }
  param {
    lr_mult: 2
    decay_mult: 0
  }
  convolution_param {
    num_output: 128
    pad: 1
    kernel_size: 3
    stride: 1
    weight_filler {
      type: "xavier"
    }
    bias_filler {
      type: "constant"
    }
  }
}
layer {
  name: "batchnorm3_2"
  type: "BatchNorm"
  bottom: "conv3_2"
  top: "conv3_2"
}
layer {
  name: "elu3_2"
  type: "ELU"
  bottom: "conv3_2"
  top: "conv3_2"
}
layer {
  name: "conv3_3"
  type: "Convolution"
  bottom: "conv3_2"
  top: "conv3_3"
  param {
    lr_mult: 1
    decay_mult: 1
  }
  param {
    lr_mult: 2
    decay_mult: 0
  }
  convolution_param {
    num_output: 128
    pad: 1
    kernel_size: 3
    stride: 1
    weight_filler {
      type: "xavier"
    }
    bias_filler {
      type: "constant"
    }
  }
}
layer {
  name: "batchnorm3_3"
  type: "BatchNorm"
  bottom: "conv3_3"
  top: "conv3_3"
}
layer {
  name: "elu3_3"
  type: "ELU"
  bottom: "conv3_3"
  top: "conv3_3"
}
layer {
  name: "pool3"
  type: "Pooling"
  bottom: "conv3_3"
  top: "pool3"
  top: "pool3_mask"
  top: "pool3_argmax_count"
  pooling_param {
    pool: MAX
    kernel_size: 2
    stride: 2
  }
}
layer {
  name: "conv4_1"
  type: "Convolution"
  bottom: "pool3"
  top: "conv4_1"
  param {
    lr_mult: 1
    decay_mult: 1
  }
  param {
    lr_mult: 2
    decay_mult: 0
  }
  convolution_param {
    num_output: 256
    pad: 0
    kernel_size: 7
    stride: 1
    weight_filler {
      type: "xavier"
    }
    bias_filler {
      type: "constant"
    }
  }
}
layer {
  name: "batchnorm4_1"
  type: "BatchNorm"
  bottom: "conv4_1"
  top: "conv4_1"
}
layer {
  name: "elu4_1"
  type: "ELU"
  bottom: "conv4_1"
  top: "conv4_1"
}
layer {
  name: "conv4_2"
  type: "Convolution"
  bottom: "conv4_1"
  top: "conv4_2"
  param {
    lr_mult: 1
    decay_mult: 1
  }
  param {
    lr_mult: 2
    decay_mult: 0
  }
  convolution_param {
    num_output: 256
    pad: 0
    kernel_size: 1
    stride: 1
    weight_filler {
      type: "xavier"
    }
    bias_filler {
      type: "constant"
    }
  }
}
layer {
  name: "batchnorm4_2"
  type: "BatchNorm"
  bottom: "conv4_2"
  top: "conv4_2"
}
layer {
  name: "elu4_2"
  type: "ELU"
  bottom: "conv4_2"
  top: "conv4_2"
}
layer {
  name: "deconv4_3"
  type: "Deconvolution"
  bottom: "conv4_2"
  top: "deconv4_3"
  param {
    lr_mult: 1
    decay_mult: 1
  }
  param {
    lr_mult: 2
    decay_mult: 0
  }
  convolution_param {
    num_output: 128
    pad: 0
    kernel_size: 7
    stride: 1
    weight_filler {
      type: "xavier"
    }
    bias_filler {
      type: "constant"
    }
  }
}
layer {
  name: "debatchnorm4_3"
  type: "BatchNorm"
  bottom: "deconv4_3"
  top: "deconv4_3"
}
layer {
  name: "deelu4_3"
  type: "ELU"
  bottom: "deconv4_3"
  top: "deconv4_3"
}
layer {
  name: "unpool3"
  type: "Unpooling"
  bottom: "deconv4_3"
  bottom: "pool3_mask"
  bottom: "pool3_argmax_count"
  top: "unpool3"
  pooling_param {
    pool: MAX
    kernel_size: 2
    stride: 2
  }
}
layer {
  name: "deconv3_1"
  type: "Deconvolution"
  bottom: "unpool3"
  top: "deconv3_1"
  param {
    lr_mult: 1
    decay_mult: 1
  }
  param {
    lr_mult: 2
    decay_mult: 0
  }
  convolution_param {
    num_output: 128
    pad: 1
    kernel_size: 3
    stride: 1
    weight_filler {
      type: "xavier"
    }
    bias_filler {
      type: "constant"
    }
  }
}
layer {
  name: "debatchnorm3_1"
  type: "BatchNorm"
  bottom: "deconv3_1"
  top: "deconv3_1"
}
layer {
  name: "deelu3_1"
  type: "ELU"
  bottom: "deconv3_1"
  top: "deconv3_1"
}
layer {
  name: "deconv3_2"
  type: "Deconvolution"
  bottom: "deconv3_1"
  top: "deconv3_2"
  param {
    lr_mult: 1
    decay_mult: 1
  }
  param {
    lr_mult: 2
    decay_mult: 0
  }
  convolution_param {
    num_output: 128
    pad: 1
    kernel_size: 3
    stride: 1
    weight_filler {
      type: "xavier"
    }
    bias_filler {
      type: "constant"
    }
  }
}
layer {
  name: "debatchnorm3_2"
  type: "BatchNorm"
  bottom: "deconv3_2"
  top: "deconv3_2"
}
layer {
  name: "deelu3_2"
  type: "ELU"
  bottom: "deconv3_2"
  top: "deconv3_2"
}
layer {
  name: "deconv3_3"
  type: "Deconvolution"
  bottom: "deconv3_2"
  top: "deconv3_3"
  param {
    lr_mult: 1
    decay_mult: 1
  }
  param {
    lr_mult: 2
    decay_mult: 0
  }
  convolution_param {
    num_output: 64
    pad: 1
    kernel_size: 3
    stride: 1
    weight_filler {
      type: "xavier"
    }
    bias_filler {
      type: "constant"
    }
  }
}
layer {
  name: "debatchnorm3_3"
  type: "BatchNorm"
  bottom: "deconv3_3"
  top: "deconv3_3"
}
layer {
  name: "deelu3_3"
  type: "ELU"
  bottom: "deconv3_3"
  top: "deconv3_3"
}
layer {
  name: "unpool2"
  type: "Unpooling"
  bottom: "deconv3_3"
  bottom: "pool2_mask"
  bottom: "pool2_argmax_count"
  top: "unpool2"
  pooling_param {
    pool: MAX
    kernel_size: 4
    stride: 4
  }
}
layer {
  name: "deconv2_1"
  type: "Deconvolution"
  bottom: "unpool2"
  top: "deconv2_1"
  param {
    lr_mult: 1
    decay_mult: 1
  }
  param {
    lr_mult: 2
    decay_mult: 0
  }
  convolution_param {
    num_output: 64
    pad: 1
    kernel_size: 3
    stride: 1
    weight_filler {
      type: "xavier"
    }
    bias_filler {
      type: "constant"
    }
  }
}
layer {
  name: "debatchnorm2_1"
  type: "BatchNorm"
  bottom: "deconv2_1"
  top: "deconv2_1"
}
layer {
  name: "deelu2_1"
  type: "ELU"
  bottom: "deconv2_1"
  top: "deconv2_1"
}
layer {
  name: "deconv2_2"
  type: "Deconvolution"
  bottom: "deconv2_1"
  top: "deconv2_2"
  param {
    lr_mult: 1
    decay_mult: 1
  }
  param {
    lr_mult: 2
    decay_mult: 0
  }
  convolution_param {
    num_output: 32
    pad: 1
    kernel_size: 3
    stride: 1
    weight_filler {
      type: "xavier"
    }
    bias_filler {
      type: "constant"
    }
  }
}
layer {
  name: "debatchnorm2_2"
  type: "BatchNorm"
  bottom: "deconv2_2"
  top: "deconv2_2"
}
layer {
  name: "deelu2_2"
  type: "ELU"
  bottom: "deconv2_2"
  top: "deconv2_2"
}
layer {
  name: "unpool1"
  type: "Unpooling"
  bottom: "deconv2_2"
  bottom: "pool1_mask"
  bottom: "pool1_argmax_count"
  top: "unpool1"
  pooling_param {
    pool: MAX
    kernel_size: 4
    stride: 4
  }
}
layer {
  name: "deconv1_1"
  type: "Deconvolution"
  bottom: "unpool1"
  top: "deconv1_1"
  param {
    lr_mult: 1
    decay_mult: 1
  }
  param {
    lr_mult: 2
    decay_mult: 0
  }
  convolution_param {
    num_output: 32
    pad: 1
    kernel_size: 3
    stride: 1
    weight_filler {
      type: "xavier"
    }
    bias_filler {
      type: "constant"
    }
  }
}
layer {
  name: "debatchnorm1_1"
  type: "BatchNorm"
  bottom: "deconv1_1"
  top: "deconv1_1"
}
layer {
  name: "deelu1_1"
  type: "ELU"
  bottom: "deconv1_1"
  top: "deconv1_1"
}
layer {
  name: "deconv1_2"
  type: "Deconvolution"
  bottom: "deconv1_1"
  top: "deconv1_2"
  param {
    lr_mult: 1
    decay_mult: 1
  }
  param {
    lr_mult: 2
    decay_mult: 0
  }
  convolution_param {
    num_output: 32
    pad: 1
    kernel_size: 3
    stride: 1
    weight_filler {
      type: "xavier"
    }
    bias_filler {
      type: "constant"
    }
  }
}
layer {
  name: "debatchnorm1_2"
  type: "BatchNorm"
  bottom: "deconv1_2"
  top: "deconv1_2"
}
layer {
  name: "deelu1_2"
  type: "ELU"
  bottom: "deconv1_2"
  top: "deconv1_2"
}
layer {
  name: "segmentation"
  type: "Convolution"
  bottom: "deconv1_2"
  top: "segmentation"
  param {
    lr_mult: 1
    decay_mult: 1
  }
  param {
    lr_mult: 2
    decay_mult: 0
  }
  convolution_param {
    num_output: 3
    pad: 0
    kernel_size: 1
    weight_filler {
      type: "xavier"
    }
    bias_filler {
      type: "constant"
    }
  }
}
layer {
  name: "infogainLoss"
  type: "InfogainLoss"
  bottom: "segmentation"
  bottom: "label"
  top: "loss"
  loss_param {
    ignore_label: 3
  }
  infogain_loss_param {
    source: "/home/grochette/Documents/SegNet/data/OnlyVegas/infogainH.binaryproto"
  }
}
I1005 16:58:13.755581 15961 layer_factory.hpp:77] Creating layer data
I1005 16:58:13.755594 15961 net.cpp:84] Creating Layer data
I1005 16:58:13.755601 15961 net.cpp:380] data -> data
I1005 16:58:13.755617 15961 net.cpp:380] data -> label
I1005 16:58:13.755626 15961 hdf5_data_layer.cpp:80] Loading list of HDF5 filenames from: /home/grochette/Documents/SegNet/data/HDF5/Train/hdf5_list.txt
I1005 16:58:13.755659 15961 hdf5_data_layer.cpp:94] Number of HDF5 files: 16
I1005 16:58:13.756505 15961 hdf5.cpp:32] Datatype class: H5T_FLOAT
I1005 16:58:14.439414 15961 hdf5.cpp:35] Datatype class: H5T_INTEGER
I1005 16:58:14.674253 15961 net.cpp:122] Setting up data
I1005 16:58:14.674288 15961 net.cpp:129] Top shape: 16 4 224 224 (3211264)
I1005 16:58:14.674294 15961 net.cpp:129] Top shape: 16 1 224 224 (802816)
I1005 16:58:14.674298 15961 net.cpp:137] Memory required for data: 16056320
I1005 16:58:14.674304 15961 layer_factory.hpp:77] Creating layer batchnorm0
I1005 16:58:14.674315 15961 net.cpp:84] Creating Layer batchnorm0
I1005 16:58:14.674324 15961 net.cpp:406] batchnorm0 <- data
I1005 16:58:14.674335 15961 net.cpp:367] batchnorm0 -> data (in-place)
I1005 16:58:14.674988 15961 net.cpp:122] Setting up batchnorm0
I1005 16:58:14.674996 15961 net.cpp:129] Top shape: 16 4 224 224 (3211264)
I1005 16:58:14.675000 15961 net.cpp:137] Memory required for data: 28901376
I1005 16:58:14.675019 15961 layer_factory.hpp:77] Creating layer conv1_1
I1005 16:58:14.675034 15961 net.cpp:84] Creating Layer conv1_1
I1005 16:58:14.675038 15961 net.cpp:406] conv1_1 <- data
I1005 16:58:14.675045 15961 net.cpp:380] conv1_1 -> conv1_1
I1005 16:58:15.134366 15961 net.cpp:122] Setting up conv1_1
I1005 16:58:15.134392 15961 net.cpp:129] Top shape: 16 32 224 224 (25690112)
I1005 16:58:15.134395 15961 net.cpp:137] Memory required for data: 131661824
I1005 16:58:15.134408 15961 layer_factory.hpp:77] Creating layer batchnorm1_1
I1005 16:58:15.134418 15961 net.cpp:84] Creating Layer batchnorm1_1
I1005 16:58:15.134423 15961 net.cpp:406] batchnorm1_1 <- conv1_1
I1005 16:58:15.134428 15961 net.cpp:367] batchnorm1_1 -> conv1_1 (in-place)
I1005 16:58:15.134631 15961 net.cpp:122] Setting up batchnorm1_1
I1005 16:58:15.134637 15961 net.cpp:129] Top shape: 16 32 224 224 (25690112)
I1005 16:58:15.134640 15961 net.cpp:137] Memory required for data: 234422272
I1005 16:58:15.134647 15961 layer_factory.hpp:77] Creating layer elu1_1
I1005 16:58:15.134654 15961 net.cpp:84] Creating Layer elu1_1
I1005 16:58:15.134656 15961 net.cpp:406] elu1_1 <- conv1_1
I1005 16:58:15.134660 15961 net.cpp:367] elu1_1 -> conv1_1 (in-place)
I1005 16:58:15.134665 15961 net.cpp:122] Setting up elu1_1
I1005 16:58:15.134670 15961 net.cpp:129] Top shape: 16 32 224 224 (25690112)
I1005 16:58:15.134675 15961 net.cpp:137] Memory required for data: 337182720
I1005 16:58:15.134677 15961 layer_factory.hpp:77] Creating layer conv1_2
I1005 16:58:15.134687 15961 net.cpp:84] Creating Layer conv1_2
I1005 16:58:15.134691 15961 net.cpp:406] conv1_2 <- conv1_1
I1005 16:58:15.134696 15961 net.cpp:380] conv1_2 -> conv1_2
I1005 16:58:15.136939 15961 net.cpp:122] Setting up conv1_2
I1005 16:58:15.136950 15961 net.cpp:129] Top shape: 16 32 224 224 (25690112)
I1005 16:58:15.136955 15961 net.cpp:137] Memory required for data: 439943168
I1005 16:58:15.136963 15961 layer_factory.hpp:77] Creating layer batchnorm1_2
I1005 16:58:15.136970 15961 net.cpp:84] Creating Layer batchnorm1_2
I1005 16:58:15.136972 15961 net.cpp:406] batchnorm1_2 <- conv1_2
I1005 16:58:15.136977 15961 net.cpp:367] batchnorm1_2 -> conv1_2 (in-place)
I1005 16:58:15.137176 15961 net.cpp:122] Setting up batchnorm1_2
I1005 16:58:15.137181 15961 net.cpp:129] Top shape: 16 32 224 224 (25690112)
I1005 16:58:15.137184 15961 net.cpp:137] Memory required for data: 542703616
I1005 16:58:15.137192 15961 layer_factory.hpp:77] Creating layer elu1_2
I1005 16:58:15.137197 15961 net.cpp:84] Creating Layer elu1_2
I1005 16:58:15.137198 15961 net.cpp:406] elu1_2 <- conv1_2
I1005 16:58:15.137202 15961 net.cpp:367] elu1_2 -> conv1_2 (in-place)
I1005 16:58:15.137207 15961 net.cpp:122] Setting up elu1_2
I1005 16:58:15.137230 15961 net.cpp:129] Top shape: 16 32 224 224 (25690112)
I1005 16:58:15.137233 15961 net.cpp:137] Memory required for data: 645464064
I1005 16:58:15.137235 15961 layer_factory.hpp:77] Creating layer pool1
I1005 16:58:15.137240 15961 layer_factory.cpp:91] cuDNN does not support multiple tops. Using Caffe's own pooling layer.
I1005 16:58:15.137245 15961 net.cpp:84] Creating Layer pool1
I1005 16:58:15.137248 15961 net.cpp:406] pool1 <- conv1_2
I1005 16:58:15.137253 15961 net.cpp:380] pool1 -> pool1
I1005 16:58:15.137260 15961 net.cpp:380] pool1 -> pool1_mask
I1005 16:58:15.137266 15961 net.cpp:380] pool1 -> pool1_argmax_count
I1005 16:58:15.137321 15961 net.cpp:122] Setting up pool1
I1005 16:58:15.137327 15961 net.cpp:129] Top shape: 16 32 56 56 (1605632)
I1005 16:58:15.137331 15961 net.cpp:129] Top shape: 16 32 56 56 (1605632)
I1005 16:58:15.137336 15961 net.cpp:129] Top shape: 16 32 224 224 (25690112)
I1005 16:58:15.137337 15961 net.cpp:137] Memory required for data: 761069568
I1005 16:58:15.137341 15961 layer_factory.hpp:77] Creating layer conv2_1
I1005 16:58:15.137348 15961 net.cpp:84] Creating Layer conv2_1
I1005 16:58:15.137351 15961 net.cpp:406] conv2_1 <- pool1
I1005 16:58:15.137356 15961 net.cpp:380] conv2_1 -> conv2_1
I1005 16:58:15.139606 15961 net.cpp:122] Setting up conv2_1
I1005 16:58:15.139618 15961 net.cpp:129] Top shape: 16 64 56 56 (3211264)
I1005 16:58:15.139622 15961 net.cpp:137] Memory required for data: 773914624
I1005 16:58:15.139628 15961 layer_factory.hpp:77] Creating layer batchnorm2_1
I1005 16:58:15.139633 15961 net.cpp:84] Creating Layer batchnorm2_1
I1005 16:58:15.139637 15961 net.cpp:406] batchnorm2_1 <- conv2_1
I1005 16:58:15.139642 15961 net.cpp:367] batchnorm2_1 -> conv2_1 (in-place)
I1005 16:58:15.139829 15961 net.cpp:122] Setting up batchnorm2_1
I1005 16:58:15.139837 15961 net.cpp:129] Top shape: 16 64 56 56 (3211264)
I1005 16:58:15.139839 15961 net.cpp:137] Memory required for data: 786759680
I1005 16:58:15.139849 15961 layer_factory.hpp:77] Creating layer elu2_1
I1005 16:58:15.139853 15961 net.cpp:84] Creating Layer elu2_1
I1005 16:58:15.139856 15961 net.cpp:406] elu2_1 <- conv2_1
I1005 16:58:15.139860 15961 net.cpp:367] elu2_1 -> conv2_1 (in-place)
I1005 16:58:15.139865 15961 net.cpp:122] Setting up elu2_1
I1005 16:58:15.139870 15961 net.cpp:129] Top shape: 16 64 56 56 (3211264)
I1005 16:58:15.139873 15961 net.cpp:137] Memory required for data: 799604736
I1005 16:58:15.139878 15961 layer_factory.hpp:77] Creating layer conv2_2
I1005 16:58:15.139885 15961 net.cpp:84] Creating Layer conv2_2
I1005 16:58:15.139889 15961 net.cpp:406] conv2_2 <- conv2_1
I1005 16:58:15.139894 15961 net.cpp:380] conv2_2 -> conv2_2
I1005 16:58:15.141821 15961 net.cpp:122] Setting up conv2_2
I1005 16:58:15.141832 15961 net.cpp:129] Top shape: 16 64 56 56 (3211264)
I1005 16:58:15.141835 15961 net.cpp:137] Memory required for data: 812449792
I1005 16:58:15.141841 15961 layer_factory.hpp:77] Creating layer batchnorm2_2
I1005 16:58:15.141847 15961 net.cpp:84] Creating Layer batchnorm2_2
I1005 16:58:15.141850 15961 net.cpp:406] batchnorm2_2 <- conv2_2
I1005 16:58:15.141855 15961 net.cpp:367] batchnorm2_2 -> conv2_2 (in-place)
I1005 16:58:15.142045 15961 net.cpp:122] Setting up batchnorm2_2
I1005 16:58:15.142052 15961 net.cpp:129] Top shape: 16 64 56 56 (3211264)
I1005 16:58:15.142055 15961 net.cpp:137] Memory required for data: 825294848
I1005 16:58:15.142061 15961 layer_factory.hpp:77] Creating layer elu2_2
I1005 16:58:15.142066 15961 net.cpp:84] Creating Layer elu2_2
I1005 16:58:15.142069 15961 net.cpp:406] elu2_2 <- conv2_2
I1005 16:58:15.142072 15961 net.cpp:367] elu2_2 -> conv2_2 (in-place)
I1005 16:58:15.142077 15961 net.cpp:122] Setting up elu2_2
I1005 16:58:15.142081 15961 net.cpp:129] Top shape: 16 64 56 56 (3211264)
I1005 16:58:15.142083 15961 net.cpp:137] Memory required for data: 838139904
I1005 16:58:15.142087 15961 layer_factory.hpp:77] Creating layer pool2
I1005 16:58:15.142091 15961 layer_factory.cpp:91] cuDNN does not support multiple tops. Using Caffe's own pooling layer.
I1005 16:58:15.142107 15961 net.cpp:84] Creating Layer pool2
I1005 16:58:15.142112 15961 net.cpp:406] pool2 <- conv2_2
I1005 16:58:15.142117 15961 net.cpp:380] pool2 -> pool2
I1005 16:58:15.142123 15961 net.cpp:380] pool2 -> pool2_mask
I1005 16:58:15.142129 15961 net.cpp:380] pool2 -> pool2_argmax_count
I1005 16:58:15.142177 15961 net.cpp:122] Setting up pool2
I1005 16:58:15.142184 15961 net.cpp:129] Top shape: 16 64 14 14 (200704)
I1005 16:58:15.142189 15961 net.cpp:129] Top shape: 16 64 14 14 (200704)
I1005 16:58:15.142192 15961 net.cpp:129] Top shape: 16 64 56 56 (3211264)
I1005 16:58:15.142196 15961 net.cpp:137] Memory required for data: 852590592
I1005 16:58:15.142199 15961 layer_factory.hpp:77] Creating layer conv3_1
I1005 16:58:15.142210 15961 net.cpp:84] Creating Layer conv3_1
I1005 16:58:15.142213 15961 net.cpp:406] conv3_1 <- pool2
I1005 16:58:15.142220 15961 net.cpp:380] conv3_1 -> conv3_1
I1005 16:58:15.144754 15961 net.cpp:122] Setting up conv3_1
I1005 16:58:15.144765 15961 net.cpp:129] Top shape: 16 128 14 14 (401408)
I1005 16:58:15.144769 15961 net.cpp:137] Memory required for data: 854196224
I1005 16:58:15.144778 15961 layer_factory.hpp:77] Creating layer batchnorm3_1
I1005 16:58:15.144783 15961 net.cpp:84] Creating Layer batchnorm3_1
I1005 16:58:15.144788 15961 net.cpp:406] batchnorm3_1 <- conv3_1
I1005 16:58:15.144793 15961 net.cpp:367] batchnorm3_1 -> conv3_1 (in-place)
I1005 16:58:15.144970 15961 net.cpp:122] Setting up batchnorm3_1
I1005 16:58:15.144976 15961 net.cpp:129] Top shape: 16 128 14 14 (401408)
I1005 16:58:15.144980 15961 net.cpp:137] Memory required for data: 855801856
I1005 16:58:15.144987 15961 layer_factory.hpp:77] Creating layer elu3_1
I1005 16:58:15.144994 15961 net.cpp:84] Creating Layer elu3_1
I1005 16:58:15.144996 15961 net.cpp:406] elu3_1 <- conv3_1
I1005 16:58:15.145001 15961 net.cpp:367] elu3_1 -> conv3_1 (in-place)
I1005 16:58:15.145006 15961 net.cpp:122] Setting up elu3_1
I1005 16:58:15.145011 15961 net.cpp:129] Top shape: 16 128 14 14 (401408)
I1005 16:58:15.145015 15961 net.cpp:137] Memory required for data: 857407488
I1005 16:58:15.145018 15961 layer_factory.hpp:77] Creating layer conv3_2
I1005 16:58:15.145026 15961 net.cpp:84] Creating Layer conv3_2
I1005 16:58:15.145030 15961 net.cpp:406] conv3_2 <- conv3_1
I1005 16:58:15.145036 15961 net.cpp:380] conv3_2 -> conv3_2
I1005 16:58:15.147723 15961 net.cpp:122] Setting up conv3_2
I1005 16:58:15.147737 15961 net.cpp:129] Top shape: 16 128 14 14 (401408)
I1005 16:58:15.147742 15961 net.cpp:137] Memory required for data: 859013120
I1005 16:58:15.147750 15961 layer_factory.hpp:77] Creating layer batchnorm3_2
I1005 16:58:15.147758 15961 net.cpp:84] Creating Layer batchnorm3_2
I1005 16:58:15.147761 15961 net.cpp:406] batchnorm3_2 <- conv3_2
I1005 16:58:15.147768 15961 net.cpp:367] batchnorm3_2 -> conv3_2 (in-place)
I1005 16:58:15.147964 15961 net.cpp:122] Setting up batchnorm3_2
I1005 16:58:15.147969 15961 net.cpp:129] Top shape: 16 128 14 14 (401408)
I1005 16:58:15.147974 15961 net.cpp:137] Memory required for data: 860618752
I1005 16:58:15.147984 15961 layer_factory.hpp:77] Creating layer elu3_2
I1005 16:58:15.147989 15961 net.cpp:84] Creating Layer elu3_2
I1005 16:58:15.147994 15961 net.cpp:406] elu3_2 <- conv3_2
I1005 16:58:15.147999 15961 net.cpp:367] elu3_2 -> conv3_2 (in-place)
I1005 16:58:15.148005 15961 net.cpp:122] Setting up elu3_2
I1005 16:58:15.148010 15961 net.cpp:129] Top shape: 16 128 14 14 (401408)
I1005 16:58:15.148012 15961 net.cpp:137] Memory required for data: 862224384
I1005 16:58:15.148016 15961 layer_factory.hpp:77] Creating layer conv3_3
I1005 16:58:15.148025 15961 net.cpp:84] Creating Layer conv3_3
I1005 16:58:15.148030 15961 net.cpp:406] conv3_3 <- conv3_2
I1005 16:58:15.148036 15961 net.cpp:380] conv3_3 -> conv3_3
I1005 16:58:15.150990 15961 net.cpp:122] Setting up conv3_3
I1005 16:58:15.151003 15961 net.cpp:129] Top shape: 16 128 14 14 (401408)
I1005 16:58:15.151007 15961 net.cpp:137] Memory required for data: 863830016
I1005 16:58:15.151015 15961 layer_factory.hpp:77] Creating layer batchnorm3_3
I1005 16:58:15.151037 15961 net.cpp:84] Creating Layer batchnorm3_3
I1005 16:58:15.151042 15961 net.cpp:406] batchnorm3_3 <- conv3_3
I1005 16:58:15.151048 15961 net.cpp:367] batchnorm3_3 -> conv3_3 (in-place)
I1005 16:58:15.151227 15961 net.cpp:122] Setting up batchnorm3_3
I1005 16:58:15.151234 15961 net.cpp:129] Top shape: 16 128 14 14 (401408)
I1005 16:58:15.151238 15961 net.cpp:137] Memory required for data: 865435648
I1005 16:58:15.151245 15961 layer_factory.hpp:77] Creating layer elu3_3
I1005 16:58:15.151250 15961 net.cpp:84] Creating Layer elu3_3
I1005 16:58:15.151254 15961 net.cpp:406] elu3_3 <- conv3_3
I1005 16:58:15.151259 15961 net.cpp:367] elu3_3 -> conv3_3 (in-place)
I1005 16:58:15.151264 15961 net.cpp:122] Setting up elu3_3
I1005 16:58:15.151269 15961 net.cpp:129] Top shape: 16 128 14 14 (401408)
I1005 16:58:15.151273 15961 net.cpp:137] Memory required for data: 867041280
I1005 16:58:15.151278 15961 layer_factory.hpp:77] Creating layer pool3
I1005 16:58:15.151281 15961 layer_factory.cpp:91] cuDNN does not support multiple tops. Using Caffe's own pooling layer.
I1005 16:58:15.151286 15961 net.cpp:84] Creating Layer pool3
I1005 16:58:15.151290 15961 net.cpp:406] pool3 <- conv3_3
I1005 16:58:15.151295 15961 net.cpp:380] pool3 -> pool3
I1005 16:58:15.151302 15961 net.cpp:380] pool3 -> pool3_mask
I1005 16:58:15.151309 15961 net.cpp:380] pool3 -> pool3_argmax_count
I1005 16:58:15.151378 15961 net.cpp:122] Setting up pool3
I1005 16:58:15.151386 15961 net.cpp:129] Top shape: 16 128 7 7 (100352)
I1005 16:58:15.151391 15961 net.cpp:129] Top shape: 16 128 7 7 (100352)
I1005 16:58:15.151396 15961 net.cpp:129] Top shape: 16 128 14 14 (401408)
I1005 16:58:15.151398 15961 net.cpp:137] Memory required for data: 869449728
I1005 16:58:15.151402 15961 layer_factory.hpp:77] Creating layer conv4_1
I1005 16:58:15.151412 15961 net.cpp:84] Creating Layer conv4_1
I1005 16:58:15.151415 15961 net.cpp:406] conv4_1 <- pool3
I1005 16:58:15.151422 15961 net.cpp:380] conv4_1 -> conv4_1
I1005 16:58:15.164659 15961 net.cpp:122] Setting up conv4_1
I1005 16:58:15.164680 15961 net.cpp:129] Top shape: 16 256 1 1 (4096)
I1005 16:58:15.164685 15961 net.cpp:137] Memory required for data: 869466112
I1005 16:58:15.164695 15961 layer_factory.hpp:77] Creating layer batchnorm4_1
I1005 16:58:15.164710 15961 net.cpp:84] Creating Layer batchnorm4_1
I1005 16:58:15.164721 15961 net.cpp:406] batchnorm4_1 <- conv4_1
I1005 16:58:15.164727 15961 net.cpp:367] batchnorm4_1 -> conv4_1 (in-place)
I1005 16:58:15.164921 15961 net.cpp:122] Setting up batchnorm4_1
I1005 16:58:15.164929 15961 net.cpp:129] Top shape: 16 256 1 1 (4096)
I1005 16:58:15.164932 15961 net.cpp:137] Memory required for data: 869482496
I1005 16:58:15.164938 15961 layer_factory.hpp:77] Creating layer elu4_1
I1005 16:58:15.164944 15961 net.cpp:84] Creating Layer elu4_1
I1005 16:58:15.164948 15961 net.cpp:406] elu4_1 <- conv4_1
I1005 16:58:15.164953 15961 net.cpp:367] elu4_1 -> conv4_1 (in-place)
I1005 16:58:15.164958 15961 net.cpp:122] Setting up elu4_1
I1005 16:58:15.164963 15961 net.cpp:129] Top shape: 16 256 1 1 (4096)
I1005 16:58:15.164968 15961 net.cpp:137] Memory required for data: 869498880
I1005 16:58:15.164970 15961 layer_factory.hpp:77] Creating layer conv4_2
I1005 16:58:15.164980 15961 net.cpp:84] Creating Layer conv4_2
I1005 16:58:15.164983 15961 net.cpp:406] conv4_2 <- conv4_1
I1005 16:58:15.164990 15961 net.cpp:380] conv4_2 -> conv4_2
I1005 16:58:15.167008 15961 net.cpp:122] Setting up conv4_2
I1005 16:58:15.167021 15961 net.cpp:129] Top shape: 16 256 1 1 (4096)
I1005 16:58:15.167024 15961 net.cpp:137] Memory required for data: 869515264
I1005 16:58:15.167032 15961 layer_factory.hpp:77] Creating layer batchnorm4_2
I1005 16:58:15.167042 15961 net.cpp:84] Creating Layer batchnorm4_2
I1005 16:58:15.167045 15961 net.cpp:406] batchnorm4_2 <- conv4_2
I1005 16:58:15.167052 15961 net.cpp:367] batchnorm4_2 -> conv4_2 (in-place)
I1005 16:58:15.167244 15961 net.cpp:122] Setting up batchnorm4_2
I1005 16:58:15.167251 15961 net.cpp:129] Top shape: 16 256 1 1 (4096)
I1005 16:58:15.167273 15961 net.cpp:137] Memory required for data: 869531648
I1005 16:58:15.167280 15961 layer_factory.hpp:77] Creating layer elu4_2
I1005 16:58:15.167286 15961 net.cpp:84] Creating Layer elu4_2
I1005 16:58:15.167289 15961 net.cpp:406] elu4_2 <- conv4_2
I1005 16:58:15.167295 15961 net.cpp:367] elu4_2 -> conv4_2 (in-place)
I1005 16:58:15.167301 15961 net.cpp:122] Setting up elu4_2
I1005 16:58:15.167306 15961 net.cpp:129] Top shape: 16 256 1 1 (4096)
I1005 16:58:15.167309 15961 net.cpp:137] Memory required for data: 869548032
I1005 16:58:15.167313 15961 layer_factory.hpp:77] Creating layer deconv4_3
I1005 16:58:15.167322 15961 net.cpp:84] Creating Layer deconv4_3
I1005 16:58:15.167326 15961 net.cpp:406] deconv4_3 <- conv4_2
I1005 16:58:15.167332 15961 net.cpp:380] deconv4_3 -> deconv4_3
I1005 16:58:15.177575 15961 net.cpp:122] Setting up deconv4_3
I1005 16:58:15.177595 15961 net.cpp:129] Top shape: 16 128 7 7 (100352)
I1005 16:58:15.177600 15961 net.cpp:137] Memory required for data: 869949440
I1005 16:58:15.177608 15961 layer_factory.hpp:77] Creating layer debatchnorm4_3
I1005 16:58:15.177614 15961 net.cpp:84] Creating Layer debatchnorm4_3
I1005 16:58:15.177619 15961 net.cpp:406] debatchnorm4_3 <- deconv4_3
I1005 16:58:15.177625 15961 net.cpp:367] debatchnorm4_3 -> deconv4_3 (in-place)
I1005 16:58:15.177826 15961 net.cpp:122] Setting up debatchnorm4_3
I1005 16:58:15.177832 15961 net.cpp:129] Top shape: 16 128 7 7 (100352)
I1005 16:58:15.177836 15961 net.cpp:137] Memory required for data: 870350848
I1005 16:58:15.177844 15961 layer_factory.hpp:77] Creating layer deelu4_3
I1005 16:58:15.177850 15961 net.cpp:84] Creating Layer deelu4_3
I1005 16:58:15.177853 15961 net.cpp:406] deelu4_3 <- deconv4_3
I1005 16:58:15.177858 15961 net.cpp:367] deelu4_3 -> deconv4_3 (in-place)
I1005 16:58:15.177865 15961 net.cpp:122] Setting up deelu4_3
I1005 16:58:15.177868 15961 net.cpp:129] Top shape: 16 128 7 7 (100352)
I1005 16:58:15.177872 15961 net.cpp:137] Memory required for data: 870752256
I1005 16:58:15.177875 15961 layer_factory.hpp:77] Creating layer unpool3
I1005 16:58:15.177882 15961 net.cpp:84] Creating Layer unpool3
I1005 16:58:15.177886 15961 net.cpp:406] unpool3 <- deconv4_3
I1005 16:58:15.177891 15961 net.cpp:406] unpool3 <- pool3_mask
I1005 16:58:15.177896 15961 net.cpp:406] unpool3 <- pool3_argmax_count
I1005 16:58:15.177901 15961 net.cpp:380] unpool3 -> unpool3
I1005 16:58:15.177942 15961 net.cpp:122] Setting up unpool3
I1005 16:58:15.177947 15961 net.cpp:129] Top shape: 16 128 14 14 (401408)
I1005 16:58:15.177950 15961 net.cpp:137] Memory required for data: 872357888
I1005 16:58:15.177954 15961 layer_factory.hpp:77] Creating layer deconv3_1
I1005 16:58:15.177963 15961 net.cpp:84] Creating Layer deconv3_1
I1005 16:58:15.177966 15961 net.cpp:406] deconv3_1 <- unpool3
I1005 16:58:15.177971 15961 net.cpp:380] deconv3_1 -> deconv3_1
I1005 16:58:15.179442 15961 net.cpp:122] Setting up deconv3_1
I1005 16:58:15.179452 15961 net.cpp:129] Top shape: 16 128 14 14 (401408)
I1005 16:58:15.179455 15961 net.cpp:137] Memory required for data: 873963520
I1005 16:58:15.179462 15961 layer_factory.hpp:77] Creating layer debatchnorm3_1
I1005 16:58:15.179468 15961 net.cpp:84] Creating Layer debatchnorm3_1
I1005 16:58:15.179472 15961 net.cpp:406] debatchnorm3_1 <- deconv3_1
I1005 16:58:15.179478 15961 net.cpp:367] debatchnorm3_1 -> deconv3_1 (in-place)
I1005 16:58:15.179677 15961 net.cpp:122] Setting up debatchnorm3_1
I1005 16:58:15.179683 15961 net.cpp:129] Top shape: 16 128 14 14 (401408)
I1005 16:58:15.179687 15961 net.cpp:137] Memory required for data: 875569152
I1005 16:58:15.179693 15961 layer_factory.hpp:77] Creating layer deelu3_1
I1005 16:58:15.179698 15961 net.cpp:84] Creating Layer deelu3_1
I1005 16:58:15.179702 15961 net.cpp:406] deelu3_1 <- deconv3_1
I1005 16:58:15.179708 15961 net.cpp:367] deelu3_1 -> deconv3_1 (in-place)
I1005 16:58:15.179713 15961 net.cpp:122] Setting up deelu3_1
I1005 16:58:15.179716 15961 net.cpp:129] Top shape: 16 128 14 14 (401408)
I1005 16:58:15.179720 15961 net.cpp:137] Memory required for data: 877174784
I1005 16:58:15.179740 15961 layer_factory.hpp:77] Creating layer deconv3_2
I1005 16:58:15.179749 15961 net.cpp:84] Creating Layer deconv3_2
I1005 16:58:15.179752 15961 net.cpp:406] deconv3_2 <- deconv3_1
I1005 16:58:15.179759 15961 net.cpp:380] deconv3_2 -> deconv3_2
I1005 16:58:15.181490 15961 net.cpp:122] Setting up deconv3_2
I1005 16:58:15.181499 15961 net.cpp:129] Top shape: 16 128 14 14 (401408)
I1005 16:58:15.181504 15961 net.cpp:137] Memory required for data: 878780416
I1005 16:58:15.181510 15961 layer_factory.hpp:77] Creating layer debatchnorm3_2
I1005 16:58:15.181516 15961 net.cpp:84] Creating Layer debatchnorm3_2
I1005 16:58:15.181520 15961 net.cpp:406] debatchnorm3_2 <- deconv3_2
I1005 16:58:15.181526 15961 net.cpp:367] debatchnorm3_2 -> deconv3_2 (in-place)
I1005 16:58:15.181720 15961 net.cpp:122] Setting up debatchnorm3_2
I1005 16:58:15.181725 15961 net.cpp:129] Top shape: 16 128 14 14 (401408)
I1005 16:58:15.181728 15961 net.cpp:137] Memory required for data: 880386048
I1005 16:58:15.181735 15961 layer_factory.hpp:77] Creating layer deelu3_2
I1005 16:58:15.181741 15961 net.cpp:84] Creating Layer deelu3_2
I1005 16:58:15.181746 15961 net.cpp:406] deelu3_2 <- deconv3_2
I1005 16:58:15.181751 15961 net.cpp:367] deelu3_2 -> deconv3_2 (in-place)
I1005 16:58:15.181756 15961 net.cpp:122] Setting up deelu3_2
I1005 16:58:15.181761 15961 net.cpp:129] Top shape: 16 128 14 14 (401408)
I1005 16:58:15.181763 15961 net.cpp:137] Memory required for data: 881991680
I1005 16:58:15.181767 15961 layer_factory.hpp:77] Creating layer deconv3_3
I1005 16:58:15.181773 15961 net.cpp:84] Creating Layer deconv3_3
I1005 16:58:15.181777 15961 net.cpp:406] deconv3_3 <- deconv3_2
I1005 16:58:15.181783 15961 net.cpp:380] deconv3_3 -> deconv3_3
I1005 16:58:15.182405 15961 net.cpp:122] Setting up deconv3_3
I1005 16:58:15.182412 15961 net.cpp:129] Top shape: 16 64 14 14 (200704)
I1005 16:58:15.182416 15961 net.cpp:137] Memory required for data: 882794496
I1005 16:58:15.182428 15961 layer_factory.hpp:77] Creating layer debatchnorm3_3
I1005 16:58:15.182433 15961 net.cpp:84] Creating Layer debatchnorm3_3
I1005 16:58:15.182437 15961 net.cpp:406] debatchnorm3_3 <- deconv3_3
I1005 16:58:15.182441 15961 net.cpp:367] debatchnorm3_3 -> deconv3_3 (in-place)
I1005 16:58:15.182641 15961 net.cpp:122] Setting up debatchnorm3_3
I1005 16:58:15.182646 15961 net.cpp:129] Top shape: 16 64 14 14 (200704)
I1005 16:58:15.182649 15961 net.cpp:137] Memory required for data: 883597312
I1005 16:58:15.182656 15961 layer_factory.hpp:77] Creating layer deelu3_3
I1005 16:58:15.182659 15961 net.cpp:84] Creating Layer deelu3_3
I1005 16:58:15.182662 15961 net.cpp:406] deelu3_3 <- deconv3_3
I1005 16:58:15.182665 15961 net.cpp:367] deelu3_3 -> deconv3_3 (in-place)
I1005 16:58:15.182672 15961 net.cpp:122] Setting up deelu3_3
I1005 16:58:15.182675 15961 net.cpp:129] Top shape: 16 64 14 14 (200704)
I1005 16:58:15.182678 15961 net.cpp:137] Memory required for data: 884400128
I1005 16:58:15.182682 15961 layer_factory.hpp:77] Creating layer unpool2
I1005 16:58:15.182688 15961 net.cpp:84] Creating Layer unpool2
I1005 16:58:15.182692 15961 net.cpp:406] unpool2 <- deconv3_3
I1005 16:58:15.182695 15961 net.cpp:406] unpool2 <- pool2_mask
I1005 16:58:15.182700 15961 net.cpp:406] unpool2 <- pool2_argmax_count
I1005 16:58:15.182705 15961 net.cpp:380] unpool2 -> unpool2
I1005 16:58:15.182729 15961 net.cpp:122] Setting up unpool2
I1005 16:58:15.182735 15961 net.cpp:129] Top shape: 16 64 56 56 (3211264)
I1005 16:58:15.182739 15961 net.cpp:137] Memory required for data: 897245184
I1005 16:58:15.182742 15961 layer_factory.hpp:77] Creating layer deconv2_1
I1005 16:58:15.182749 15961 net.cpp:84] Creating Layer deconv2_1
I1005 16:58:15.182754 15961 net.cpp:406] deconv2_1 <- unpool2
I1005 16:58:15.182760 15961 net.cpp:380] deconv2_1 -> deconv2_1
I1005 16:58:15.183200 15961 net.cpp:122] Setting up deconv2_1
I1005 16:58:15.183207 15961 net.cpp:129] Top shape: 16 64 56 56 (3211264)
I1005 16:58:15.183210 15961 net.cpp:137] Memory required for data: 910090240
I1005 16:58:15.183217 15961 layer_factory.hpp:77] Creating layer debatchnorm2_1
I1005 16:58:15.183234 15961 net.cpp:84] Creating Layer debatchnorm2_1
I1005 16:58:15.183238 15961 net.cpp:406] debatchnorm2_1 <- deconv2_1
I1005 16:58:15.183245 15961 net.cpp:367] debatchnorm2_1 -> deconv2_1 (in-place)
I1005 16:58:15.183455 15961 net.cpp:122] Setting up debatchnorm2_1
I1005 16:58:15.183461 15961 net.cpp:129] Top shape: 16 64 56 56 (3211264)
I1005 16:58:15.183466 15961 net.cpp:137] Memory required for data: 922935296
I1005 16:58:15.183473 15961 layer_factory.hpp:77] Creating layer deelu2_1
I1005 16:58:15.183478 15961 net.cpp:84] Creating Layer deelu2_1
I1005 16:58:15.183482 15961 net.cpp:406] deelu2_1 <- deconv2_1
I1005 16:58:15.183487 15961 net.cpp:367] deelu2_1 -> deconv2_1 (in-place)
I1005 16:58:15.183492 15961 net.cpp:122] Setting up deelu2_1
I1005 16:58:15.183497 15961 net.cpp:129] Top shape: 16 64 56 56 (3211264)
I1005 16:58:15.183501 15961 net.cpp:137] Memory required for data: 935780352
I1005 16:58:15.183504 15961 layer_factory.hpp:77] Creating layer deconv2_2
I1005 16:58:15.183511 15961 net.cpp:84] Creating Layer deconv2_2
I1005 16:58:15.183513 15961 net.cpp:406] deconv2_2 <- deconv2_1
I1005 16:58:15.183519 15961 net.cpp:380] deconv2_2 -> deconv2_2
I1005 16:58:15.183868 15961 net.cpp:122] Setting up deconv2_2
I1005 16:58:15.183876 15961 net.cpp:129] Top shape: 16 32 56 56 (1605632)
I1005 16:58:15.183877 15961 net.cpp:137] Memory required for data: 942202880
I1005 16:58:15.183882 15961 layer_factory.hpp:77] Creating layer debatchnorm2_2
I1005 16:58:15.183887 15961 net.cpp:84] Creating Layer debatchnorm2_2
I1005 16:58:15.183890 15961 net.cpp:406] debatchnorm2_2 <- deconv2_2
I1005 16:58:15.183894 15961 net.cpp:367] debatchnorm2_2 -> deconv2_2 (in-place)
I1005 16:58:15.184095 15961 net.cpp:122] Setting up debatchnorm2_2
I1005 16:58:15.184101 15961 net.cpp:129] Top shape: 16 32 56 56 (1605632)
I1005 16:58:15.184104 15961 net.cpp:137] Memory required for data: 948625408
I1005 16:58:15.184110 15961 layer_factory.hpp:77] Creating layer deelu2_2
I1005 16:58:15.184113 15961 net.cpp:84] Creating Layer deelu2_2
I1005 16:58:15.184118 15961 net.cpp:406] deelu2_2 <- deconv2_2
I1005 16:58:15.184120 15961 net.cpp:367] deelu2_2 -> deconv2_2 (in-place)
I1005 16:58:15.184124 15961 net.cpp:122] Setting up deelu2_2
I1005 16:58:15.184128 15961 net.cpp:129] Top shape: 16 32 56 56 (1605632)
I1005 16:58:15.184131 15961 net.cpp:137] Memory required for data: 955047936
I1005 16:58:15.184134 15961 layer_factory.hpp:77] Creating layer unpool1
I1005 16:58:15.184141 15961 net.cpp:84] Creating Layer unpool1
I1005 16:58:15.184145 15961 net.cpp:406] unpool1 <- deconv2_2
I1005 16:58:15.184149 15961 net.cpp:406] unpool1 <- pool1_mask
I1005 16:58:15.184154 15961 net.cpp:406] unpool1 <- pool1_argmax_count
I1005 16:58:15.184159 15961 net.cpp:380] unpool1 -> unpool1
I1005 16:58:15.184185 15961 net.cpp:122] Setting up unpool1
I1005 16:58:15.184190 15961 net.cpp:129] Top shape: 16 32 224 224 (25690112)
I1005 16:58:15.184193 15961 net.cpp:137] Memory required for data: 1057808384
I1005 16:58:15.184196 15961 layer_factory.hpp:77] Creating layer deconv1_1
I1005 16:58:15.184201 15961 net.cpp:84] Creating Layer deconv1_1
I1005 16:58:15.184206 15961 net.cpp:406] deconv1_1 <- unpool1
I1005 16:58:15.184211 15961 net.cpp:380] deconv1_1 -> deconv1_1
I1005 16:58:15.184509 15961 net.cpp:122] Setting up deconv1_1
I1005 16:58:15.184516 15961 net.cpp:129] Top shape: 16 32 224 224 (25690112)
I1005 16:58:15.184520 15961 net.cpp:137] Memory required for data: 1160568832
I1005 16:58:15.184526 15961 layer_factory.hpp:77] Creating layer debatchnorm1_1
I1005 16:58:15.184531 15961 net.cpp:84] Creating Layer debatchnorm1_1
I1005 16:58:15.184535 15961 net.cpp:406] debatchnorm1_1 <- deconv1_1
I1005 16:58:15.184541 15961 net.cpp:367] debatchnorm1_1 -> deconv1_1 (in-place)
I1005 16:58:15.185187 15961 net.cpp:122] Setting up debatchnorm1_1
I1005 16:58:15.185197 15961 net.cpp:129] Top shape: 16 32 224 224 (25690112)
I1005 16:58:15.185201 15961 net.cpp:137] Memory required for data: 1263329280
I1005 16:58:15.185210 15961 layer_factory.hpp:77] Creating layer deelu1_1
I1005 16:58:15.185225 15961 net.cpp:84] Creating Layer deelu1_1
I1005 16:58:15.185230 15961 net.cpp:406] deelu1_1 <- deconv1_1
I1005 16:58:15.185235 15961 net.cpp:367] deelu1_1 -> deconv1_1 (in-place)
I1005 16:58:15.185240 15961 net.cpp:122] Setting up deelu1_1
I1005 16:58:15.185245 15961 net.cpp:129] Top shape: 16 32 224 224 (25690112)
I1005 16:58:15.185248 15961 net.cpp:137] Memory required for data: 1366089728
I1005 16:58:15.185252 15961 layer_factory.hpp:77] Creating layer deconv1_2
I1005 16:58:15.185258 15961 net.cpp:84] Creating Layer deconv1_2
I1005 16:58:15.185262 15961 net.cpp:406] deconv1_2 <- deconv1_1
I1005 16:58:15.185268 15961 net.cpp:380] deconv1_2 -> deconv1_2
I1005 16:58:15.185580 15961 net.cpp:122] Setting up deconv1_2
I1005 16:58:15.185587 15961 net.cpp:129] Top shape: 16 32 224 224 (25690112)
I1005 16:58:15.185591 15961 net.cpp:137] Memory required for data: 1468850176
I1005 16:58:15.185596 15961 layer_factory.hpp:77] Creating layer debatchnorm1_2
I1005 16:58:15.185601 15961 net.cpp:84] Creating Layer debatchnorm1_2
I1005 16:58:15.185606 15961 net.cpp:406] debatchnorm1_2 <- deconv1_2
I1005 16:58:15.185611 15961 net.cpp:367] debatchnorm1_2 -> deconv1_2 (in-place)
I1005 16:58:15.185817 15961 net.cpp:122] Setting up debatchnorm1_2
I1005 16:58:15.185823 15961 net.cpp:129] Top shape: 16 32 224 224 (25690112)
I1005 16:58:15.185827 15961 net.cpp:137] Memory required for data: 1571610624
I1005 16:58:15.185834 15961 layer_factory.hpp:77] Creating layer deelu1_2
I1005 16:58:15.185839 15961 net.cpp:84] Creating Layer deelu1_2
I1005 16:58:15.185842 15961 net.cpp:406] deelu1_2 <- deconv1_2
I1005 16:58:15.185847 15961 net.cpp:367] deelu1_2 -> deconv1_2 (in-place)
I1005 16:58:15.185853 15961 net.cpp:122] Setting up deelu1_2
I1005 16:58:15.185858 15961 net.cpp:129] Top shape: 16 32 224 224 (25690112)
I1005 16:58:15.185860 15961 net.cpp:137] Memory required for data: 1674371072
I1005 16:58:15.185864 15961 layer_factory.hpp:77] Creating layer segmentation
I1005 16:58:15.185876 15961 net.cpp:84] Creating Layer segmentation
I1005 16:58:15.185879 15961 net.cpp:406] segmentation <- deconv1_2
I1005 16:58:15.185885 15961 net.cpp:380] segmentation -> segmentation
I1005 16:58:15.187795 15961 net.cpp:122] Setting up segmentation
I1005 16:58:15.187806 15961 net.cpp:129] Top shape: 16 3 224 224 (2408448)
I1005 16:58:15.187809 15961 net.cpp:137] Memory required for data: 1684004864
I1005 16:58:15.187815 15961 layer_factory.hpp:77] Creating layer infogainLoss
I1005 16:58:15.187822 15961 net.cpp:84] Creating Layer infogainLoss
I1005 16:58:15.187826 15961 net.cpp:406] infogainLoss <- segmentation
I1005 16:58:15.187830 15961 net.cpp:406] infogainLoss <- label
I1005 16:58:15.187839 15961 net.cpp:380] infogainLoss -> loss
…
I1005 16:58:15.192662 15961 solver.cpp:172] Creating test net (#0) specified by net file: train_val.prototxt
I1005 16:58:15.192723 15961 net.cpp:294] The NetState phase (1) differed from the phase (0) specified by a rule in layer data
I1005 16:58:15.192993 15961 net.cpp:51] Initializing net from parameters: 
name: "ZNet2"
state {
  phase: TEST
}
layer {
  name: "data"
  type: "HDF5Data"
  top: "data"
  top: "label"
  include {
    phase: TEST
  }
  hdf5_data_param {
    source: "/home/grochette/Documents/SegNet/data/HDF5/Validation/hdf5_list.txt"
    batch_size: 2
  }
}
layer {
  name: "batchnorm0"
  type: "BatchNorm"
  bottom: "data"
  top: "data"
}
layer {
  name: "conv1_1"
  type: "Convolution"
  bottom: "data"
  top: "conv1_1"
  param {
    lr_mult: 1
    decay_mult: 1
  }
  param {
    lr_mult: 2
    decay_mult: 0
  }
  convolution_param {
    num_output: 32
    pad: 1
    kernel_size: 3
    stride: 1
    weight_filler {
      type: "xavier"
    }
    bias_filler {
      type: "constant"
    }
  }
}
layer {
  name: "batchnorm1_1"
  type: "BatchNorm"
  bottom: "conv1_1"
  top: "conv1_1"
}
layer {
  name: "elu1_1"
  type: "ELU"
  bottom: "conv1_1"
  top: "conv1_1"
}
layer {
  name: "conv1_2"
  type: "Convolution"
  bottom: "conv1_1"
  top: "conv1_2"
  param {
    lr_mult: 1
    decay_mult: 1
  }
  param {
    lr_mult: 2
    decay_mult: 0
  }
  convolution_param {
    num_output: 32
    pad: 1
    kernel_size: 3
    stride: 1
    weight_filler {
      type: "xavier"
    }
    bias_filler {
      type: "constant"
    }
  }
}
layer {
  name: "batchnorm1_2"
  type: "BatchNorm"
  bottom: "conv1_2"
  top: "conv1_2"
}
layer {
  name: "elu1_2"
  type: "ELU"
  bottom: "conv1_2"
  top: "conv1_2"
}
layer {
  name: "pool1"
  type: "Pooling"
  bottom: "conv1_2"
  top: "pool1"
  top: "pool1_mask"
  top: "pool1_argmax_count"
  pooling_param {
    pool: MAX
    kernel_size: 4
    stride: 4
  }
}
layer {
  name: "conv2_1"
  type: "Convolution"
  bottom: "pool1"
  top: "conv2_1"
  param {
    lr_mult: 1
    decay_mult: 1
  }
  param {
    lr_mult: 2
    decay_mult: 0
  }
  convolution_param {
    num_output: 64
    pad: 1
    kernel_size: 3
    stride: 1
    weight_filler {
      type: "xavier"
    }
    bias_filler {
      type: "constant"
    }
  }
}
layer {
  name: "batchnorm2_1"
  type: "BatchNorm"
  bottom: "conv2_1"
  top: "conv2_1"
}
layer {
  name: "elu2_1"
  type: "ELU"
  bottom: "conv2_1"
  top: "conv2_1"
}
layer {
  name: "conv2_2"
  type: "Convolution"
  bottom: "conv2_1"
  top: "conv2_2"
  param {
    lr_mult: 1
    decay_mult: 1
  }
  param {
    lr_mult: 2
    decay_mult: 0
  }
  convolution_param {
    num_output: 64
    pad: 1
    kernel_size: 3
    stride: 1
    weight_filler {
      type: "xavier"
    }
    bias_filler {
      type: "constant"
    }
  }
}
layer {
  name: "batchnorm2_2"
  type: "BatchNorm"
  bottom: "conv2_2"
  top: "conv2_2"
}
layer {
  name: "elu2_2"
  type: "ELU"
  bottom: "conv2_2"
  top: "conv2_2"
}
layer {
  name: "pool2"
  type: "Pooling"
  bottom: "conv2_2"
  top: "pool2"
  top: "pool2_mask"
  top: "pool2_argmax_count"
  pooling_param {
    pool: MAX
    kernel_size: 4
    stride: 4
  }
}
layer {
  name: "conv3_1"
  type: "Convolution"
  bottom: "pool2"
  top: "conv3_1"
  param {
    lr_mult: 1
    decay_mult: 1
  }
  param {
    lr_mult: 2
    decay_mult: 0
  }
  convolution_param {
    num_output: 128
    pad: 1
    kernel_size: 3
    stride: 1
    weight_filler {
      type: "xavier"
    }
    bias_filler {
      type: "constant"
    }
  }
}
layer {
  name: "batchnorm3_1"
  type: "BatchNorm"
  bottom: "conv3_1"
  top: "conv3_1"
}
layer {
  name: "elu3_1"
  type: "ELU"
  bottom: "conv3_1"
  top: "conv3_1"
}
layer {
  name: "conv3_2"
  type: "Convolution"
  bottom: "conv3_1"
  top: "conv3_2"
  param {
    lr_mult: 1
    decay_mult: 1
  }
  param {
    lr_mult: 2
    decay_mult: 0
  }
  convolution_param {
    num_output: 128
    pad: 1
    kernel_size: 3
    stride: 1
    weight_filler {
      type: "xavier"
    }
    bias_filler {
      type: "constant"
    }
  }
}
layer {
  name: "batchnorm3_2"
  type: "BatchNorm"
  bottom: "conv3_2"
  top: "conv3_2"
}
layer {
  name: "elu3_2"
  type: "ELU"
  bottom: "conv3_2"
  top: "conv3_2"
}
layer {
  name: "conv3_3"
  type: "Convolution"
  bottom: "conv3_2"
  top: "conv3_3"
  param {
    lr_mult: 1
    decay_mult: 1
  }
  param {
    lr_mult: 2
    decay_mult: 0
  }
  convolution_param {
    num_output: 128
    pad: 1
    kernel_size: 3
    stride: 1
    weight_filler {
      type: "xavier"
    }
    bias_filler {
      type: "constant"
    }
  }
}
layer {
  name: "batchnorm3_3"
  type: "BatchNorm"
  bottom: "conv3_3"
  top: "conv3_3"
}
layer {
  name: "elu3_3"
  type: "ELU"
  bottom: "conv3_3"
  top: "conv3_3"
}
layer {
  name: "pool3"
  type: "Pooling"
  bottom: "conv3_3"
  top: "pool3"
  top: "pool3_mask"
  top: "pool3_argmax_count"
  pooling_param {
    pool: MAX
    kernel_size: 2
    stride: 2
  }
}
layer {
  name: "conv4_1"
  type: "Convolution"
  bottom: "pool3"
  top: "conv4_1"
  param {
    lr_mult: 1
    decay_mult: 1
  }
  param {
    lr_mult: 2
    decay_mult: 0
  }
  convolution_param {
    num_output: 256
    pad: 0
    kernel_size: 7
    stride: 1
    weight_filler {
      type: "xavier"
    }
    bias_filler {
      type: "constant"
    }
  }
}
layer {
  name: "batchnorm4_1"
  type: "BatchNorm"
  bottom: "conv4_1"
  top: "conv4_1"
}
layer {
  name: "elu4_1"
  type: "ELU"
  bottom: "conv4_1"
  top: "conv4_1"
}
layer {
  name: "conv4_2"
  type: "Convolution"
  bottom: "conv4_1"
  top: "conv4_2"
  param {
    lr_mult: 1
    decay_mult: 1
  }
  param {
    lr_mult: 2
    decay_mult: 0
  }
  convolution_param {
    num_output: 256
    pad: 0
    kernel_size: 1
    stride: 1
    weight_filler {
      type: "xavier"
    }
    bias_filler {
      type: "constant"
    }
  }
}
layer {
  name: "batchnorm4_2"
  type: "BatchNorm"
  bottom: "conv4_2"
  top: "conv4_2"
}
layer {
  name: "elu4_2"
  type: "ELU"
  bottom: "conv4_2"
  top: "conv4_2"
}
layer {
  name: "deconv4_3"
  type: "Deconvolution"
  bottom: "conv4_2"
  top: "deconv4_3"
  param {
    lr_mult: 1
    decay_mult: 1
  }
  param {
    lr_mult: 2
    decay_mult: 0
  }
  convolution_param {
    num_output: 128
    pad: 0
    kernel_size: 7
    stride: 1
    weight_filler {
      type: "xavier"
    }
    bias_filler {
      type: "constant"
    }
  }
}
layer {
  name: "debatchnorm4_3"
  type: "BatchNorm"
  bottom: "deconv4_3"
  top: "deconv4_3"
}
layer {
  name: "deelu4_3"
  type: "ELU"
  bottom: "deconv4_3"
  top: "deconv4_3"
}
layer {
  name: "unpool3"
  type: "Unpooling"
  bottom: "deconv4_3"
  bottom: "pool3_mask"
  bottom: "pool3_argmax_count"
  top: "unpool3"
  pooling_param {
    pool: MAX
    kernel_size: 2
    stride: 2
  }
}
layer {
  name: "deconv3_1"
  type: "Deconvolution"
  bottom: "unpool3"
  top: "deconv3_1"
  param {
    lr_mult: 1
    decay_mult: 1
  }
  param {
    lr_mult: 2
    decay_mult: 0
  }
  convolution_param {
    num_output: 128
    pad: 1
    kernel_size: 3
    stride: 1
    weight_filler {
      type: "xavier"
    }
    bias_filler {
      type: "constant"
    }
  }
}
layer {
  name: "debatchnorm3_1"
  type: "BatchNorm"
  bottom: "deconv3_1"
  top: "deconv3_1"
}
layer {
  name: "deelu3_1"
  type: "ELU"
  bottom: "deconv3_1"
  top: "deconv3_1"
}
layer {
  name: "deconv3_2"
  type: "Deconvolution"
  bottom: "deconv3_1"
  top: "deconv3_2"
  param {
    lr_mult: 1
    decay_mult: 1
  }
  param {
    lr_mult: 2
    decay_mult: 0
  }
  convolution_param {
    num_output: 128
    pad: 1
    kernel_size: 3
    stride: 1
    weight_filler {
      type: "xavier"
    }
    bias_filler {
      type: "constant"
    }
  }
}
layer {
  name: "debatchnorm3_2"
  type: "BatchNorm"
  bottom: "deconv3_2"
  top: "deconv3_2"
}
layer {
  name: "deelu3_2"
  type: "ELU"
  bottom: "deconv3_2"
  top: "deconv3_2"
}
layer {
  name: "deconv3_3"
  type: "Deconvolution"
  bottom: "deconv3_2"
  top: "deconv3_3"
  param {
    lr_mult: 1
    decay_mult: 1
  }
  param {
    lr_mult: 2
    decay_mult: 0
  }
  convolution_param {
    num_output: 64
    pad: 1
    kernel_size: 3
    stride: 1
    weight_filler {
      type: "xavier"
    }
    bias_filler {
      type: "constant"
    }
  }
}
layer {
  name: "debatchnorm3_3"
  type: "BatchNorm"
  bottom: "deconv3_3"
  top: "deconv3_3"
}
layer {
  name: "deelu3_3"
  type: "ELU"
  bottom: "deconv3_3"
  top: "deconv3_3"
}
layer {
  name: "unpool2"
  type: "Unpooling"
  bottom: "deconv3_3"
  bottom: "pool2_mask"
  bottom: "pool2_argmax_count"
  top: "unpool2"
  pooling_param {
    pool: MAX
    kernel_size: 4
    stride: 4
  }
}
layer {
  name: "deconv2_1"
  type: "Deconvolution"
  bottom: "unpool2"
  top: "deconv2_1"
  param {
    lr_mult: 1
    decay_mult: 1
  }
  param {
    lr_mult: 2
    decay_mult: 0
  }
  convolution_param {
    num_output: 64
    pad: 1
    kernel_size: 3
    stride: 1
    weight_filler {
      type: "xavier"
    }
    bias_filler {
      type: "constant"
    }
  }
}
layer {
  name: "debatchnorm2_1"
  type: "BatchNorm"
  bottom: "deconv2_1"
  top: "deconv2_1"
}
layer {
  name: "deelu2_1"
  type: "ELU"
  bottom: "deconv2_1"
  top: "deconv2_1"
}
layer {
  name: "deconv2_2"
  type: "Deconvolution"
  bottom: "deconv2_1"
  top: "deconv2_2"
  param {
    lr_mult: 1
    decay_mult: 1
  }
  param {
    lr_mult: 2
    decay_mult: 0
  }
  convolution_param {
    num_output: 32
    pad: 1
    kernel_size: 3
    stride: 1
    weight_filler {
      type: "xavier"
    }
    bias_filler {
      type: "constant"
    }
  }
}
layer {
  name: "debatchnorm2_2"
  type: "BatchNorm"
  bottom: "deconv2_2"
  top: "deconv2_2"
}
layer {
  name: "deelu2_2"
  type: "ELU"
  bottom: "deconv2_2"
  top: "deconv2_2"
}
layer {
  name: "unpool1"
  type: "Unpooling"
  bottom: "deconv2_2"
  bottom: "pool1_mask"
  bottom: "pool1_argmax_count"
  top: "unpool1"
  pooling_param {
    pool: MAX
    kernel_size: 4
    stride: 4
  }
}
layer {
  name: "deconv1_1"
  type: "Deconvolution"
  bottom: "unpool1"
  top: "deconv1_1"
  param {
    lr_mult: 1
    decay_mult: 1
  }
  param {
    lr_mult: 2
    decay_mult: 0
  }
  convolution_param {
    num_output: 32
    pad: 1
    kernel_size: 3
    stride: 1
    weight_filler {
      type: "xavier"
    }
    bias_filler {
      type: "constant"
    }
  }
}
layer {
  name: "debatchnorm1_1"
  type: "BatchNorm"
  bottom: "deconv1_1"
  top: "deconv1_1"
}
layer {
  name: "deelu1_1"
  type: "ELU"
  bottom: "deconv1_1"
  top: "deconv1_1"
}
layer {
  name: "deconv1_2"
  type: "Deconvolution"
  bottom: "deconv1_1"
  top: "deconv1_2"
  param {
    lr_mult: 1
    decay_mult: 1
  }
  param {
    lr_mult: 2
    decay_mult: 0
  }
  convolution_param {
    num_output: 32
    pad: 1
    kernel_size: 3
    stride: 1
    weight_filler {
      type: "xavier"
    }
    bias_filler {
      type: "constant"
    }
  }
}
layer {
  name: "debatchnorm1_2"
  type: "BatchNorm"
  bottom: "deconv1_2"
  top: "deconv1_2"
}
layer {
  name: "deelu1_2"
  type: "ELU"
  bottom: "deconv1_2"
  top: "deconv1_2"
}
layer {
  name: "segmentation"
  type: "Convolution"
  bottom: "deconv1_2"
  top: "segmentation"
  param {
    lr_mult: 1
    decay_mult: 1
  }
  param {
    lr_mult: 2
    decay_mult: 0
  }
  convolution_param {
    num_output: 3
    pad: 0
    kernel_size: 1
    weight_filler {
      type: "xavier"
    }
    bias_filler {
      type: "constant"
    }
  }
}
layer {
  name: "infogainLoss"
  type: "InfogainLoss"
  bottom: "segmentation"
  bottom: "label"
  top: "loss"
  loss_param {
    ignore_label: 3
  }
  infogain_loss_param {
    source: "/home/grochette/Documents/SegNet/data/OnlyVegas/infogainH.binaryproto"
  }
}
layer {
  name: "accuracy"
  type: "Accuracy"
  bottom: "segmentation"
  bottom: "label"
  top: "accuracy"
  top: "per_class_accuracy"
  include {
    phase: TEST
  }
  accuracy_param {
    ignore_label: 3
  }
}
I1005 16:58:15.193446 15961 layer_factory.hpp:77] Creating layer data
I1005 16:58:15.193457 15961 net.cpp:84] Creating Layer data
I1005 16:58:15.193461 15961 net.cpp:380] data -> data
I1005 16:58:15.193469 15961 net.cpp:380] data -> label
I1005 16:58:15.193473 15961 hdf5_data_layer.cpp:80] Loading list of HDF5 filenames from: /home/grochette/Documents/SegNet/data/HDF5/Validation/hdf5_list.txt
I1005 16:58:15.193495 15961 hdf5_data_layer.cpp:94] Number of HDF5 files: 2
I1005 16:58:16.108376 15961 net.cpp:122] Setting up data
I1005 16:58:16.108402 15961 net.cpp:129] Top shape: 2 4 224 224 (401408)
I1005 16:58:16.108407 15961 net.cpp:129] Top shape: 2 1 224 224 (100352)
I1005 16:58:16.108412 15961 net.cpp:137] Memory required for data: 2007040
I1005 16:58:16.108417 15961 layer_factory.hpp:77] Creating layer label_data_1_split
I1005 16:58:16.108427 15961 net.cpp:84] Creating Layer label_data_1_split
I1005 16:58:16.108430 15961 net.cpp:406] label_data_1_split <- label
I1005 16:58:16.108438 15961 net.cpp:380] label_data_1_split -> label_data_1_split_0
I1005 16:58:16.108448 15961 net.cpp:380] label_data_1_split -> label_data_1_split_1
I1005 16:58:16.108492 15961 net.cpp:122] Setting up label_data_1_split
I1005 16:58:16.108499 15961 net.cpp:129] Top shape: 2 1 224 224 (100352)
I1005 16:58:16.108502 15961 net.cpp:129] Top shape: 2 1 224 224 (100352)
I1005 16:58:16.108505 15961 net.cpp:137] Memory required for data: 2809856
I1005 16:58:16.108508 15961 layer_factory.hpp:77] Creating layer batchnorm0
I1005 16:58:16.108515 15961 net.cpp:84] Creating Layer batchnorm0
I1005 16:58:16.108518 15961 net.cpp:406] batchnorm0 <- data
I1005 16:58:16.108522 15961 net.cpp:367] batchnorm0 -> data (in-place)
I1005 16:58:16.108749 15961 net.cpp:122] Setting up batchnorm0
I1005 16:58:16.108757 15961 net.cpp:129] Top shape: 2 4 224 224 (401408)
I1005 16:58:16.108760 15961 net.cpp:137] Memory required for data: 4415488
I1005 16:58:16.108772 15961 layer_factory.hpp:77] Creating layer conv1_1
I1005 16:58:16.108780 15961 net.cpp:84] Creating Layer conv1_1
I1005 16:58:16.108783 15961 net.cpp:406] conv1_1 <- data
I1005 16:58:16.108788 15961 net.cpp:380] conv1_1 -> conv1_1
I1005 16:58:16.111510 15961 net.cpp:122] Setting up conv1_1
I1005 16:58:16.111521 15961 net.cpp:129] Top shape: 2 32 224 224 (3211264)
I1005 16:58:16.111524 15961 net.cpp:137] Memory required for data: 17260544
I1005 16:58:16.111533 15961 layer_factory.hpp:77] Creating layer batchnorm1_1
I1005 16:58:16.111541 15961 net.cpp:84] Creating Layer batchnorm1_1
I1005 16:58:16.111543 15961 net.cpp:406] batchnorm1_1 <- conv1_1
I1005 16:58:16.111547 15961 net.cpp:367] batchnorm1_1 -> conv1_1 (in-place)
I1005 16:58:16.111773 15961 net.cpp:122] Setting up batchnorm1_1
I1005 16:58:16.111779 15961 net.cpp:129] Top shape: 2 32 224 224 (3211264)
I1005 16:58:16.111781 15961 net.cpp:137] Memory required for data: 30105600
I1005 16:58:16.111788 15961 layer_factory.hpp:77] Creating layer elu1_1
I1005 16:58:16.111793 15961 net.cpp:84] Creating Layer elu1_1
I1005 16:58:16.111796 15961 net.cpp:406] elu1_1 <- conv1_1
I1005 16:58:16.111799 15961 net.cpp:367] elu1_1 -> conv1_1 (in-place)
I1005 16:58:16.111804 15961 net.cpp:122] Setting up elu1_1
I1005 16:58:16.111809 15961 net.cpp:129] Top shape: 2 32 224 224 (3211264)
I1005 16:58:16.111811 15961 net.cpp:137] Memory required for data: 42950656
I1005 16:58:16.111816 15961 layer_factory.hpp:77] Creating layer conv1_2
I1005 16:58:16.111824 15961 net.cpp:84] Creating Layer conv1_2
I1005 16:58:16.111829 15961 net.cpp:406] conv1_2 <- conv1_1
I1005 16:58:16.111834 15961 net.cpp:380] conv1_2 -> conv1_2
I1005 16:58:16.113704 15961 net.cpp:122] Setting up conv1_2
I1005 16:58:16.113715 15961 net.cpp:129] Top shape: 2 32 224 224 (3211264)
I1005 16:58:16.113719 15961 net.cpp:137] Memory required for data: 55795712
I1005 16:58:16.113729 15961 layer_factory.hpp:77] Creating layer batchnorm1_2
I1005 16:58:16.113734 15961 net.cpp:84] Creating Layer batchnorm1_2
I1005 16:58:16.113736 15961 net.cpp:406] batchnorm1_2 <- conv1_2
I1005 16:58:16.113742 15961 net.cpp:367] batchnorm1_2 -> conv1_2 (in-place)
I1005 16:58:16.113965 15961 net.cpp:122] Setting up batchnorm1_2
I1005 16:58:16.113971 15961 net.cpp:129] Top shape: 2 32 224 224 (3211264)
I1005 16:58:16.113975 15961 net.cpp:137] Memory required for data: 68640768
I1005 16:58:16.113981 15961 layer_factory.hpp:77] Creating layer elu1_2
I1005 16:58:16.113986 15961 net.cpp:84] Creating Layer elu1_2
I1005 16:58:16.113989 15961 net.cpp:406] elu1_2 <- conv1_2
I1005 16:58:16.113993 15961 net.cpp:367] elu1_2 -> conv1_2 (in-place)
I1005 16:58:16.114018 15961 net.cpp:122] Setting up elu1_2
I1005 16:58:16.114023 15961 net.cpp:129] Top shape: 2 32 224 224 (3211264)
I1005 16:58:16.114025 15961 net.cpp:137] Memory required for data: 81485824
I1005 16:58:16.114028 15961 layer_factory.hpp:77] Creating layer pool1
I1005 16:58:16.114032 15961 layer_factory.cpp:91] cuDNN does not support multiple tops. Using Caffe's own pooling layer.
I1005 16:58:16.114037 15961 net.cpp:84] Creating Layer pool1
I1005 16:58:16.114039 15961 net.cpp:406] pool1 <- conv1_2
I1005 16:58:16.114043 15961 net.cpp:380] pool1 -> pool1
I1005 16:58:16.114049 15961 net.cpp:380] pool1 -> pool1_mask
I1005 16:58:16.114054 15961 net.cpp:380] pool1 -> pool1_argmax_count
I1005 16:58:16.114114 15961 net.cpp:122] Setting up pool1
I1005 16:58:16.114121 15961 net.cpp:129] Top shape: 2 32 56 56 (200704)
I1005 16:58:16.114125 15961 net.cpp:129] Top shape: 2 32 56 56 (200704)
I1005 16:58:16.114130 15961 net.cpp:129] Top shape: 2 32 224 224 (3211264)
I1005 16:58:16.114132 15961 net.cpp:137] Memory required for data: 95936512
I1005 16:58:16.114135 15961 layer_factory.hpp:77] Creating layer conv2_1
I1005 16:58:16.114142 15961 net.cpp:84] Creating Layer conv2_1
I1005 16:58:16.114145 15961 net.cpp:406] conv2_1 <- pool1
I1005 16:58:16.114151 15961 net.cpp:380] conv2_1 -> conv2_1
I1005 16:58:16.115830 15961 net.cpp:122] Setting up conv2_1
I1005 16:58:16.115842 15961 net.cpp:129] Top shape: 2 64 56 56 (401408)
I1005 16:58:16.115846 15961 net.cpp:137] Memory required for data: 97542144
I1005 16:58:16.115851 15961 layer_factory.hpp:77] Creating layer batchnorm2_1
I1005 16:58:16.115857 15961 net.cpp:84] Creating Layer batchnorm2_1
I1005 16:58:16.115860 15961 net.cpp:406] batchnorm2_1 <- conv2_1
I1005 16:58:16.115866 15961 net.cpp:367] batchnorm2_1 -> conv2_1 (in-place)
I1005 16:58:16.116087 15961 net.cpp:122] Setting up batchnorm2_1
I1005 16:58:16.116093 15961 net.cpp:129] Top shape: 2 64 56 56 (401408)
I1005 16:58:16.116097 15961 net.cpp:137] Memory required for data: 99147776
I1005 16:58:16.116107 15961 layer_factory.hpp:77] Creating layer elu2_1
I1005 16:58:16.116111 15961 net.cpp:84] Creating Layer elu2_1
I1005 16:58:16.116114 15961 net.cpp:406] elu2_1 <- conv2_1
I1005 16:58:16.116119 15961 net.cpp:367] elu2_1 -> conv2_1 (in-place)
I1005 16:58:16.116123 15961 net.cpp:122] Setting up elu2_1
I1005 16:58:16.116127 15961 net.cpp:129] Top shape: 2 64 56 56 (401408)
I1005 16:58:16.116132 15961 net.cpp:137] Memory required for data: 100753408
I1005 16:58:16.116135 15961 layer_factory.hpp:77] Creating layer conv2_2
I1005 16:58:16.116143 15961 net.cpp:84] Creating Layer conv2_2
I1005 16:58:16.116147 15961 net.cpp:406] conv2_2 <- conv2_1
I1005 16:58:16.116153 15961 net.cpp:380] conv2_2 -> conv2_2
I1005 16:58:16.118216 15961 net.cpp:122] Setting up conv2_2
I1005 16:58:16.118227 15961 net.cpp:129] Top shape: 2 64 56 56 (401408)
I1005 16:58:16.118229 15961 net.cpp:137] Memory required for data: 102359040
I1005 16:58:16.118235 15961 layer_factory.hpp:77] Creating layer batchnorm2_2
I1005 16:58:16.118242 15961 net.cpp:84] Creating Layer batchnorm2_2
I1005 16:58:16.118247 15961 net.cpp:406] batchnorm2_2 <- conv2_2
I1005 16:58:16.118250 15961 net.cpp:367] batchnorm2_2 -> conv2_2 (in-place)
I1005 16:58:16.118477 15961 net.cpp:122] Setting up batchnorm2_2
I1005 16:58:16.118485 15961 net.cpp:129] Top shape: 2 64 56 56 (401408)
I1005 16:58:16.118487 15961 net.cpp:137] Memory required for data: 103964672
I1005 16:58:16.118494 15961 layer_factory.hpp:77] Creating layer elu2_2
I1005 16:58:16.118497 15961 net.cpp:84] Creating Layer elu2_2
I1005 16:58:16.118500 15961 net.cpp:406] elu2_2 <- conv2_2
I1005 16:58:16.118505 15961 net.cpp:367] elu2_2 -> conv2_2 (in-place)
I1005 16:58:16.118508 15961 net.cpp:122] Setting up elu2_2
I1005 16:58:16.118512 15961 net.cpp:129] Top shape: 2 64 56 56 (401408)
I1005 16:58:16.118516 15961 net.cpp:137] Memory required for data: 105570304
I1005 16:58:16.118520 15961 layer_factory.hpp:77] Creating layer pool2
I1005 16:58:16.118525 15961 layer_factory.cpp:91] cuDNN does not support multiple tops. Using Caffe's own pooling layer.
I1005 16:58:16.118543 15961 net.cpp:84] Creating Layer pool2
I1005 16:58:16.118547 15961 net.cpp:406] pool2 <- conv2_2
I1005 16:58:16.118551 15961 net.cpp:380] pool2 -> pool2
I1005 16:58:16.118557 15961 net.cpp:380] pool2 -> pool2_mask
I1005 16:58:16.118563 15961 net.cpp:380] pool2 -> pool2_argmax_count
I1005 16:58:16.118620 15961 net.cpp:122] Setting up pool2
I1005 16:58:16.118626 15961 net.cpp:129] Top shape: 2 64 14 14 (25088)
I1005 16:58:16.118630 15961 net.cpp:129] Top shape: 2 64 14 14 (25088)
I1005 16:58:16.118633 15961 net.cpp:129] Top shape: 2 64 56 56 (401408)
I1005 16:58:16.118636 15961 net.cpp:137] Memory required for data: 107376640
I1005 16:58:16.118639 15961 layer_factory.hpp:77] Creating layer conv3_1
I1005 16:58:16.118646 15961 net.cpp:84] Creating Layer conv3_1
I1005 16:58:16.118649 15961 net.cpp:406] conv3_1 <- pool2
I1005 16:58:16.118656 15961 net.cpp:380] conv3_1 -> conv3_1
I1005 16:58:16.120998 15961 net.cpp:122] Setting up conv3_1
I1005 16:58:16.121013 15961 net.cpp:129] Top shape: 2 128 14 14 (50176)
I1005 16:58:16.121016 15961 net.cpp:137] Memory required for data: 107577344
I1005 16:58:16.121023 15961 layer_factory.hpp:77] Creating layer batchnorm3_1
I1005 16:58:16.121031 15961 net.cpp:84] Creating Layer batchnorm3_1
I1005 16:58:16.121033 15961 net.cpp:406] batchnorm3_1 <- conv3_1
I1005 16:58:16.121040 15961 net.cpp:367] batchnorm3_1 -> conv3_1 (in-place)
I1005 16:58:16.121265 15961 net.cpp:122] Setting up batchnorm3_1
I1005 16:58:16.121273 15961 net.cpp:129] Top shape: 2 128 14 14 (50176)
I1005 16:58:16.121275 15961 net.cpp:137] Memory required for data: 107778048
I1005 16:58:16.121281 15961 layer_factory.hpp:77] Creating layer elu3_1
I1005 16:58:16.121285 15961 net.cpp:84] Creating Layer elu3_1
I1005 16:58:16.121289 15961 net.cpp:406] elu3_1 <- conv3_1
I1005 16:58:16.121292 15961 net.cpp:367] elu3_1 -> conv3_1 (in-place)
I1005 16:58:16.121297 15961 net.cpp:122] Setting up elu3_1
I1005 16:58:16.121301 15961 net.cpp:129] Top shape: 2 128 14 14 (50176)
I1005 16:58:16.121305 15961 net.cpp:137] Memory required for data: 107978752
I1005 16:58:16.121309 15961 layer_factory.hpp:77] Creating layer conv3_2
I1005 16:58:16.121318 15961 net.cpp:84] Creating Layer conv3_2
I1005 16:58:16.121322 15961 net.cpp:406] conv3_2 <- conv3_1
I1005 16:58:16.121327 15961 net.cpp:380] conv3_2 -> conv3_2
I1005 16:58:16.124446 15961 net.cpp:122] Setting up conv3_2
I1005 16:58:16.124459 15961 net.cpp:129] Top shape: 2 128 14 14 (50176)
I1005 16:58:16.124464 15961 net.cpp:137] Memory required for data: 108179456
I1005 16:58:16.124476 15961 layer_factory.hpp:77] Creating layer batchnorm3_2
I1005 16:58:16.124482 15961 net.cpp:84] Creating Layer batchnorm3_2
I1005 16:58:16.124487 15961 net.cpp:406] batchnorm3_2 <- conv3_2
I1005 16:58:16.124495 15961 net.cpp:367] batchnorm3_2 -> conv3_2 (in-place)
I1005 16:58:16.124717 15961 net.cpp:122] Setting up batchnorm3_2
I1005 16:58:16.124723 15961 net.cpp:129] Top shape: 2 128 14 14 (50176)
I1005 16:58:16.124727 15961 net.cpp:137] Memory required for data: 108380160
I1005 16:58:16.124737 15961 layer_factory.hpp:77] Creating layer elu3_2
I1005 16:58:16.124742 15961 net.cpp:84] Creating Layer elu3_2
I1005 16:58:16.124745 15961 net.cpp:406] elu3_2 <- conv3_2
I1005 16:58:16.124749 15961 net.cpp:367] elu3_2 -> conv3_2 (in-place)
I1005 16:58:16.124754 15961 net.cpp:122] Setting up elu3_2
I1005 16:58:16.124759 15961 net.cpp:129] Top shape: 2 128 14 14 (50176)
I1005 16:58:16.124763 15961 net.cpp:137] Memory required for data: 108580864
I1005 16:58:16.124764 15961 layer_factory.hpp:77] Creating layer conv3_3
I1005 16:58:16.124774 15961 net.cpp:84] Creating Layer conv3_3
I1005 16:58:16.124778 15961 net.cpp:406] conv3_3 <- conv3_2
I1005 16:58:16.124783 15961 net.cpp:380] conv3_3 -> conv3_3
I1005 16:58:16.127894 15961 net.cpp:122] Setting up conv3_3
I1005 16:58:16.127907 15961 net.cpp:129] Top shape: 2 128 14 14 (50176)
I1005 16:58:16.127912 15961 net.cpp:137] Memory required for data: 108781568
I1005 16:58:16.127918 15961 layer_factory.hpp:77] Creating layer batchnorm3_3
I1005 16:58:16.127940 15961 net.cpp:84] Creating Layer batchnorm3_3
I1005 16:58:16.127945 15961 net.cpp:406] batchnorm3_3 <- conv3_3
I1005 16:58:16.127949 15961 net.cpp:367] batchnorm3_3 -> conv3_3 (in-place)
I1005 16:58:16.128172 15961 net.cpp:122] Setting up batchnorm3_3
I1005 16:58:16.128180 15961 net.cpp:129] Top shape: 2 128 14 14 (50176)
I1005 16:58:16.128183 15961 net.cpp:137] Memory required for data: 108982272
I1005 16:58:16.128190 15961 layer_factory.hpp:77] Creating layer elu3_3
I1005 16:58:16.128196 15961 net.cpp:84] Creating Layer elu3_3
I1005 16:58:16.128199 15961 net.cpp:406] elu3_3 <- conv3_3
I1005 16:58:16.128204 15961 net.cpp:367] elu3_3 -> conv3_3 (in-place)
I1005 16:58:16.128211 15961 net.cpp:122] Setting up elu3_3
I1005 16:58:16.128214 15961 net.cpp:129] Top shape: 2 128 14 14 (50176)
I1005 16:58:16.128218 15961 net.cpp:137] Memory required for data: 109182976
I1005 16:58:16.128222 15961 layer_factory.hpp:77] Creating layer pool3
I1005 16:58:16.128226 15961 layer_factory.cpp:91] cuDNN does not support multiple tops. Using Caffe's own pooling layer.
I1005 16:58:16.128232 15961 net.cpp:84] Creating Layer pool3
I1005 16:58:16.128235 15961 net.cpp:406] pool3 <- conv3_3
I1005 16:58:16.128240 15961 net.cpp:380] pool3 -> pool3
I1005 16:58:16.128247 15961 net.cpp:380] pool3 -> pool3_mask
I1005 16:58:16.128252 15961 net.cpp:380] pool3 -> pool3_argmax_count
I1005 16:58:16.128312 15961 net.cpp:122] Setting up pool3
I1005 16:58:16.128319 15961 net.cpp:129] Top shape: 2 128 7 7 (12544)
I1005 16:58:16.128322 15961 net.cpp:129] Top shape: 2 128 7 7 (12544)
I1005 16:58:16.128325 15961 net.cpp:129] Top shape: 2 128 14 14 (50176)
I1005 16:58:16.128329 15961 net.cpp:137] Memory required for data: 109484032
I1005 16:58:16.128331 15961 layer_factory.hpp:77] Creating layer conv4_1
I1005 16:58:16.128340 15961 net.cpp:84] Creating Layer conv4_1
I1005 16:58:16.128342 15961 net.cpp:406] conv4_1 <- pool3
I1005 16:58:16.128348 15961 net.cpp:380] conv4_1 -> conv4_1
I1005 16:58:16.140460 15961 net.cpp:122] Setting up conv4_1
I1005 16:58:16.140481 15961 net.cpp:129] Top shape: 2 256 1 1 (512)
I1005 16:58:16.140485 15961 net.cpp:137] Memory required for data: 109486080
I1005 16:58:16.140493 15961 layer_factory.hpp:77] Creating layer batchnorm4_1
I1005 16:58:16.140503 15961 net.cpp:84] Creating Layer batchnorm4_1
I1005 16:58:16.140507 15961 net.cpp:406] batchnorm4_1 <- conv4_1
I1005 16:58:16.140513 15961 net.cpp:367] batchnorm4_1 -> conv4_1 (in-place)
I1005 16:58:16.140733 15961 net.cpp:122] Setting up batchnorm4_1
I1005 16:58:16.140738 15961 net.cpp:129] Top shape: 2 256 1 1 (512)
I1005 16:58:16.140741 15961 net.cpp:137] Memory required for data: 109488128
I1005 16:58:16.140748 15961 layer_factory.hpp:77] Creating layer elu4_1
I1005 16:58:16.140751 15961 net.cpp:84] Creating Layer elu4_1
I1005 16:58:16.140754 15961 net.cpp:406] elu4_1 <- conv4_1
I1005 16:58:16.140760 15961 net.cpp:367] elu4_1 -> conv4_1 (in-place)
I1005 16:58:16.140764 15961 net.cpp:122] Setting up elu4_1
I1005 16:58:16.140769 15961 net.cpp:129] Top shape: 2 256 1 1 (512)
I1005 16:58:16.140774 15961 net.cpp:137] Memory required for data: 109490176
I1005 16:58:16.140776 15961 layer_factory.hpp:77] Creating layer conv4_2
I1005 16:58:16.140785 15961 net.cpp:84] Creating Layer conv4_2
I1005 16:58:16.140789 15961 net.cpp:406] conv4_2 <- conv4_1
I1005 16:58:16.140794 15961 net.cpp:380] conv4_2 -> conv4_2
I1005 16:58:16.143157 15961 net.cpp:122] Setting up conv4_2
I1005 16:58:16.143168 15961 net.cpp:129] Top shape: 2 256 1 1 (512)
I1005 16:58:16.143172 15961 net.cpp:137] Memory required for data: 109492224
I1005 16:58:16.143179 15961 layer_factory.hpp:77] Creating layer batchnorm4_2
I1005 16:58:16.143187 15961 net.cpp:84] Creating Layer batchnorm4_2
I1005 16:58:16.143191 15961 net.cpp:406] batchnorm4_2 <- conv4_2
I1005 16:58:16.143196 15961 net.cpp:367] batchnorm4_2 -> conv4_2 (in-place)
I1005 16:58:16.143419 15961 net.cpp:122] Setting up batchnorm4_2
I1005 16:58:16.143424 15961 net.cpp:129] Top shape: 2 256 1 1 (512)
I1005 16:58:16.143429 15961 net.cpp:137] Memory required for data: 109494272
I1005 16:58:16.143452 15961 layer_factory.hpp:77] Creating layer elu4_2
I1005 16:58:16.143462 15961 net.cpp:84] Creating Layer elu4_2
I1005 16:58:16.143466 15961 net.cpp:406] elu4_2 <- conv4_2
I1005 16:58:16.143471 15961 net.cpp:367] elu4_2 -> conv4_2 (in-place)
I1005 16:58:16.143477 15961 net.cpp:122] Setting up elu4_2
I1005 16:58:16.143482 15961 net.cpp:129] Top shape: 2 256 1 1 (512)
I1005 16:58:16.143486 15961 net.cpp:137] Memory required for data: 109496320
I1005 16:58:16.143489 15961 layer_factory.hpp:77] Creating layer deconv4_3
I1005 16:58:16.143496 15961 net.cpp:84] Creating Layer deconv4_3
I1005 16:58:16.143501 15961 net.cpp:406] deconv4_3 <- conv4_2
I1005 16:58:16.143507 15961 net.cpp:380] deconv4_3 -> deconv4_3
I1005 16:58:16.153801 15961 net.cpp:122] Setting up deconv4_3
I1005 16:58:16.153821 15961 net.cpp:129] Top shape: 2 128 7 7 (12544)
I1005 16:58:16.153826 15961 net.cpp:137] Memory required for data: 109546496
I1005 16:58:16.153834 15961 layer_factory.hpp:77] Creating layer debatchnorm4_3
I1005 16:58:16.153842 15961 net.cpp:84] Creating Layer debatchnorm4_3
I1005 16:58:16.153847 15961 net.cpp:406] debatchnorm4_3 <- deconv4_3
I1005 16:58:16.153853 15961 net.cpp:367] debatchnorm4_3 -> deconv4_3 (in-place)
I1005 16:58:16.154074 15961 net.cpp:122] Setting up debatchnorm4_3
I1005 16:58:16.154081 15961 net.cpp:129] Top shape: 2 128 7 7 (12544)
I1005 16:58:16.154084 15961 net.cpp:137] Memory required for data: 109596672
I1005 16:58:16.154093 15961 layer_factory.hpp:77] Creating layer deelu4_3
I1005 16:58:16.154098 15961 net.cpp:84] Creating Layer deelu4_3
I1005 16:58:16.154100 15961 net.cpp:406] deelu4_3 <- deconv4_3
I1005 16:58:16.154106 15961 net.cpp:367] deelu4_3 -> deconv4_3 (in-place)
I1005 16:58:16.154112 15961 net.cpp:122] Setting up deelu4_3
I1005 16:58:16.154117 15961 net.cpp:129] Top shape: 2 128 7 7 (12544)
I1005 16:58:16.154120 15961 net.cpp:137] Memory required for data: 109646848
I1005 16:58:16.154124 15961 layer_factory.hpp:77] Creating layer unpool3
I1005 16:58:16.154131 15961 net.cpp:84] Creating Layer unpool3
I1005 16:58:16.154135 15961 net.cpp:406] unpool3 <- deconv4_3
I1005 16:58:16.154139 15961 net.cpp:406] unpool3 <- pool3_mask
I1005 16:58:16.154145 15961 net.cpp:406] unpool3 <- pool3_argmax_count
I1005 16:58:16.154150 15961 net.cpp:380] unpool3 -> unpool3
I1005 16:58:16.154178 15961 net.cpp:122] Setting up unpool3
I1005 16:58:16.154184 15961 net.cpp:129] Top shape: 2 128 14 14 (50176)
I1005 16:58:16.154188 15961 net.cpp:137] Memory required for data: 109847552
I1005 16:58:16.154192 15961 layer_factory.hpp:77] Creating layer deconv3_1
I1005 16:58:16.154201 15961 net.cpp:84] Creating Layer deconv3_1
I1005 16:58:16.154204 15961 net.cpp:406] deconv3_1 <- unpool3
I1005 16:58:16.154211 15961 net.cpp:380] deconv3_1 -> deconv3_1
I1005 16:58:16.155725 15961 net.cpp:122] Setting up deconv3_1
I1005 16:58:16.155735 15961 net.cpp:129] Top shape: 2 128 14 14 (50176)
I1005 16:58:16.155737 15961 net.cpp:137] Memory required for data: 110048256
I1005 16:58:16.155742 15961 layer_factory.hpp:77] Creating layer debatchnorm3_1
I1005 16:58:16.155750 15961 net.cpp:84] Creating Layer debatchnorm3_1
I1005 16:58:16.155752 15961 net.cpp:406] debatchnorm3_1 <- deconv3_1
I1005 16:58:16.155757 15961 net.cpp:367] debatchnorm3_1 -> deconv3_1 (in-place)
I1005 16:58:16.155975 15961 net.cpp:122] Setting up debatchnorm3_1
I1005 16:58:16.155982 15961 net.cpp:129] Top shape: 2 128 14 14 (50176)
I1005 16:58:16.155985 15961 net.cpp:137] Memory required for data: 110248960
I1005 16:58:16.155992 15961 layer_factory.hpp:77] Creating layer deelu3_1
I1005 16:58:16.155997 15961 net.cpp:84] Creating Layer deelu3_1
I1005 16:58:16.156000 15961 net.cpp:406] deelu3_1 <- deconv3_1
I1005 16:58:16.156004 15961 net.cpp:367] deelu3_1 -> deconv3_1 (in-place)
I1005 16:58:16.156008 15961 net.cpp:122] Setting up deelu3_1
I1005 16:58:16.156013 15961 net.cpp:129] Top shape: 2 128 14 14 (50176)
I1005 16:58:16.156016 15961 net.cpp:137] Memory required for data: 110449664
I1005 16:58:16.156020 15961 layer_factory.hpp:77] Creating layer deconv3_2
I1005 16:58:16.156044 15961 net.cpp:84] Creating Layer deconv3_2
I1005 16:58:16.156049 15961 net.cpp:406] deconv3_2 <- deconv3_1
I1005 16:58:16.156056 15961 net.cpp:380] deconv3_2 -> deconv3_2
I1005 16:58:16.157523 15961 net.cpp:122] Setting up deconv3_2
I1005 16:58:16.157533 15961 net.cpp:129] Top shape: 2 128 14 14 (50176)
I1005 16:58:16.157536 15961 net.cpp:137] Memory required for data: 110650368
I1005 16:58:16.157542 15961 layer_factory.hpp:77] Creating layer debatchnorm3_2
I1005 16:58:16.157548 15961 net.cpp:84] Creating Layer debatchnorm3_2
I1005 16:58:16.157552 15961 net.cpp:406] debatchnorm3_2 <- deconv3_2
I1005 16:58:16.157555 15961 net.cpp:367] debatchnorm3_2 -> deconv3_2 (in-place)
I1005 16:58:16.157775 15961 net.cpp:122] Setting up debatchnorm3_2
I1005 16:58:16.157781 15961 net.cpp:129] Top shape: 2 128 14 14 (50176)
I1005 16:58:16.157784 15961 net.cpp:137] Memory required for data: 110851072
I1005 16:58:16.157790 15961 layer_factory.hpp:77] Creating layer deelu3_2
I1005 16:58:16.157794 15961 net.cpp:84] Creating Layer deelu3_2
I1005 16:58:16.157797 15961 net.cpp:406] deelu3_2 <- deconv3_2
I1005 16:58:16.157801 15961 net.cpp:367] deelu3_2 -> deconv3_2 (in-place)
I1005 16:58:16.157805 15961 net.cpp:122] Setting up deelu3_2
I1005 16:58:16.157809 15961 net.cpp:129] Top shape: 2 128 14 14 (50176)
I1005 16:58:16.157812 15961 net.cpp:137] Memory required for data: 111051776
I1005 16:58:16.157816 15961 layer_factory.hpp:77] Creating layer deconv3_3
I1005 16:58:16.157824 15961 net.cpp:84] Creating Layer deconv3_3
I1005 16:58:16.157827 15961 net.cpp:406] deconv3_3 <- deconv3_2
I1005 16:58:16.157833 15961 net.cpp:380] deconv3_3 -> deconv3_3
I1005 16:58:16.158499 15961 net.cpp:122] Setting up deconv3_3
I1005 16:58:16.158504 15961 net.cpp:129] Top shape: 2 64 14 14 (25088)
I1005 16:58:16.158509 15961 net.cpp:137] Memory required for data: 111152128
I1005 16:58:16.158524 15961 layer_factory.hpp:77] Creating layer debatchnorm3_3
I1005 16:58:16.158529 15961 net.cpp:84] Creating Layer debatchnorm3_3
I1005 16:58:16.158532 15961 net.cpp:406] debatchnorm3_3 <- deconv3_3
I1005 16:58:16.158541 15961 net.cpp:367] debatchnorm3_3 -> deconv3_3 (in-place)
I1005 16:58:16.158766 15961 net.cpp:122] Setting up debatchnorm3_3
I1005 16:58:16.158772 15961 net.cpp:129] Top shape: 2 64 14 14 (25088)
I1005 16:58:16.158774 15961 net.cpp:137] Memory required for data: 111252480
I1005 16:58:16.158782 15961 layer_factory.hpp:77] Creating layer deelu3_3
I1005 16:58:16.158785 15961 net.cpp:84] Creating Layer deelu3_3
I1005 16:58:16.158787 15961 net.cpp:406] deelu3_3 <- deconv3_3
I1005 16:58:16.158792 15961 net.cpp:367] deelu3_3 -> deconv3_3 (in-place)
I1005 16:58:16.158797 15961 net.cpp:122] Setting up deelu3_3
I1005 16:58:16.158800 15961 net.cpp:129] Top shape: 2 64 14 14 (25088)
I1005 16:58:16.158802 15961 net.cpp:137] Memory required for data: 111352832
I1005 16:58:16.158805 15961 layer_factory.hpp:77] Creating layer unpool2
I1005 16:58:16.158812 15961 net.cpp:84] Creating Layer unpool2
I1005 16:58:16.158815 15961 net.cpp:406] unpool2 <- deconv3_3
I1005 16:58:16.158818 15961 net.cpp:406] unpool2 <- pool2_mask
I1005 16:58:16.158823 15961 net.cpp:406] unpool2 <- pool2_argmax_count
I1005 16:58:16.158830 15961 net.cpp:380] unpool2 -> unpool2
I1005 16:58:16.158856 15961 net.cpp:122] Setting up unpool2
I1005 16:58:16.158862 15961 net.cpp:129] Top shape: 2 64 56 56 (401408)
I1005 16:58:16.158865 15961 net.cpp:137] Memory required for data: 112958464
I1005 16:58:16.158869 15961 layer_factory.hpp:77] Creating layer deconv2_1
I1005 16:58:16.158875 15961 net.cpp:84] Creating Layer deconv2_1
I1005 16:58:16.158879 15961 net.cpp:406] deconv2_1 <- unpool2
I1005 16:58:16.158886 15961 net.cpp:380] deconv2_1 -> deconv2_1
I1005 16:58:16.159370 15961 net.cpp:122] Setting up deconv2_1
I1005 16:58:16.159377 15961 net.cpp:129] Top shape: 2 64 56 56 (401408)
I1005 16:58:16.159380 15961 net.cpp:137] Memory required for data: 114564096
I1005 16:58:16.159385 15961 layer_factory.hpp:77] Creating layer debatchnorm2_1
I1005 16:58:16.159400 15961 net.cpp:84] Creating Layer debatchnorm2_1
I1005 16:58:16.159404 15961 net.cpp:406] debatchnorm2_1 <- deconv2_1
I1005 16:58:16.159409 15961 net.cpp:367] debatchnorm2_1 -> deconv2_1 (in-place)
I1005 16:58:16.159641 15961 net.cpp:122] Setting up debatchnorm2_1
I1005 16:58:16.159648 15961 net.cpp:129] Top shape: 2 64 56 56 (401408)
I1005 16:58:16.159651 15961 net.cpp:137] Memory required for data: 116169728
I1005 16:58:16.159657 15961 layer_factory.hpp:77] Creating layer deelu2_1
I1005 16:58:16.159660 15961 net.cpp:84] Creating Layer deelu2_1
I1005 16:58:16.159663 15961 net.cpp:406] deelu2_1 <- deconv2_1
I1005 16:58:16.159668 15961 net.cpp:367] deelu2_1 -> deconv2_1 (in-place)
I1005 16:58:16.159672 15961 net.cpp:122] Setting up deelu2_1
I1005 16:58:16.159677 15961 net.cpp:129] Top shape: 2 64 56 56 (401408)
I1005 16:58:16.159679 15961 net.cpp:137] Memory required for data: 117775360
I1005 16:58:16.159683 15961 layer_factory.hpp:77] Creating layer deconv2_2
I1005 16:58:16.159688 15961 net.cpp:84] Creating Layer deconv2_2
I1005 16:58:16.159693 15961 net.cpp:406] deconv2_2 <- deconv2_1
I1005 16:58:16.159698 15961 net.cpp:380] deconv2_2 -> deconv2_2
I1005 16:58:16.160081 15961 net.cpp:122] Setting up deconv2_2
I1005 16:58:16.160089 15961 net.cpp:129] Top shape: 2 32 56 56 (200704)
I1005 16:58:16.160091 15961 net.cpp:137] Memory required for data: 118578176
I1005 16:58:16.160097 15961 layer_factory.hpp:77] Creating layer debatchnorm2_2
I1005 16:58:16.160104 15961 net.cpp:84] Creating Layer debatchnorm2_2
I1005 16:58:16.160109 15961 net.cpp:406] debatchnorm2_2 <- deconv2_2
I1005 16:58:16.160114 15961 net.cpp:367] debatchnorm2_2 -> deconv2_2 (in-place)
I1005 16:58:16.160343 15961 net.cpp:122] Setting up debatchnorm2_2
I1005 16:58:16.160349 15961 net.cpp:129] Top shape: 2 32 56 56 (200704)
I1005 16:58:16.160353 15961 net.cpp:137] Memory required for data: 119380992
I1005 16:58:16.160359 15961 layer_factory.hpp:77] Creating layer deelu2_2
I1005 16:58:16.160365 15961 net.cpp:84] Creating Layer deelu2_2
I1005 16:58:16.160368 15961 net.cpp:406] deelu2_2 <- deconv2_2
I1005 16:58:16.160373 15961 net.cpp:367] deelu2_2 -> deconv2_2 (in-place)
I1005 16:58:16.160378 15961 net.cpp:122] Setting up deelu2_2
I1005 16:58:16.160383 15961 net.cpp:129] Top shape: 2 32 56 56 (200704)
I1005 16:58:16.160387 15961 net.cpp:137] Memory required for data: 120183808
I1005 16:58:16.160390 15961 layer_factory.hpp:77] Creating layer unpool1
I1005 16:58:16.160395 15961 net.cpp:84] Creating Layer unpool1
I1005 16:58:16.160399 15961 net.cpp:406] unpool1 <- deconv2_2
I1005 16:58:16.160403 15961 net.cpp:406] unpool1 <- pool1_mask
I1005 16:58:16.160409 15961 net.cpp:406] unpool1 <- pool1_argmax_count
I1005 16:58:16.160414 15961 net.cpp:380] unpool1 -> unpool1
I1005 16:58:16.160444 15961 net.cpp:122] Setting up unpool1
I1005 16:58:16.160449 15961 net.cpp:129] Top shape: 2 32 224 224 (3211264)
I1005 16:58:16.160452 15961 net.cpp:137] Memory required for data: 133028864
I1005 16:58:16.160455 15961 layer_factory.hpp:77] Creating layer deconv1_1
I1005 16:58:16.160461 15961 net.cpp:84] Creating Layer deconv1_1
I1005 16:58:16.160465 15961 net.cpp:406] deconv1_1 <- unpool1
I1005 16:58:16.160472 15961 net.cpp:380] deconv1_1 -> deconv1_1
I1005 16:58:16.160802 15961 net.cpp:122] Setting up deconv1_1
I1005 16:58:16.160809 15961 net.cpp:129] Top shape: 2 32 224 224 (3211264)
I1005 16:58:16.160812 15961 net.cpp:137] Memory required for data: 145873920
I1005 16:58:16.160817 15961 layer_factory.hpp:77] Creating layer debatchnorm1_1
I1005 16:58:16.160821 15961 net.cpp:84] Creating Layer debatchnorm1_1
I1005 16:58:16.160825 15961 net.cpp:406] debatchnorm1_1 <- deconv1_1
I1005 16:58:16.160828 15961 net.cpp:367] debatchnorm1_1 -> deconv1_1 (in-place)
I1005 16:58:16.161067 15961 net.cpp:122] Setting up debatchnorm1_1
I1005 16:58:16.161073 15961 net.cpp:129] Top shape: 2 32 224 224 (3211264)
I1005 16:58:16.161077 15961 net.cpp:137] Memory required for data: 158718976
I1005 16:58:16.161082 15961 layer_factory.hpp:77] Creating layer deelu1_1
I1005 16:58:16.161087 15961 net.cpp:84] Creating Layer deelu1_1
I1005 16:58:16.161097 15961 net.cpp:406] deelu1_1 <- deconv1_1
I1005 16:58:16.161101 15961 net.cpp:367] deelu1_1 -> deconv1_1 (in-place)
I1005 16:58:16.161106 15961 net.cpp:122] Setting up deelu1_1
I1005 16:58:16.161110 15961 net.cpp:129] Top shape: 2 32 224 224 (3211264)
I1005 16:58:16.161114 15961 net.cpp:137] Memory required for data: 171564032
I1005 16:58:16.161118 15961 layer_factory.hpp:77] Creating layer deconv1_2
I1005 16:58:16.161124 15961 net.cpp:84] Creating Layer deconv1_2
I1005 16:58:16.161128 15961 net.cpp:406] deconv1_2 <- deconv1_1
I1005 16:58:16.161133 15961 net.cpp:380] deconv1_2 -> deconv1_2
I1005 16:58:16.161901 15961 net.cpp:122] Setting up deconv1_2
I1005 16:58:16.161911 15961 net.cpp:129] Top shape: 2 32 224 224 (3211264)
I1005 16:58:16.161914 15961 net.cpp:137] Memory required for data: 184409088
I1005 16:58:16.161921 15961 layer_factory.hpp:77] Creating layer debatchnorm1_2
I1005 16:58:16.161926 15961 net.cpp:84] Creating Layer debatchnorm1_2
I1005 16:58:16.161929 15961 net.cpp:406] debatchnorm1_2 <- deconv1_2
I1005 16:58:16.161936 15961 net.cpp:367] debatchnorm1_2 -> deconv1_2 (in-place)
I1005 16:58:16.162176 15961 net.cpp:122] Setting up debatchnorm1_2
I1005 16:58:16.162184 15961 net.cpp:129] Top shape: 2 32 224 224 (3211264)
I1005 16:58:16.162186 15961 net.cpp:137] Memory required for data: 197254144
I1005 16:58:16.162192 15961 layer_factory.hpp:77] Creating layer deelu1_2
I1005 16:58:16.162196 15961 net.cpp:84] Creating Layer deelu1_2
I1005 16:58:16.162199 15961 net.cpp:406] deelu1_2 <- deconv1_2
I1005 16:58:16.162204 15961 net.cpp:367] deelu1_2 -> deconv1_2 (in-place)
I1005 16:58:16.162207 15961 net.cpp:122] Setting up deelu1_2
I1005 16:58:16.162211 15961 net.cpp:129] Top shape: 2 32 224 224 (3211264)
I1005 16:58:16.162214 15961 net.cpp:137] Memory required for data: 210099200
I1005 16:58:16.162217 15961 layer_factory.hpp:77] Creating layer segmentation
I1005 16:58:16.162228 15961 net.cpp:84] Creating Layer segmentation
I1005 16:58:16.162232 15961 net.cpp:406] segmentation <- deconv1_2
I1005 16:58:16.162240 15961 net.cpp:380] segmentation -> segmentation
I1005 16:58:16.164264 15961 net.cpp:122] Setting up segmentation
I1005 16:58:16.164276 15961 net.cpp:129] Top shape: 2 3 224 224 (301056)
I1005 16:58:16.164279 15961 net.cpp:137] Memory required for data: 211303424
I1005 16:58:16.164286 15961 layer_factory.hpp:77] Creating layer segmentation_segmentation_0_split
I1005 16:58:16.164294 15961 net.cpp:84] Creating Layer segmentation_segmentation_0_split
I1005 16:58:16.164299 15961 net.cpp:406] segmentation_segmentation_0_split <- segmentation
I1005 16:58:16.164304 15961 net.cpp:380] segmentation_segmentation_0_split -> segmentation_segmentation_0_split_0
I1005 16:58:16.164314 15961 net.cpp:380] segmentation_segmentation_0_split -> segmentation_segmentation_0_split_1
I1005 16:58:16.164361 15961 net.cpp:122] Setting up segmentation_segmentation_0_split
I1005 16:58:16.164367 15961 net.cpp:129] Top shape: 2 3 224 224 (301056)
I1005 16:58:16.164372 15961 net.cpp:129] Top shape: 2 3 224 224 (301056)
I1005 16:58:16.164376 15961 net.cpp:137] Memory required for data: 213711872
I1005 16:58:16.164379 15961 layer_factory.hpp:77] Creating layer infogainLoss
I1005 16:58:16.164387 15961 net.cpp:84] Creating Layer infogainLoss
I1005 16:58:16.164391 15961 net.cpp:406] infogainLoss <- segmentation_segmentation_0_split_0
I1005 16:58:16.164397 15961 net.cpp:406] infogainLoss <- label_data_1_split_0
I1005 16:58:16.164402 15961 net.cpp:380] infogainLoss -> loss
I1005 16:58:16.164410 15961 layer_factory.hpp:77] Creating layer infogainLoss
I1005 16:58:16.165393 15961 net.cpp:122] Setting up infogainLoss
I1005 16:58:16.165405 15961 net.cpp:129] Top shape: (1)
I1005 16:58:16.165407 15961 net.cpp:132]     with loss weight 1
I1005 16:58:16.165416 15961 net.cpp:137] Memory required for data: 213711876
I1005 16:58:16.165421 15961 layer_factory.hpp:77] Creating layer accuracy
I1005 16:58:16.165428 15961 net.cpp:84] Creating Layer accuracy
I1005 16:58:16.165432 15961 net.cpp:406] accuracy <- segmentation_segmentation_0_split_1
I1005 16:58:16.165449 15961 net.cpp:406] accuracy <- label_data_1_split_1
I1005 16:58:16.165457 15961 net.cpp:380] accuracy -> accuracy
I1005 16:58:16.165465 15961 net.cpp:380] accuracy -> per_class_accuracy
I1005 16:58:16.165510 15961 net.cpp:122] Setting up accuracy
I1005 16:58:16.165518 15961 net.cpp:129] Top shape: (1)
I1005 16:58:16.165521 15961 net.cpp:129] Top shape: 3 (3)
I1005 16:58:16.165525 15961 net.cpp:137] Memory required for data: 213711892
I1005 16:58:16.165529 15961 net.cpp:200] accuracy does not need backward computation.
I1005 16:58:16.165534 15961 net.cpp:198] infogainLoss needs backward computation.
I1005 16:58:16.165539 15961 net.cpp:198] segmentation_segmentation_0_split needs backward computation.
I1005 16:58:16.165544 15961 net.cpp:198] segmentation needs backward computation.
…
