…
I0918 10:26:59.733814 31184 net.cpp:294] The NetState phase (0) differed from the phase (1) specified by a rule in layer data
I0918 10:26:59.733844 31184 net.cpp:294] The NetState phase (0) differed from the phase (1) specified by a rule in layer accuracy
I0918 10:26:59.734100 31184 net.cpp:51] Initializing net from parameters: 
name: "SegNet7"
state {
  phase: TRAIN
  level: 0
  stage: ""
}
layer {
  name: "data"
  type: "HDF5Data"
  top: "data"
  top: "label"
  include {
    phase: TRAIN
  }
  hdf5_data_param {
    source: "/home/grochette/Documents/SegNet/data/HDF5/Train/hdf5_list.txt"
    batch_size: 2
    shuffle: true
  }
}
layer {
  name: "batchnorm0"
  type: "BatchNorm"
  bottom: "data"
  top: "data"
}
layer {
  name: "conv1_1"
  type: "Convolution"
  bottom: "data"
  top: "conv1_1"
  param {
    lr_mult: 1
    decay_mult: 1
  }
  param {
    lr_mult: 2
    decay_mult: 0
  }
  convolution_param {
    num_output: 64
    pad: 1
    kernel_size: 3
    stride: 1
    weight_filler {
      type: "xavier"
    }
    bias_filler {
      type: "constant"
    }
  }
}
layer {
  name: "batchnorm1_1"
  type: "BatchNorm"
  bottom: "conv1_1"
  top: "conv1_1"
}
layer {
  name: "elu1_1"
  type: "ELU"
  bottom: "conv1_1"
  top: "conv1_1"
}
layer {
  name: "conv1_2"
  type: "Convolution"
  bottom: "conv1_1"
  top: "conv1_2"
  param {
    lr_mult: 1
    decay_mult: 1
  }
  param {
    lr_mult: 2
    decay_mult: 0
  }
  convolution_param {
    num_output: 64
    pad: 1
    kernel_size: 3
    stride: 1
    weight_filler {
      type: "xavier"
    }
    bias_filler {
      type: "constant"
    }
  }
}
layer {
  name: "batchnorm1_2"
  type: "BatchNorm"
  bottom: "conv1_2"
  top: "conv1_2"
}
layer {
  name: "elu1_2"
  type: "ELU"
  bottom: "conv1_2"
  top: "conv1_2"
}
layer {
  name: "pool1"
  type: "Pooling"
  bottom: "conv1_2"
  top: "pool1"
  top: "pool1_mask"
  top: "pool1_argmax_count"
  pooling_param {
    pool: MAX
    kernel_size: 2
    stride: 2
  }
}
layer {
  name: "conv2_1"
  type: "Convolution"
  bottom: "pool1"
  top: "conv2_1"
  param {
    lr_mult: 1
    decay_mult: 1
  }
  param {
    lr_mult: 2
    decay_mult: 0
  }
  convolution_param {
    num_output: 128
    pad: 1
    kernel_size: 3
    stride: 1
    weight_filler {
      type: "xavier"
    }
    bias_filler {
      type: "constant"
    }
  }
}
layer {
  name: "batchnorm2_1"
  type: "BatchNorm"
  bottom: "conv2_1"
  top: "conv2_1"
}
layer {
  name: "elu2_1"
  type: "ELU"
  bottom: "conv2_1"
  top: "conv2_1"
}
layer {
  name: "conv2_2"
  type: "Convolution"
  bottom: "conv2_1"
  top: "conv2_2"
  param {
    lr_mult: 1
    decay_mult: 1
  }
  param {
    lr_mult: 2
    decay_mult: 0
  }
  convolution_param {
    num_output: 128
    pad: 1
    kernel_size: 3
    stride: 1
    weight_filler {
      type: "xavier"
    }
    bias_filler {
      type: "constant"
    }
  }
}
layer {
  name: "batchnorm2_2"
  type: "BatchNorm"
  bottom: "conv2_2"
  top: "conv2_2"
}
layer {
  name: "elu2_2"
  type: "ELU"
  bottom: "conv2_2"
  top: "conv2_2"
}
layer {
  name: "pool2"
  type: "Pooling"
  bottom: "conv2_2"
  top: "pool2"
  top: "pool2_mask"
  top: "pool2_argmax_count"
  pooling_param {
    pool: MAX
    kernel_size: 2
    stride: 2
  }
}
layer {
  name: "conv3_1"
  type: "Convolution"
  bottom: "pool2"
  top: "conv3_1"
  param {
    lr_mult: 1
    decay_mult: 1
  }
  param {
    lr_mult: 2
    decay_mult: 0
  }
  convolution_param {
    num_output: 256
    pad: 1
    kernel_size: 3
    stride: 1
    weight_filler {
      type: "xavier"
    }
    bias_filler {
      type: "constant"
    }
  }
}
layer {
  name: "batchnorm3_1"
  type: "BatchNorm"
  bottom: "conv3_1"
  top: "conv3_1"
}
layer {
  name: "elu3_1"
  type: "ELU"
  bottom: "conv3_1"
  top: "conv3_1"
}
layer {
  name: "conv3_2"
  type: "Convolution"
  bottom: "conv3_1"
  top: "conv3_2"
  param {
    lr_mult: 1
    decay_mult: 1
  }
  param {
    lr_mult: 2
    decay_mult: 0
  }
  convolution_param {
    num_output: 256
    pad: 1
    kernel_size: 3
    stride: 1
    weight_filler {
      type: "xavier"
    }
    bias_filler {
      type: "constant"
    }
  }
}
layer {
  name: "batchnorm3_2"
  type: "BatchNorm"
  bottom: "conv3_2"
  top: "conv3_2"
}
layer {
  name: "elu3_2"
  type: "ELU"
  bottom: "conv3_2"
  top: "conv3_2"
}
layer {
  name: "conv3_3"
  type: "Convolution"
  bottom: "conv3_2"
  top: "conv3_3"
  param {
    lr_mult: 1
    decay_mult: 1
  }
  param {
    lr_mult: 2
    decay_mult: 0
  }
  convolution_param {
    num_output: 256
    pad: 1
    kernel_size: 3
    stride: 1
    weight_filler {
      type: "xavier"
    }
    bias_filler {
      type: "constant"
    }
  }
}
layer {
  name: "batchnorm3_3"
  type: "BatchNorm"
  bottom: "conv3_3"
  top: "conv3_3"
}
layer {
  name: "elu3_3"
  type: "ELU"
  bottom: "conv3_3"
  top: "conv3_3"
}
layer {
  name: "pool3"
  type: "Pooling"
  bottom: "conv3_3"
  top: "pool3"
  top: "pool3_mask"
  top: "pool3_argmax_count"
  pooling_param {
    pool: MAX
    kernel_size: 2
    stride: 2
  }
}
layer {
  name: "conv4_1"
  type: "Convolution"
  bottom: "pool3"
  top: "conv4_1"
  param {
    lr_mult: 1
    decay_mult: 1
  }
  param {
    lr_mult: 2
    decay_mult: 0
  }
  convolution_param {
    num_output: 512
    pad: 1
    kernel_size: 3
    stride: 1
    weight_filler {
      type: "xavier"
    }
    bias_filler {
      type: "constant"
    }
  }
}
layer {
  name: "batchnorm4_1"
  type: "BatchNorm"
  bottom: "conv4_1"
  top: "conv4_1"
}
layer {
  name: "elu4_1"
  type: "ELU"
  bottom: "conv4_1"
  top: "conv4_1"
}
layer {
  name: "conv4_2"
  type: "Convolution"
  bottom: "conv4_1"
  top: "conv4_2"
  param {
    lr_mult: 1
    decay_mult: 1
  }
  param {
    lr_mult: 2
    decay_mult: 0
  }
  convolution_param {
    num_output: 512
    pad: 1
    kernel_size: 3
    stride: 1
    weight_filler {
      type: "xavier"
    }
    bias_filler {
      type: "constant"
    }
  }
}
layer {
  name: "batchnorm4_2"
  type: "BatchNorm"
  bottom: "conv4_2"
  top: "conv4_2"
}
layer {
  name: "elu4_2"
  type: "ELU"
  bottom: "conv4_2"
  top: "conv4_2"
}
layer {
  name: "deconv4_3"
  type: "Deconvolution"
  bottom: "conv4_2"
  top: "deconv4_3"
  param {
    lr_mult: 1
    decay_mult: 1
  }
  param {
    lr_mult: 2
    decay_mult: 0
  }
  convolution_param {
    num_output: 256
    pad: 1
    kernel_size: 3
    stride: 1
    weight_filler {
      type: "xavier"
    }
    bias_filler {
      type: "constant"
    }
  }
}
layer {
  name: "debatchnorm4_3"
  type: "BatchNorm"
  bottom: "deconv4_3"
  top: "deconv4_3"
}
layer {
  name: "deelu4_3"
  type: "ELU"
  bottom: "deconv4_3"
  top: "deconv4_3"
}
layer {
  name: "unpool3"
  type: "Unpooling"
  bottom: "deconv4_3"
  bottom: "pool3_mask"
  bottom: "pool3_argmax_count"
  top: "unpool3"
  pooling_param {
    pool: MAX
    kernel_size: 2
    stride: 2
  }
}
layer {
  name: "deconv3_1"
  type: "Deconvolution"
  bottom: "unpool3"
  top: "deconv3_1"
  param {
    lr_mult: 1
    decay_mult: 1
  }
  param {
    lr_mult: 2
    decay_mult: 0
  }
  convolution_param {
    num_output: 256
    pad: 1
    kernel_size: 3
    stride: 1
    weight_filler {
      type: "xavier"
    }
    bias_filler {
      type: "constant"
    }
  }
}
layer {
  name: "debatchnorm3_1"
  type: "BatchNorm"
  bottom: "deconv3_1"
  top: "deconv3_1"
}
layer {
  name: "deelu3_1"
  type: "ELU"
  bottom: "deconv3_1"
  top: "deconv3_1"
}
layer {
  name: "deconv3_2"
  type: "Deconvolution"
  bottom: "deconv3_1"
  top: "deconv3_2"
  param {
    lr_mult: 1
    decay_mult: 1
  }
  param {
    lr_mult: 2
    decay_mult: 0
  }
  convolution_param {
    num_output: 256
    pad: 1
    kernel_size: 3
    stride: 1
    weight_filler {
      type: "xavier"
    }
    bias_filler {
      type: "constant"
    }
  }
}
layer {
  name: "debatchnorm3_2"
  type: "BatchNorm"
  bottom: "deconv3_2"
  top: "deconv3_2"
}
layer {
  name: "deelu3_2"
  type: "ELU"
  bottom: "deconv3_2"
  top: "deconv3_2"
}
layer {
  name: "deconv3_3"
  type: "Deconvolution"
  bottom: "deconv3_2"
  top: "deconv3_3"
  param {
    lr_mult: 1
    decay_mult: 1
  }
  param {
    lr_mult: 2
    decay_mult: 0
  }
  convolution_param {
    num_output: 128
    pad: 1
    kernel_size: 3
    stride: 1
    weight_filler {
      type: "xavier"
    }
    bias_filler {
      type: "constant"
    }
  }
}
layer {
  name: "debatchnorm3_3"
  type: "BatchNorm"
  bottom: "deconv3_3"
  top: "deconv3_3"
}
layer {
  name: "deelu3_3"
  type: "ELU"
  bottom: "deconv3_3"
  top: "deconv3_3"
}
layer {
  name: "unpool2"
  type: "Unpooling"
  bottom: "deconv3_3"
  bottom: "pool2_mask"
  bottom: "pool2_argmax_count"
  top: "unpool2"
  pooling_param {
    pool: MAX
    kernel_size: 2
    stride: 2
  }
}
layer {
  name: "deconv2_1"
  type: "Deconvolution"
  bottom: "unpool2"
  top: "deconv2_1"
  param {
    lr_mult: 1
    decay_mult: 1
  }
  param {
    lr_mult: 2
    decay_mult: 0
  }
  convolution_param {
    num_output: 128
    pad: 1
    kernel_size: 3
    stride: 1
    weight_filler {
      type: "xavier"
    }
    bias_filler {
      type: "constant"
    }
  }
}
layer {
  name: "debatchnorm2_1"
  type: "BatchNorm"
  bottom: "deconv2_1"
  top: "deconv2_1"
}
layer {
  name: "deelu2_1"
  type: "ELU"
  bottom: "deconv2_1"
  top: "deconv2_1"
}
layer {
  name: "deconv2_2"
  type: "Deconvolution"
  bottom: "deconv2_1"
  top: "deconv2_2"
  param {
    lr_mult: 1
    decay_mult: 1
  }
  param {
    lr_mult: 2
    decay_mult: 0
  }
  convolution_param {
    num_output: 64
    pad: 1
    kernel_size: 3
    stride: 1
    weight_filler {
      type: "xavier"
    }
    bias_filler {
      type: "constant"
    }
  }
}
layer {
  name: "debatchnorm2_2"
  type: "BatchNorm"
  bottom: "deconv2_2"
  top: "deconv2_2"
}
layer {
  name: "deelu2_2"
  type: "ELU"
  bottom: "deconv2_2"
  top: "deconv2_2"
}
layer {
  name: "unpool1"
  type: "Unpooling"
  bottom: "deconv2_2"
  bottom: "pool1_mask"
  bottom: "pool1_argmax_count"
  top: "unpool1"
  pooling_param {
    pool: MAX
    kernel_size: 2
    stride: 2
  }
}
layer {
  name: "deconv1_1"
  type: "Deconvolution"
  bottom: "unpool1"
  top: "deconv1_1"
  param {
    lr_mult: 1
    decay_mult: 1
  }
  param {
    lr_mult: 2
    decay_mult: 0
  }
  convolution_param {
    num_output: 64
    pad: 1
    kernel_size: 3
    stride: 1
    weight_filler {
      type: "xavier"
    }
    bias_filler {
      type: "constant"
    }
  }
}
layer {
  name: "debatchnorm1_1"
  type: "BatchNorm"
  bottom: "deconv1_1"
  top: "deconv1_1"
}
layer {
  name: "deelu1_1"
  type: "ELU"
  bottom: "deconv1_1"
  top: "deconv1_1"
}
layer {
  name: "deconv1_2"
  type: "Deconvolution"
  bottom: "deconv1_1"
  top: "deconv1_2"
  param {
    lr_mult: 1
    decay_mult: 1
  }
  param {
    lr_mult: 2
    decay_mult: 0
  }
  convolution_param {
    num_output: 64
    pad: 1
    kernel_size: 3
    stride: 1
    weight_filler {
      type: "xavier"
    }
    bias_filler {
      type: "constant"
    }
  }
}
layer {
  name: "debatchnorm1_2"
  type: "BatchNorm"
  bottom: "deconv1_2"
  top: "deconv1_2"
}
layer {
  name: "deelu1_2"
  type: "ELU"
  bottom: "deconv1_2"
  top: "deconv1_2"
}
layer {
  name: "segmentation"
  type: "Convolution"
  bottom: "deconv1_2"
  top: "segmentation"
  param {
    lr_mult: 1
    decay_mult: 1
  }
  param {
    lr_mult: 2
    decay_mult: 0
  }
  convolution_param {
    num_output: 2
    pad: 0
    kernel_size: 1
    weight_filler {
      type: "xavier"
    }
    bias_filler {
      type: "constant"
    }
  }
}
layer {
  name: "infogainLoss"
  type: "InfogainLoss"
  bottom: "segmentation"
  bottom: "label"
  top: "loss"
  loss_param {
    ignore_label: 2
  }
  infogain_loss_param {
    source: "/home/grochette/Documents/SegNet/data/CleanData/infogainH.binaryproto"
  }
}
I0918 10:26:59.734524 31184 layer_factory.hpp:77] Creating layer data
I0918 10:26:59.734537 31184 net.cpp:84] Creating Layer data
I0918 10:26:59.734546 31184 net.cpp:380] data -> data
I0918 10:26:59.734565 31184 net.cpp:380] data -> label
I0918 10:26:59.734576 31184 hdf5_data_layer.cpp:80] Loading list of HDF5 filenames from: /home/grochette/Documents/SegNet/data/HDF5/Train/hdf5_list.txt
I0918 10:26:59.734642 31184 hdf5_data_layer.cpp:94] Number of HDF5 files: 86
I0918 10:26:59.735471 31184 hdf5.cpp:32] Datatype class: H5T_FLOAT
I0918 10:27:00.074255 31184 hdf5.cpp:35] Datatype class: H5T_INTEGER
I0918 10:27:00.193230 31184 net.cpp:122] Setting up data
I0918 10:27:00.193260 31184 net.cpp:129] Top shape: 2 4 224 224 (401408)
I0918 10:27:00.193269 31184 net.cpp:129] Top shape: 2 1 224 224 (100352)
I0918 10:27:00.193274 31184 net.cpp:137] Memory required for data: 2007040
I0918 10:27:00.193282 31184 layer_factory.hpp:77] Creating layer batchnorm0
I0918 10:27:00.193295 31184 net.cpp:84] Creating Layer batchnorm0
I0918 10:27:00.193302 31184 net.cpp:406] batchnorm0 <- data
I0918 10:27:00.193316 31184 net.cpp:367] batchnorm0 -> data (in-place)
I0918 10:27:00.193969 31184 net.cpp:122] Setting up batchnorm0
I0918 10:27:00.193980 31184 net.cpp:129] Top shape: 2 4 224 224 (401408)
I0918 10:27:00.193987 31184 net.cpp:137] Memory required for data: 3612672
I0918 10:27:00.194007 31184 layer_factory.hpp:77] Creating layer conv1_1
I0918 10:27:00.194022 31184 net.cpp:84] Creating Layer conv1_1
I0918 10:27:00.194027 31184 net.cpp:406] conv1_1 <- data
I0918 10:27:00.194036 31184 net.cpp:380] conv1_1 -> conv1_1
I0918 10:27:00.649004 31184 net.cpp:122] Setting up conv1_1
I0918 10:27:00.649029 31184 net.cpp:129] Top shape: 2 64 224 224 (6422528)
I0918 10:27:00.649032 31184 net.cpp:137] Memory required for data: 29302784
I0918 10:27:00.649044 31184 layer_factory.hpp:77] Creating layer batchnorm1_1
I0918 10:27:00.649054 31184 net.cpp:84] Creating Layer batchnorm1_1
I0918 10:27:00.649057 31184 net.cpp:406] batchnorm1_1 <- conv1_1
I0918 10:27:00.649063 31184 net.cpp:367] batchnorm1_1 -> conv1_1 (in-place)
I0918 10:27:00.649265 31184 net.cpp:122] Setting up batchnorm1_1
I0918 10:27:00.649271 31184 net.cpp:129] Top shape: 2 64 224 224 (6422528)
I0918 10:27:00.649274 31184 net.cpp:137] Memory required for data: 54992896
I0918 10:27:00.649281 31184 layer_factory.hpp:77] Creating layer elu1_1
I0918 10:27:00.649286 31184 net.cpp:84] Creating Layer elu1_1
I0918 10:27:00.649289 31184 net.cpp:406] elu1_1 <- conv1_1
I0918 10:27:00.649293 31184 net.cpp:367] elu1_1 -> conv1_1 (in-place)
I0918 10:27:00.649298 31184 net.cpp:122] Setting up elu1_1
I0918 10:27:00.649302 31184 net.cpp:129] Top shape: 2 64 224 224 (6422528)
I0918 10:27:00.649307 31184 net.cpp:137] Memory required for data: 80683008
I0918 10:27:00.649313 31184 layer_factory.hpp:77] Creating layer conv1_2
I0918 10:27:00.649325 31184 net.cpp:84] Creating Layer conv1_2
I0918 10:27:00.649330 31184 net.cpp:406] conv1_2 <- conv1_1
I0918 10:27:00.649339 31184 net.cpp:380] conv1_2 -> conv1_2
I0918 10:27:00.651266 31184 net.cpp:122] Setting up conv1_2
I0918 10:27:00.651278 31184 net.cpp:129] Top shape: 2 64 224 224 (6422528)
I0918 10:27:00.651283 31184 net.cpp:137] Memory required for data: 106373120
I0918 10:27:00.651293 31184 layer_factory.hpp:77] Creating layer batchnorm1_2
I0918 10:27:00.651298 31184 net.cpp:84] Creating Layer batchnorm1_2
I0918 10:27:00.651301 31184 net.cpp:406] batchnorm1_2 <- conv1_2
I0918 10:27:00.651306 31184 net.cpp:367] batchnorm1_2 -> conv1_2 (in-place)
I0918 10:27:00.651939 31184 net.cpp:122] Setting up batchnorm1_2
I0918 10:27:00.651949 31184 net.cpp:129] Top shape: 2 64 224 224 (6422528)
I0918 10:27:00.651952 31184 net.cpp:137] Memory required for data: 132063232
I0918 10:27:00.651960 31184 layer_factory.hpp:77] Creating layer elu1_2
I0918 10:27:00.651965 31184 net.cpp:84] Creating Layer elu1_2
I0918 10:27:00.651968 31184 net.cpp:406] elu1_2 <- conv1_2
I0918 10:27:00.651973 31184 net.cpp:367] elu1_2 -> conv1_2 (in-place)
I0918 10:27:00.651979 31184 net.cpp:122] Setting up elu1_2
I0918 10:27:00.652003 31184 net.cpp:129] Top shape: 2 64 224 224 (6422528)
I0918 10:27:00.652005 31184 net.cpp:137] Memory required for data: 157753344
I0918 10:27:00.652009 31184 layer_factory.hpp:77] Creating layer pool1
I0918 10:27:00.652016 31184 layer_factory.cpp:91] cuDNN does not support multiple tops. Using Caffe's own pooling layer.
I0918 10:27:00.652027 31184 net.cpp:84] Creating Layer pool1
I0918 10:27:00.652031 31184 net.cpp:406] pool1 <- conv1_2
I0918 10:27:00.652039 31184 net.cpp:380] pool1 -> pool1
I0918 10:27:00.652048 31184 net.cpp:380] pool1 -> pool1_mask
I0918 10:27:00.652055 31184 net.cpp:380] pool1 -> pool1_argmax_count
I0918 10:27:00.652117 31184 net.cpp:122] Setting up pool1
I0918 10:27:00.652123 31184 net.cpp:129] Top shape: 2 64 112 112 (1605632)
I0918 10:27:00.652128 31184 net.cpp:129] Top shape: 2 64 112 112 (1605632)
I0918 10:27:00.652132 31184 net.cpp:129] Top shape: 2 64 224 224 (6422528)
I0918 10:27:00.652137 31184 net.cpp:137] Memory required for data: 196288512
I0918 10:27:00.652140 31184 layer_factory.hpp:77] Creating layer conv2_1
I0918 10:27:00.652149 31184 net.cpp:84] Creating Layer conv2_1
I0918 10:27:00.652153 31184 net.cpp:406] conv2_1 <- pool1
I0918 10:27:00.652160 31184 net.cpp:380] conv2_1 -> conv2_1
I0918 10:27:00.655074 31184 net.cpp:122] Setting up conv2_1
I0918 10:27:00.655088 31184 net.cpp:129] Top shape: 2 128 112 112 (3211264)
I0918 10:27:00.655092 31184 net.cpp:137] Memory required for data: 209133568
I0918 10:27:00.655098 31184 layer_factory.hpp:77] Creating layer batchnorm2_1
I0918 10:27:00.655104 31184 net.cpp:84] Creating Layer batchnorm2_1
I0918 10:27:00.655109 31184 net.cpp:406] batchnorm2_1 <- conv2_1
I0918 10:27:00.655117 31184 net.cpp:367] batchnorm2_1 -> conv2_1 (in-place)
I0918 10:27:00.655303 31184 net.cpp:122] Setting up batchnorm2_1
I0918 10:27:00.655309 31184 net.cpp:129] Top shape: 2 128 112 112 (3211264)
I0918 10:27:00.655313 31184 net.cpp:137] Memory required for data: 221978624
I0918 10:27:00.655324 31184 layer_factory.hpp:77] Creating layer elu2_1
I0918 10:27:00.655329 31184 net.cpp:84] Creating Layer elu2_1
I0918 10:27:00.655333 31184 net.cpp:406] elu2_1 <- conv2_1
I0918 10:27:00.655339 31184 net.cpp:367] elu2_1 -> conv2_1 (in-place)
I0918 10:27:00.655344 31184 net.cpp:122] Setting up elu2_1
I0918 10:27:00.655349 31184 net.cpp:129] Top shape: 2 128 112 112 (3211264)
I0918 10:27:00.655352 31184 net.cpp:137] Memory required for data: 234823680
I0918 10:27:00.655357 31184 layer_factory.hpp:77] Creating layer conv2_2
I0918 10:27:00.655370 31184 net.cpp:84] Creating Layer conv2_2
I0918 10:27:00.655375 31184 net.cpp:406] conv2_2 <- conv2_1
I0918 10:27:00.655380 31184 net.cpp:380] conv2_2 -> conv2_2
I0918 10:27:00.657850 31184 net.cpp:122] Setting up conv2_2
I0918 10:27:00.657862 31184 net.cpp:129] Top shape: 2 128 112 112 (3211264)
I0918 10:27:00.657866 31184 net.cpp:137] Memory required for data: 247668736
I0918 10:27:00.657872 31184 layer_factory.hpp:77] Creating layer batchnorm2_2
I0918 10:27:00.657881 31184 net.cpp:84] Creating Layer batchnorm2_2
I0918 10:27:00.657884 31184 net.cpp:406] batchnorm2_2 <- conv2_2
I0918 10:27:00.657891 31184 net.cpp:367] batchnorm2_2 -> conv2_2 (in-place)
I0918 10:27:00.658074 31184 net.cpp:122] Setting up batchnorm2_2
I0918 10:27:00.658082 31184 net.cpp:129] Top shape: 2 128 112 112 (3211264)
I0918 10:27:00.658085 31184 net.cpp:137] Memory required for data: 260513792
I0918 10:27:00.658092 31184 layer_factory.hpp:77] Creating layer elu2_2
I0918 10:27:00.658097 31184 net.cpp:84] Creating Layer elu2_2
I0918 10:27:00.658102 31184 net.cpp:406] elu2_2 <- conv2_2
I0918 10:27:00.658107 31184 net.cpp:367] elu2_2 -> conv2_2 (in-place)
I0918 10:27:00.658113 31184 net.cpp:122] Setting up elu2_2
I0918 10:27:00.658118 31184 net.cpp:129] Top shape: 2 128 112 112 (3211264)
I0918 10:27:00.658121 31184 net.cpp:137] Memory required for data: 273358848
I0918 10:27:00.658125 31184 layer_factory.hpp:77] Creating layer pool2
I0918 10:27:00.658131 31184 layer_factory.cpp:91] cuDNN does not support multiple tops. Using Caffe's own pooling layer.
I0918 10:27:00.658151 31184 net.cpp:84] Creating Layer pool2
I0918 10:27:00.658157 31184 net.cpp:406] pool2 <- conv2_2
I0918 10:27:00.658166 31184 net.cpp:380] pool2 -> pool2
I0918 10:27:00.658174 31184 net.cpp:380] pool2 -> pool2_mask
I0918 10:27:00.658183 31184 net.cpp:380] pool2 -> pool2_argmax_count
I0918 10:27:00.658236 31184 net.cpp:122] Setting up pool2
I0918 10:27:00.658244 31184 net.cpp:129] Top shape: 2 128 56 56 (802816)
I0918 10:27:00.658251 31184 net.cpp:129] Top shape: 2 128 56 56 (802816)
I0918 10:27:00.658257 31184 net.cpp:129] Top shape: 2 128 112 112 (3211264)
I0918 10:27:00.658262 31184 net.cpp:137] Memory required for data: 292626432
I0918 10:27:00.658267 31184 layer_factory.hpp:77] Creating layer conv3_1
I0918 10:27:00.658282 31184 net.cpp:84] Creating Layer conv3_1
I0918 10:27:00.658287 31184 net.cpp:406] conv3_1 <- pool2
I0918 10:27:00.658296 31184 net.cpp:380] conv3_1 -> conv3_1
I0918 10:27:00.662194 31184 net.cpp:122] Setting up conv3_1
I0918 10:27:00.662211 31184 net.cpp:129] Top shape: 2 256 56 56 (1605632)
I0918 10:27:00.662217 31184 net.cpp:137] Memory required for data: 299048960
I0918 10:27:00.662227 31184 layer_factory.hpp:77] Creating layer batchnorm3_1
I0918 10:27:00.662237 31184 net.cpp:84] Creating Layer batchnorm3_1
I0918 10:27:00.662242 31184 net.cpp:406] batchnorm3_1 <- conv3_1
I0918 10:27:00.662250 31184 net.cpp:367] batchnorm3_1 -> conv3_1 (in-place)
I0918 10:27:00.662456 31184 net.cpp:122] Setting up batchnorm3_1
I0918 10:27:00.662463 31184 net.cpp:129] Top shape: 2 256 56 56 (1605632)
I0918 10:27:00.662467 31184 net.cpp:137] Memory required for data: 305471488
I0918 10:27:00.662477 31184 layer_factory.hpp:77] Creating layer elu3_1
I0918 10:27:00.662484 31184 net.cpp:84] Creating Layer elu3_1
I0918 10:27:00.662488 31184 net.cpp:406] elu3_1 <- conv3_1
I0918 10:27:00.662495 31184 net.cpp:367] elu3_1 -> conv3_1 (in-place)
I0918 10:27:00.662503 31184 net.cpp:122] Setting up elu3_1
I0918 10:27:00.662509 31184 net.cpp:129] Top shape: 2 256 56 56 (1605632)
I0918 10:27:00.662513 31184 net.cpp:137] Memory required for data: 311894016
I0918 10:27:00.662518 31184 layer_factory.hpp:77] Creating layer conv3_2
I0918 10:27:00.662537 31184 net.cpp:84] Creating Layer conv3_2
I0918 10:27:00.662541 31184 net.cpp:406] conv3_2 <- conv3_1
I0918 10:27:00.662550 31184 net.cpp:380] conv3_2 -> conv3_2
I0918 10:27:00.668573 31184 net.cpp:122] Setting up conv3_2
I0918 10:27:00.668588 31184 net.cpp:129] Top shape: 2 256 56 56 (1605632)
I0918 10:27:00.668594 31184 net.cpp:137] Memory required for data: 318316544
I0918 10:27:00.668603 31184 layer_factory.hpp:77] Creating layer batchnorm3_2
I0918 10:27:00.668612 31184 net.cpp:84] Creating Layer batchnorm3_2
I0918 10:27:00.668617 31184 net.cpp:406] batchnorm3_2 <- conv3_2
I0918 10:27:00.668628 31184 net.cpp:367] batchnorm3_2 -> conv3_2 (in-place)
I0918 10:27:00.668824 31184 net.cpp:122] Setting up batchnorm3_2
I0918 10:27:00.668836 31184 net.cpp:129] Top shape: 2 256 56 56 (1605632)
I0918 10:27:00.668841 31184 net.cpp:137] Memory required for data: 324739072
I0918 10:27:00.668854 31184 layer_factory.hpp:77] Creating layer elu3_2
I0918 10:27:00.668860 31184 net.cpp:84] Creating Layer elu3_2
I0918 10:27:00.668865 31184 net.cpp:406] elu3_2 <- conv3_2
I0918 10:27:00.668874 31184 net.cpp:367] elu3_2 -> conv3_2 (in-place)
I0918 10:27:00.668881 31184 net.cpp:122] Setting up elu3_2
I0918 10:27:00.668887 31184 net.cpp:129] Top shape: 2 256 56 56 (1605632)
I0918 10:27:00.668891 31184 net.cpp:137] Memory required for data: 331161600
I0918 10:27:00.668897 31184 layer_factory.hpp:77] Creating layer conv3_3
I0918 10:27:00.668910 31184 net.cpp:84] Creating Layer conv3_3
I0918 10:27:00.668915 31184 net.cpp:406] conv3_3 <- conv3_2
I0918 10:27:00.668920 31184 net.cpp:380] conv3_3 -> conv3_3
I0918 10:27:00.674474 31184 net.cpp:122] Setting up conv3_3
I0918 10:27:00.674489 31184 net.cpp:129] Top shape: 2 256 56 56 (1605632)
I0918 10:27:00.674495 31184 net.cpp:137] Memory required for data: 337584128
I0918 10:27:00.674504 31184 layer_factory.hpp:77] Creating layer batchnorm3_3
I0918 10:27:00.674530 31184 net.cpp:84] Creating Layer batchnorm3_3
I0918 10:27:00.674535 31184 net.cpp:406] batchnorm3_3 <- conv3_3
I0918 10:27:00.674542 31184 net.cpp:367] batchnorm3_3 -> conv3_3 (in-place)
I0918 10:27:00.674744 31184 net.cpp:122] Setting up batchnorm3_3
I0918 10:27:00.674754 31184 net.cpp:129] Top shape: 2 256 56 56 (1605632)
I0918 10:27:00.674758 31184 net.cpp:137] Memory required for data: 344006656
I0918 10:27:00.674767 31184 layer_factory.hpp:77] Creating layer elu3_3
I0918 10:27:00.674773 31184 net.cpp:84] Creating Layer elu3_3
I0918 10:27:00.674778 31184 net.cpp:406] elu3_3 <- conv3_3
I0918 10:27:00.674785 31184 net.cpp:367] elu3_3 -> conv3_3 (in-place)
I0918 10:27:00.674791 31184 net.cpp:122] Setting up elu3_3
I0918 10:27:00.674798 31184 net.cpp:129] Top shape: 2 256 56 56 (1605632)
I0918 10:27:00.674803 31184 net.cpp:137] Memory required for data: 350429184
I0918 10:27:00.674806 31184 layer_factory.hpp:77] Creating layer pool3
I0918 10:27:00.674813 31184 layer_factory.cpp:91] cuDNN does not support multiple tops. Using Caffe's own pooling layer.
I0918 10:27:00.674819 31184 net.cpp:84] Creating Layer pool3
I0918 10:27:00.674823 31184 net.cpp:406] pool3 <- conv3_3
I0918 10:27:00.674831 31184 net.cpp:380] pool3 -> pool3
I0918 10:27:00.674839 31184 net.cpp:380] pool3 -> pool3_mask
I0918 10:27:00.674849 31184 net.cpp:380] pool3 -> pool3_argmax_count
I0918 10:27:00.674903 31184 net.cpp:122] Setting up pool3
I0918 10:27:00.674911 31184 net.cpp:129] Top shape: 2 256 28 28 (401408)
I0918 10:27:00.674917 31184 net.cpp:129] Top shape: 2 256 28 28 (401408)
I0918 10:27:00.674923 31184 net.cpp:129] Top shape: 2 256 56 56 (1605632)
I0918 10:27:00.674927 31184 net.cpp:137] Memory required for data: 360062976
I0918 10:27:00.674932 31184 layer_factory.hpp:77] Creating layer conv4_1
I0918 10:27:00.674943 31184 net.cpp:84] Creating Layer conv4_1
I0918 10:27:00.674947 31184 net.cpp:406] conv4_1 <- pool3
I0918 10:27:00.674957 31184 net.cpp:380] conv4_1 -> conv4_1
I0918 10:27:00.684712 31184 net.cpp:122] Setting up conv4_1
I0918 10:27:00.684734 31184 net.cpp:129] Top shape: 2 512 28 28 (802816)
I0918 10:27:00.684739 31184 net.cpp:137] Memory required for data: 363274240
I0918 10:27:00.684751 31184 layer_factory.hpp:77] Creating layer batchnorm4_1
I0918 10:27:00.684762 31184 net.cpp:84] Creating Layer batchnorm4_1
I0918 10:27:00.684767 31184 net.cpp:406] batchnorm4_1 <- conv4_1
I0918 10:27:00.684773 31184 net.cpp:367] batchnorm4_1 -> conv4_1 (in-place)
I0918 10:27:00.684973 31184 net.cpp:122] Setting up batchnorm4_1
I0918 10:27:00.684983 31184 net.cpp:129] Top shape: 2 512 28 28 (802816)
I0918 10:27:00.684988 31184 net.cpp:137] Memory required for data: 366485504
I0918 10:27:00.684996 31184 layer_factory.hpp:77] Creating layer elu4_1
I0918 10:27:00.685003 31184 net.cpp:84] Creating Layer elu4_1
I0918 10:27:00.685008 31184 net.cpp:406] elu4_1 <- conv4_1
I0918 10:27:00.685014 31184 net.cpp:367] elu4_1 -> conv4_1 (in-place)
I0918 10:27:00.685021 31184 net.cpp:122] Setting up elu4_1
I0918 10:27:00.685027 31184 net.cpp:129] Top shape: 2 512 28 28 (802816)
I0918 10:27:00.685031 31184 net.cpp:137] Memory required for data: 369696768
I0918 10:27:00.685036 31184 layer_factory.hpp:77] Creating layer conv4_2
I0918 10:27:00.685050 31184 net.cpp:84] Creating Layer conv4_2
I0918 10:27:00.685053 31184 net.cpp:406] conv4_2 <- conv4_1
I0918 10:27:00.685062 31184 net.cpp:380] conv4_2 -> conv4_2
I0918 10:27:00.701632 31184 net.cpp:122] Setting up conv4_2
I0918 10:27:00.701654 31184 net.cpp:129] Top shape: 2 512 28 28 (802816)
I0918 10:27:00.701660 31184 net.cpp:137] Memory required for data: 372908032
I0918 10:27:00.701671 31184 layer_factory.hpp:77] Creating layer batchnorm4_2
I0918 10:27:00.701680 31184 net.cpp:84] Creating Layer batchnorm4_2
I0918 10:27:00.701686 31184 net.cpp:406] batchnorm4_2 <- conv4_2
I0918 10:27:00.701695 31184 net.cpp:367] batchnorm4_2 -> conv4_2 (in-place)
I0918 10:27:00.701897 31184 net.cpp:122] Setting up batchnorm4_2
I0918 10:27:00.701905 31184 net.cpp:129] Top shape: 2 512 28 28 (802816)
I0918 10:27:00.701930 31184 net.cpp:137] Memory required for data: 376119296
I0918 10:27:00.701941 31184 layer_factory.hpp:77] Creating layer elu4_2
I0918 10:27:00.701951 31184 net.cpp:84] Creating Layer elu4_2
I0918 10:27:00.701956 31184 net.cpp:406] elu4_2 <- conv4_2
I0918 10:27:00.701962 31184 net.cpp:367] elu4_2 -> conv4_2 (in-place)
I0918 10:27:00.701969 31184 net.cpp:122] Setting up elu4_2
I0918 10:27:00.701977 31184 net.cpp:129] Top shape: 2 512 28 28 (802816)
I0918 10:27:00.701980 31184 net.cpp:137] Memory required for data: 379330560
I0918 10:27:00.701985 31184 layer_factory.hpp:77] Creating layer deconv4_3
I0918 10:27:00.701998 31184 net.cpp:84] Creating Layer deconv4_3
I0918 10:27:00.702003 31184 net.cpp:406] deconv4_3 <- conv4_2
I0918 10:27:00.702011 31184 net.cpp:380] deconv4_3 -> deconv4_3
I0918 10:27:00.709638 31184 net.cpp:122] Setting up deconv4_3
I0918 10:27:00.709656 31184 net.cpp:129] Top shape: 2 256 28 28 (401408)
I0918 10:27:00.709659 31184 net.cpp:137] Memory required for data: 380936192
I0918 10:27:00.709666 31184 layer_factory.hpp:77] Creating layer debatchnorm4_3
I0918 10:27:00.709674 31184 net.cpp:84] Creating Layer debatchnorm4_3
I0918 10:27:00.709678 31184 net.cpp:406] debatchnorm4_3 <- deconv4_3
I0918 10:27:00.709684 31184 net.cpp:367] debatchnorm4_3 -> deconv4_3 (in-place)
I0918 10:27:00.709883 31184 net.cpp:122] Setting up debatchnorm4_3
I0918 10:27:00.709890 31184 net.cpp:129] Top shape: 2 256 28 28 (401408)
I0918 10:27:00.709892 31184 net.cpp:137] Memory required for data: 382541824
I0918 10:27:00.709898 31184 layer_factory.hpp:77] Creating layer deelu4_3
I0918 10:27:00.709903 31184 net.cpp:84] Creating Layer deelu4_3
I0918 10:27:00.709906 31184 net.cpp:406] deelu4_3 <- deconv4_3
I0918 10:27:00.709911 31184 net.cpp:367] deelu4_3 -> deconv4_3 (in-place)
I0918 10:27:00.709916 31184 net.cpp:122] Setting up deelu4_3
I0918 10:27:00.709919 31184 net.cpp:129] Top shape: 2 256 28 28 (401408)
I0918 10:27:00.709925 31184 net.cpp:137] Memory required for data: 384147456
I0918 10:27:00.709928 31184 layer_factory.hpp:77] Creating layer unpool3
I0918 10:27:00.709934 31184 net.cpp:84] Creating Layer unpool3
I0918 10:27:00.709938 31184 net.cpp:406] unpool3 <- deconv4_3
I0918 10:27:00.709942 31184 net.cpp:406] unpool3 <- pool3_mask
I0918 10:27:00.709947 31184 net.cpp:406] unpool3 <- pool3_argmax_count
I0918 10:27:00.709952 31184 net.cpp:380] unpool3 -> unpool3
I0918 10:27:00.709977 31184 net.cpp:122] Setting up unpool3
I0918 10:27:00.709983 31184 net.cpp:129] Top shape: 2 256 56 56 (1605632)
I0918 10:27:00.709986 31184 net.cpp:137] Memory required for data: 390569984
I0918 10:27:00.709988 31184 layer_factory.hpp:77] Creating layer deconv3_1
I0918 10:27:00.709996 31184 net.cpp:84] Creating Layer deconv3_1
I0918 10:27:00.710000 31184 net.cpp:406] deconv3_1 <- unpool3
I0918 10:27:00.710005 31184 net.cpp:380] deconv3_1 -> deconv3_1
I0918 10:27:00.714007 31184 net.cpp:122] Setting up deconv3_1
I0918 10:27:00.714021 31184 net.cpp:129] Top shape: 2 256 56 56 (1605632)
I0918 10:27:00.714025 31184 net.cpp:137] Memory required for data: 396992512
I0918 10:27:00.714032 31184 layer_factory.hpp:77] Creating layer debatchnorm3_1
I0918 10:27:00.714040 31184 net.cpp:84] Creating Layer debatchnorm3_1
I0918 10:27:00.714045 31184 net.cpp:406] debatchnorm3_1 <- deconv3_1
I0918 10:27:00.714051 31184 net.cpp:367] debatchnorm3_1 -> deconv3_1 (in-place)
I0918 10:27:00.714253 31184 net.cpp:122] Setting up debatchnorm3_1
I0918 10:27:00.714262 31184 net.cpp:129] Top shape: 2 256 56 56 (1605632)
I0918 10:27:00.714267 31184 net.cpp:137] Memory required for data: 403415040
I0918 10:27:00.714273 31184 layer_factory.hpp:77] Creating layer deelu3_1
I0918 10:27:00.714278 31184 net.cpp:84] Creating Layer deelu3_1
I0918 10:27:00.714282 31184 net.cpp:406] deelu3_1 <- deconv3_1
I0918 10:27:00.714287 31184 net.cpp:367] deelu3_1 -> deconv3_1 (in-place)
I0918 10:27:00.714293 31184 net.cpp:122] Setting up deelu3_1
I0918 10:27:00.714298 31184 net.cpp:129] Top shape: 2 256 56 56 (1605632)
I0918 10:27:00.714300 31184 net.cpp:137] Memory required for data: 409837568
I0918 10:27:00.714321 31184 layer_factory.hpp:77] Creating layer deconv3_2
I0918 10:27:00.714329 31184 net.cpp:84] Creating Layer deconv3_2
I0918 10:27:00.714332 31184 net.cpp:406] deconv3_2 <- deconv3_1
I0918 10:27:00.714340 31184 net.cpp:380] deconv3_2 -> deconv3_2
I0918 10:27:00.718400 31184 net.cpp:122] Setting up deconv3_2
I0918 10:27:00.718412 31184 net.cpp:129] Top shape: 2 256 56 56 (1605632)
I0918 10:27:00.718416 31184 net.cpp:137] Memory required for data: 416260096
I0918 10:27:00.718422 31184 layer_factory.hpp:77] Creating layer debatchnorm3_2
I0918 10:27:00.718432 31184 net.cpp:84] Creating Layer debatchnorm3_2
I0918 10:27:00.718437 31184 net.cpp:406] debatchnorm3_2 <- deconv3_2
I0918 10:27:00.718443 31184 net.cpp:367] debatchnorm3_2 -> deconv3_2 (in-place)
I0918 10:27:00.718641 31184 net.cpp:122] Setting up debatchnorm3_2
I0918 10:27:00.718647 31184 net.cpp:129] Top shape: 2 256 56 56 (1605632)
I0918 10:27:00.718652 31184 net.cpp:137] Memory required for data: 422682624
I0918 10:27:00.718658 31184 layer_factory.hpp:77] Creating layer deelu3_2
I0918 10:27:00.718663 31184 net.cpp:84] Creating Layer deelu3_2
I0918 10:27:00.718667 31184 net.cpp:406] deelu3_2 <- deconv3_2
I0918 10:27:00.718672 31184 net.cpp:367] deelu3_2 -> deconv3_2 (in-place)
I0918 10:27:00.718677 31184 net.cpp:122] Setting up deelu3_2
I0918 10:27:00.718683 31184 net.cpp:129] Top shape: 2 256 56 56 (1605632)
I0918 10:27:00.718685 31184 net.cpp:137] Memory required for data: 429105152
I0918 10:27:00.718689 31184 layer_factory.hpp:77] Creating layer deconv3_3
I0918 10:27:00.718698 31184 net.cpp:84] Creating Layer deconv3_3
I0918 10:27:00.718700 31184 net.cpp:406] deconv3_3 <- deconv3_2
I0918 10:27:00.718706 31184 net.cpp:380] deconv3_3 -> deconv3_3
I0918 10:27:00.720942 31184 net.cpp:122] Setting up deconv3_3
I0918 10:27:00.720952 31184 net.cpp:129] Top shape: 2 128 56 56 (802816)
I0918 10:27:00.720957 31184 net.cpp:137] Memory required for data: 432316416
I0918 10:27:00.720971 31184 layer_factory.hpp:77] Creating layer debatchnorm3_3
I0918 10:27:00.720980 31184 net.cpp:84] Creating Layer debatchnorm3_3
I0918 10:27:00.720984 31184 net.cpp:406] debatchnorm3_3 <- deconv3_3
I0918 10:27:00.720990 31184 net.cpp:367] debatchnorm3_3 -> deconv3_3 (in-place)
I0918 10:27:00.721187 31184 net.cpp:122] Setting up debatchnorm3_3
I0918 10:27:00.721194 31184 net.cpp:129] Top shape: 2 128 56 56 (802816)
I0918 10:27:00.721199 31184 net.cpp:137] Memory required for data: 435527680
I0918 10:27:00.721204 31184 layer_factory.hpp:77] Creating layer deelu3_3
I0918 10:27:00.721210 31184 net.cpp:84] Creating Layer deelu3_3
I0918 10:27:00.721213 31184 net.cpp:406] deelu3_3 <- deconv3_3
I0918 10:27:00.721218 31184 net.cpp:367] deelu3_3 -> deconv3_3 (in-place)
I0918 10:27:00.721223 31184 net.cpp:122] Setting up deelu3_3
I0918 10:27:00.721228 31184 net.cpp:129] Top shape: 2 128 56 56 (802816)
I0918 10:27:00.721232 31184 net.cpp:137] Memory required for data: 438738944
I0918 10:27:00.721235 31184 layer_factory.hpp:77] Creating layer unpool2
I0918 10:27:00.721241 31184 net.cpp:84] Creating Layer unpool2
I0918 10:27:00.721246 31184 net.cpp:406] unpool2 <- deconv3_3
I0918 10:27:00.721251 31184 net.cpp:406] unpool2 <- pool2_mask
I0918 10:27:00.721256 31184 net.cpp:406] unpool2 <- pool2_argmax_count
I0918 10:27:00.721261 31184 net.cpp:380] unpool2 -> unpool2
I0918 10:27:00.721287 31184 net.cpp:122] Setting up unpool2
I0918 10:27:00.721294 31184 net.cpp:129] Top shape: 2 128 112 112 (3211264)
I0918 10:27:00.721297 31184 net.cpp:137] Memory required for data: 451584000
I0918 10:27:00.721300 31184 layer_factory.hpp:77] Creating layer deconv2_1
I0918 10:27:00.721308 31184 net.cpp:84] Creating Layer deconv2_1
I0918 10:27:00.721315 31184 net.cpp:406] deconv2_1 <- unpool2
I0918 10:27:00.721325 31184 net.cpp:380] deconv2_1 -> deconv2_1
I0918 10:27:00.722759 31184 net.cpp:122] Setting up deconv2_1
I0918 10:27:00.722769 31184 net.cpp:129] Top shape: 2 128 112 112 (3211264)
I0918 10:27:00.722775 31184 net.cpp:137] Memory required for data: 464429056
I0918 10:27:00.722800 31184 layer_factory.hpp:77] Creating layer debatchnorm2_1
I0918 10:27:00.722806 31184 net.cpp:84] Creating Layer debatchnorm2_1
I0918 10:27:00.722811 31184 net.cpp:406] debatchnorm2_1 <- deconv2_1
I0918 10:27:00.722823 31184 net.cpp:367] debatchnorm2_1 -> deconv2_1 (in-place)
I0918 10:27:00.723029 31184 net.cpp:122] Setting up debatchnorm2_1
I0918 10:27:00.723037 31184 net.cpp:129] Top shape: 2 128 112 112 (3211264)
I0918 10:27:00.723042 31184 net.cpp:137] Memory required for data: 477274112
I0918 10:27:00.723052 31184 layer_factory.hpp:77] Creating layer deelu2_1
I0918 10:27:00.723058 31184 net.cpp:84] Creating Layer deelu2_1
I0918 10:27:00.723063 31184 net.cpp:406] deelu2_1 <- deconv2_1
I0918 10:27:00.723070 31184 net.cpp:367] deelu2_1 -> deconv2_1 (in-place)
I0918 10:27:00.723078 31184 net.cpp:122] Setting up deelu2_1
I0918 10:27:00.723084 31184 net.cpp:129] Top shape: 2 128 112 112 (3211264)
I0918 10:27:00.723089 31184 net.cpp:137] Memory required for data: 490119168
I0918 10:27:00.723094 31184 layer_factory.hpp:77] Creating layer deconv2_2
I0918 10:27:00.723104 31184 net.cpp:84] Creating Layer deconv2_2
I0918 10:27:00.723109 31184 net.cpp:406] deconv2_2 <- deconv2_1
I0918 10:27:00.723116 31184 net.cpp:380] deconv2_2 -> deconv2_2
I0918 10:27:00.723759 31184 net.cpp:122] Setting up deconv2_2
I0918 10:27:00.723769 31184 net.cpp:129] Top shape: 2 64 112 112 (1605632)
I0918 10:27:00.723775 31184 net.cpp:137] Memory required for data: 496541696
I0918 10:27:00.723783 31184 layer_factory.hpp:77] Creating layer debatchnorm2_2
I0918 10:27:00.723789 31184 net.cpp:84] Creating Layer debatchnorm2_2
I0918 10:27:00.723795 31184 net.cpp:406] debatchnorm2_2 <- deconv2_2
I0918 10:27:00.723803 31184 net.cpp:367] debatchnorm2_2 -> deconv2_2 (in-place)
I0918 10:27:00.724014 31184 net.cpp:122] Setting up debatchnorm2_2
I0918 10:27:00.724020 31184 net.cpp:129] Top shape: 2 64 112 112 (1605632)
I0918 10:27:00.724023 31184 net.cpp:137] Memory required for data: 502964224
I0918 10:27:00.724030 31184 layer_factory.hpp:77] Creating layer deelu2_2
I0918 10:27:00.724033 31184 net.cpp:84] Creating Layer deelu2_2
I0918 10:27:00.724036 31184 net.cpp:406] deelu2_2 <- deconv2_2
I0918 10:27:00.724040 31184 net.cpp:367] deelu2_2 -> deconv2_2 (in-place)
I0918 10:27:00.724045 31184 net.cpp:122] Setting up deelu2_2
I0918 10:27:00.724048 31184 net.cpp:129] Top shape: 2 64 112 112 (1605632)
I0918 10:27:00.724052 31184 net.cpp:137] Memory required for data: 509386752
I0918 10:27:00.724057 31184 layer_factory.hpp:77] Creating layer unpool1
I0918 10:27:00.724066 31184 net.cpp:84] Creating Layer unpool1
I0918 10:27:00.724069 31184 net.cpp:406] unpool1 <- deconv2_2
I0918 10:27:00.724073 31184 net.cpp:406] unpool1 <- pool1_mask
I0918 10:27:00.724078 31184 net.cpp:406] unpool1 <- pool1_argmax_count
I0918 10:27:00.724086 31184 net.cpp:380] unpool1 -> unpool1
I0918 10:27:00.724112 31184 net.cpp:122] Setting up unpool1
I0918 10:27:00.724119 31184 net.cpp:129] Top shape: 2 64 224 224 (6422528)
I0918 10:27:00.724124 31184 net.cpp:137] Memory required for data: 535076864
I0918 10:27:00.724129 31184 layer_factory.hpp:77] Creating layer deconv1_1
I0918 10:27:00.724139 31184 net.cpp:84] Creating Layer deconv1_1
I0918 10:27:00.724144 31184 net.cpp:406] deconv1_1 <- unpool1
I0918 10:27:00.724151 31184 net.cpp:380] deconv1_1 -> deconv1_1
I0918 10:27:00.724614 31184 net.cpp:122] Setting up deconv1_1
I0918 10:27:00.724622 31184 net.cpp:129] Top shape: 2 64 224 224 (6422528)
I0918 10:27:00.724624 31184 net.cpp:137] Memory required for data: 560766976
I0918 10:27:00.724629 31184 layer_factory.hpp:77] Creating layer debatchnorm1_1
I0918 10:27:00.724634 31184 net.cpp:84] Creating Layer debatchnorm1_1
I0918 10:27:00.724637 31184 net.cpp:406] debatchnorm1_1 <- deconv1_1
I0918 10:27:00.724642 31184 net.cpp:367] debatchnorm1_1 -> deconv1_1 (in-place)
I0918 10:27:00.724866 31184 net.cpp:122] Setting up debatchnorm1_1
I0918 10:27:00.724874 31184 net.cpp:129] Top shape: 2 64 224 224 (6422528)
I0918 10:27:00.724876 31184 net.cpp:137] Memory required for data: 586457088
I0918 10:27:00.724890 31184 layer_factory.hpp:77] Creating layer deelu1_1
I0918 10:27:00.724895 31184 net.cpp:84] Creating Layer deelu1_1
I0918 10:27:00.724900 31184 net.cpp:406] deelu1_1 <- deconv1_1
I0918 10:27:00.724905 31184 net.cpp:367] deelu1_1 -> deconv1_1 (in-place)
I0918 10:27:00.724912 31184 net.cpp:122] Setting up deelu1_1
I0918 10:27:00.724920 31184 net.cpp:129] Top shape: 2 64 224 224 (6422528)
I0918 10:27:00.724925 31184 net.cpp:137] Memory required for data: 612147200
I0918 10:27:00.724930 31184 layer_factory.hpp:77] Creating layer deconv1_2
I0918 10:27:00.724939 31184 net.cpp:84] Creating Layer deconv1_2
I0918 10:27:00.724944 31184 net.cpp:406] deconv1_2 <- deconv1_1
I0918 10:27:00.724952 31184 net.cpp:380] deconv1_2 -> deconv1_2
I0918 10:27:00.725845 31184 net.cpp:122] Setting up deconv1_2
I0918 10:27:00.725858 31184 net.cpp:129] Top shape: 2 64 224 224 (6422528)
I0918 10:27:00.725863 31184 net.cpp:137] Memory required for data: 637837312
I0918 10:27:00.725873 31184 layer_factory.hpp:77] Creating layer debatchnorm1_2
I0918 10:27:00.725880 31184 net.cpp:84] Creating Layer debatchnorm1_2
I0918 10:27:00.725885 31184 net.cpp:406] debatchnorm1_2 <- deconv1_2
I0918 10:27:00.725893 31184 net.cpp:367] debatchnorm1_2 -> deconv1_2 (in-place)
I0918 10:27:00.726122 31184 net.cpp:122] Setting up debatchnorm1_2
I0918 10:27:00.726130 31184 net.cpp:129] Top shape: 2 64 224 224 (6422528)
I0918 10:27:00.726135 31184 net.cpp:137] Memory required for data: 663527424
I0918 10:27:00.726145 31184 layer_factory.hpp:77] Creating layer deelu1_2
I0918 10:27:00.726151 31184 net.cpp:84] Creating Layer deelu1_2
I0918 10:27:00.726157 31184 net.cpp:406] deelu1_2 <- deconv1_2
I0918 10:27:00.726163 31184 net.cpp:367] deelu1_2 -> deconv1_2 (in-place)
I0918 10:27:00.726171 31184 net.cpp:122] Setting up deelu1_2
I0918 10:27:00.726177 31184 net.cpp:129] Top shape: 2 64 224 224 (6422528)
I0918 10:27:00.726182 31184 net.cpp:137] Memory required for data: 689217536
I0918 10:27:00.726187 31184 layer_factory.hpp:77] Creating layer segmentation
I0918 10:27:00.726200 31184 net.cpp:84] Creating Layer segmentation
I0918 10:27:00.726205 31184 net.cpp:406] segmentation <- deconv1_2
I0918 10:27:00.726213 31184 net.cpp:380] segmentation -> segmentation
I0918 10:27:00.728631 31184 net.cpp:122] Setting up segmentation
I0918 10:27:00.728642 31184 net.cpp:129] Top shape: 2 2 224 224 (200704)
I0918 10:27:00.728646 31184 net.cpp:137] Memory required for data: 690020352
I0918 10:27:00.728652 31184 layer_factory.hpp:77] Creating layer infogainLoss
I0918 10:27:00.728660 31184 net.cpp:84] Creating Layer infogainLoss
I0918 10:27:00.728664 31184 net.cpp:406] infogainLoss <- segmentation
I0918 10:27:00.728668 31184 net.cpp:406] infogainLoss <- label
I0918 10:27:00.728675 31184 net.cpp:380] infogainLoss -> loss
…
I0918 10:27:00.730692 31184 solver.cpp:172] Creating test net (#0) specified by net file: train_val.prototxt
I0918 10:27:00.730754 31184 net.cpp:294] The NetState phase (1) differed from the phase (0) specified by a rule in layer data
I0918 10:27:00.731034 31184 net.cpp:51] Initializing net from parameters: 
name: "SegNet7"
state {
  phase: TEST
}
layer {
  name: "data"
  type: "HDF5Data"
  top: "data"
  top: "label"
  include {
    phase: TEST
  }
  hdf5_data_param {
    source: "/home/grochette/Documents/SegNet/data/HDF5/Validation/hdf5_list.txt"
    batch_size: 2
  }
}
layer {
  name: "batchnorm0"
  type: "BatchNorm"
  bottom: "data"
  top: "data"
}
layer {
  name: "conv1_1"
  type: "Convolution"
  bottom: "data"
  top: "conv1_1"
  param {
    lr_mult: 1
    decay_mult: 1
  }
  param {
    lr_mult: 2
    decay_mult: 0
  }
  convolution_param {
    num_output: 64
    pad: 1
    kernel_size: 3
    stride: 1
    weight_filler {
      type: "xavier"
    }
    bias_filler {
      type: "constant"
    }
  }
}
layer {
  name: "batchnorm1_1"
  type: "BatchNorm"
  bottom: "conv1_1"
  top: "conv1_1"
}
layer {
  name: "elu1_1"
  type: "ELU"
  bottom: "conv1_1"
  top: "conv1_1"
}
layer {
  name: "conv1_2"
  type: "Convolution"
  bottom: "conv1_1"
  top: "conv1_2"
  param {
    lr_mult: 1
    decay_mult: 1
  }
  param {
    lr_mult: 2
    decay_mult: 0
  }
  convolution_param {
    num_output: 64
    pad: 1
    kernel_size: 3
    stride: 1
    weight_filler {
      type: "xavier"
    }
    bias_filler {
      type: "constant"
    }
  }
}
layer {
  name: "batchnorm1_2"
  type: "BatchNorm"
  bottom: "conv1_2"
  top: "conv1_2"
}
layer {
  name: "elu1_2"
  type: "ELU"
  bottom: "conv1_2"
  top: "conv1_2"
}
layer {
  name: "pool1"
  type: "Pooling"
  bottom: "conv1_2"
  top: "pool1"
  top: "pool1_mask"
  top: "pool1_argmax_count"
  pooling_param {
    pool: MAX
    kernel_size: 2
    stride: 2
  }
}
layer {
  name: "conv2_1"
  type: "Convolution"
  bottom: "pool1"
  top: "conv2_1"
  param {
    lr_mult: 1
    decay_mult: 1
  }
  param {
    lr_mult: 2
    decay_mult: 0
  }
  convolution_param {
    num_output: 128
    pad: 1
    kernel_size: 3
    stride: 1
    weight_filler {
      type: "xavier"
    }
    bias_filler {
      type: "constant"
    }
  }
}
layer {
  name: "batchnorm2_1"
  type: "BatchNorm"
  bottom: "conv2_1"
  top: "conv2_1"
}
layer {
  name: "elu2_1"
  type: "ELU"
  bottom: "conv2_1"
  top: "conv2_1"
}
layer {
  name: "conv2_2"
  type: "Convolution"
  bottom: "conv2_1"
  top: "conv2_2"
  param {
    lr_mult: 1
    decay_mult: 1
  }
  param {
    lr_mult: 2
    decay_mult: 0
  }
  convolution_param {
    num_output: 128
    pad: 1
    kernel_size: 3
    stride: 1
    weight_filler {
      type: "xavier"
    }
    bias_filler {
      type: "constant"
    }
  }
}
layer {
  name: "batchnorm2_2"
  type: "BatchNorm"
  bottom: "conv2_2"
  top: "conv2_2"
}
layer {
  name: "elu2_2"
  type: "ELU"
  bottom: "conv2_2"
  top: "conv2_2"
}
layer {
  name: "pool2"
  type: "Pooling"
  bottom: "conv2_2"
  top: "pool2"
  top: "pool2_mask"
  top: "pool2_argmax_count"
  pooling_param {
    pool: MAX
    kernel_size: 2
    stride: 2
  }
}
layer {
  name: "conv3_1"
  type: "Convolution"
  bottom: "pool2"
  top: "conv3_1"
  param {
    lr_mult: 1
    decay_mult: 1
  }
  param {
    lr_mult: 2
    decay_mult: 0
  }
  convolution_param {
    num_output: 256
    pad: 1
    kernel_size: 3
    stride: 1
    weight_filler {
      type: "xavier"
    }
    bias_filler {
      type: "constant"
    }
  }
}
layer {
  name: "batchnorm3_1"
  type: "BatchNorm"
  bottom: "conv3_1"
  top: "conv3_1"
}
layer {
  name: "elu3_1"
  type: "ELU"
  bottom: "conv3_1"
  top: "conv3_1"
}
layer {
  name: "conv3_2"
  type: "Convolution"
  bottom: "conv3_1"
  top: "conv3_2"
  param {
    lr_mult: 1
    decay_mult: 1
  }
  param {
    lr_mult: 2
    decay_mult: 0
  }
  convolution_param {
    num_output: 256
    pad: 1
    kernel_size: 3
    stride: 1
    weight_filler {
      type: "xavier"
    }
    bias_filler {
      type: "constant"
    }
  }
}
layer {
  name: "batchnorm3_2"
  type: "BatchNorm"
  bottom: "conv3_2"
  top: "conv3_2"
}
layer {
  name: "elu3_2"
  type: "ELU"
  bottom: "conv3_2"
  top: "conv3_2"
}
layer {
  name: "conv3_3"
  type: "Convolution"
  bottom: "conv3_2"
  top: "conv3_3"
  param {
    lr_mult: 1
    decay_mult: 1
  }
  param {
    lr_mult: 2
    decay_mult: 0
  }
  convolution_param {
    num_output: 256
    pad: 1
    kernel_size: 3
    stride: 1
    weight_filler {
      type: "xavier"
    }
    bias_filler {
      type: "constant"
    }
  }
}
layer {
  name: "batchnorm3_3"
  type: "BatchNorm"
  bottom: "conv3_3"
  top: "conv3_3"
}
layer {
  name: "elu3_3"
  type: "ELU"
  bottom: "conv3_3"
  top: "conv3_3"
}
layer {
  name: "pool3"
  type: "Pooling"
  bottom: "conv3_3"
  top: "pool3"
  top: "pool3_mask"
  top: "pool3_argmax_count"
  pooling_param {
    pool: MAX
    kernel_size: 2
    stride: 2
  }
}
layer {
  name: "conv4_1"
  type: "Convolution"
  bottom: "pool3"
  top: "conv4_1"
  param {
    lr_mult: 1
    decay_mult: 1
  }
  param {
    lr_mult: 2
    decay_mult: 0
  }
  convolution_param {
    num_output: 512
    pad: 1
    kernel_size: 3
    stride: 1
    weight_filler {
      type: "xavier"
    }
    bias_filler {
      type: "constant"
    }
  }
}
layer {
  name: "batchnorm4_1"
  type: "BatchNorm"
  bottom: "conv4_1"
  top: "conv4_1"
}
layer {
  name: "elu4_1"
  type: "ELU"
  bottom: "conv4_1"
  top: "conv4_1"
}
layer {
  name: "conv4_2"
  type: "Convolution"
  bottom: "conv4_1"
  top: "conv4_2"
  param {
    lr_mult: 1
    decay_mult: 1
  }
  param {
    lr_mult: 2
    decay_mult: 0
  }
  convolution_param {
    num_output: 512
    pad: 1
    kernel_size: 3
    stride: 1
    weight_filler {
      type: "xavier"
    }
    bias_filler {
      type: "constant"
    }
  }
}
layer {
  name: "batchnorm4_2"
  type: "BatchNorm"
  bottom: "conv4_2"
  top: "conv4_2"
}
layer {
  name: "elu4_2"
  type: "ELU"
  bottom: "conv4_2"
  top: "conv4_2"
}
layer {
  name: "deconv4_3"
  type: "Deconvolution"
  bottom: "conv4_2"
  top: "deconv4_3"
  param {
    lr_mult: 1
    decay_mult: 1
  }
  param {
    lr_mult: 2
    decay_mult: 0
  }
  convolution_param {
    num_output: 256
    pad: 1
    kernel_size: 3
    stride: 1
    weight_filler {
      type: "xavier"
    }
    bias_filler {
      type: "constant"
    }
  }
}
layer {
  name: "debatchnorm4_3"
  type: "BatchNorm"
  bottom: "deconv4_3"
  top: "deconv4_3"
}
layer {
  name: "deelu4_3"
  type: "ELU"
  bottom: "deconv4_3"
  top: "deconv4_3"
}
layer {
  name: "unpool3"
  type: "Unpooling"
  bottom: "deconv4_3"
  bottom: "pool3_mask"
  bottom: "pool3_argmax_count"
  top: "unpool3"
  pooling_param {
    pool: MAX
    kernel_size: 2
    stride: 2
  }
}
layer {
  name: "deconv3_1"
  type: "Deconvolution"
  bottom: "unpool3"
  top: "deconv3_1"
  param {
    lr_mult: 1
    decay_mult: 1
  }
  param {
    lr_mult: 2
    decay_mult: 0
  }
  convolution_param {
    num_output: 256
    pad: 1
    kernel_size: 3
    stride: 1
    weight_filler {
      type: "xavier"
    }
    bias_filler {
      type: "constant"
    }
  }
}
layer {
  name: "debatchnorm3_1"
  type: "BatchNorm"
  bottom: "deconv3_1"
  top: "deconv3_1"
}
layer {
  name: "deelu3_1"
  type: "ELU"
  bottom: "deconv3_1"
  top: "deconv3_1"
}
layer {
  name: "deconv3_2"
  type: "Deconvolution"
  bottom: "deconv3_1"
  top: "deconv3_2"
  param {
    lr_mult: 1
    decay_mult: 1
  }
  param {
    lr_mult: 2
    decay_mult: 0
  }
  convolution_param {
    num_output: 256
    pad: 1
    kernel_size: 3
    stride: 1
    weight_filler {
      type: "xavier"
    }
    bias_filler {
      type: "constant"
    }
  }
}
layer {
  name: "debatchnorm3_2"
  type: "BatchNorm"
  bottom: "deconv3_2"
  top: "deconv3_2"
}
layer {
  name: "deelu3_2"
  type: "ELU"
  bottom: "deconv3_2"
  top: "deconv3_2"
}
layer {
  name: "deconv3_3"
  type: "Deconvolution"
  bottom: "deconv3_2"
  top: "deconv3_3"
  param {
    lr_mult: 1
    decay_mult: 1
  }
  param {
    lr_mult: 2
    decay_mult: 0
  }
  convolution_param {
    num_output: 128
    pad: 1
    kernel_size: 3
    stride: 1
    weight_filler {
      type: "xavier"
    }
    bias_filler {
      type: "constant"
    }
  }
}
layer {
  name: "debatchnorm3_3"
  type: "BatchNorm"
  bottom: "deconv3_3"
  top: "deconv3_3"
}
layer {
  name: "deelu3_3"
  type: "ELU"
  bottom: "deconv3_3"
  top: "deconv3_3"
}
layer {
  name: "unpool2"
  type: "Unpooling"
  bottom: "deconv3_3"
  bottom: "pool2_mask"
  bottom: "pool2_argmax_count"
  top: "unpool2"
  pooling_param {
    pool: MAX
    kernel_size: 2
    stride: 2
  }
}
layer {
  name: "deconv2_1"
  type: "Deconvolution"
  bottom: "unpool2"
  top: "deconv2_1"
  param {
    lr_mult: 1
    decay_mult: 1
  }
  param {
    lr_mult: 2
    decay_mult: 0
  }
  convolution_param {
    num_output: 128
    pad: 1
    kernel_size: 3
    stride: 1
    weight_filler {
      type: "xavier"
    }
    bias_filler {
      type: "constant"
    }
  }
}
layer {
  name: "debatchnorm2_1"
  type: "BatchNorm"
  bottom: "deconv2_1"
  top: "deconv2_1"
}
layer {
  name: "deelu2_1"
  type: "ELU"
  bottom: "deconv2_1"
  top: "deconv2_1"
}
layer {
  name: "deconv2_2"
  type: "Deconvolution"
  bottom: "deconv2_1"
  top: "deconv2_2"
  param {
    lr_mult: 1
    decay_mult: 1
  }
  param {
    lr_mult: 2
    decay_mult: 0
  }
  convolution_param {
    num_output: 64
    pad: 1
    kernel_size: 3
    stride: 1
    weight_filler {
      type: "xavier"
    }
    bias_filler {
      type: "constant"
    }
  }
}
layer {
  name: "debatchnorm2_2"
  type: "BatchNorm"
  bottom: "deconv2_2"
  top: "deconv2_2"
}
layer {
  name: "deelu2_2"
  type: "ELU"
  bottom: "deconv2_2"
  top: "deconv2_2"
}
layer {
  name: "unpool1"
  type: "Unpooling"
  bottom: "deconv2_2"
  bottom: "pool1_mask"
  bottom: "pool1_argmax_count"
  top: "unpool1"
  pooling_param {
    pool: MAX
    kernel_size: 2
    stride: 2
  }
}
layer {
  name: "deconv1_1"
  type: "Deconvolution"
  bottom: "unpool1"
  top: "deconv1_1"
  param {
    lr_mult: 1
    decay_mult: 1
  }
  param {
    lr_mult: 2
    decay_mult: 0
  }
  convolution_param {
    num_output: 64
    pad: 1
    kernel_size: 3
    stride: 1
    weight_filler {
      type: "xavier"
    }
    bias_filler {
      type: "constant"
    }
  }
}
layer {
  name: "debatchnorm1_1"
  type: "BatchNorm"
  bottom: "deconv1_1"
  top: "deconv1_1"
}
layer {
  name: "deelu1_1"
  type: "ELU"
  bottom: "deconv1_1"
  top: "deconv1_1"
}
layer {
  name: "deconv1_2"
  type: "Deconvolution"
  bottom: "deconv1_1"
  top: "deconv1_2"
  param {
    lr_mult: 1
    decay_mult: 1
  }
  param {
    lr_mult: 2
    decay_mult: 0
  }
  convolution_param {
    num_output: 64
    pad: 1
    kernel_size: 3
    stride: 1
    weight_filler {
      type: "xavier"
    }
    bias_filler {
      type: "constant"
    }
  }
}
layer {
  name: "debatchnorm1_2"
  type: "BatchNorm"
  bottom: "deconv1_2"
  top: "deconv1_2"
}
layer {
  name: "deelu1_2"
  type: "ELU"
  bottom: "deconv1_2"
  top: "deconv1_2"
}
layer {
  name: "segmentation"
  type: "Convolution"
  bottom: "deconv1_2"
  top: "segmentation"
  param {
    lr_mult: 1
    decay_mult: 1
  }
  param {
    lr_mult: 2
    decay_mult: 0
  }
  convolution_param {
    num_output: 2
    pad: 0
    kernel_size: 1
    weight_filler {
      type: "xavier"
    }
    bias_filler {
      type: "constant"
    }
  }
}
layer {
  name: "infogainLoss"
  type: "InfogainLoss"
  bottom: "segmentation"
  bottom: "label"
  top: "loss"
  loss_param {
    ignore_label: 2
  }
  infogain_loss_param {
    source: "/home/grochette/Documents/SegNet/data/CleanData/infogainH.binaryproto"
  }
}
layer {
  name: "accuracy"
  type: "Accuracy"
  bottom: "segmentation"
  bottom: "label"
  top: "accuracy"
  top: "per_class_accuracy"
  include {
    phase: TEST
  }
  accuracy_param {
    ignore_label: 2
  }
}
I0918 10:27:00.731519 31184 layer_factory.hpp:77] Creating layer data
I0918 10:27:00.731529 31184 net.cpp:84] Creating Layer data
I0918 10:27:00.731534 31184 net.cpp:380] data -> data
I0918 10:27:00.731541 31184 net.cpp:380] data -> label
I0918 10:27:00.731546 31184 hdf5_data_layer.cpp:80] Loading list of HDF5 filenames from: /home/grochette/Documents/SegNet/data/HDF5/Validation/hdf5_list.txt
I0918 10:27:00.731572 31184 hdf5_data_layer.cpp:94] Number of HDF5 files: 10
I0918 10:27:01.200929 31184 net.cpp:122] Setting up data
I0918 10:27:01.200956 31184 net.cpp:129] Top shape: 2 4 224 224 (401408)
I0918 10:27:01.200961 31184 net.cpp:129] Top shape: 2 1 224 224 (100352)
I0918 10:27:01.200963 31184 net.cpp:137] Memory required for data: 2007040
I0918 10:27:01.200968 31184 layer_factory.hpp:77] Creating layer label_data_1_split
I0918 10:27:01.200979 31184 net.cpp:84] Creating Layer label_data_1_split
I0918 10:27:01.200984 31184 net.cpp:406] label_data_1_split <- label
I0918 10:27:01.200990 31184 net.cpp:380] label_data_1_split -> label_data_1_split_0
I0918 10:27:01.200999 31184 net.cpp:380] label_data_1_split -> label_data_1_split_1
I0918 10:27:01.201043 31184 net.cpp:122] Setting up label_data_1_split
I0918 10:27:01.201050 31184 net.cpp:129] Top shape: 2 1 224 224 (100352)
I0918 10:27:01.201053 31184 net.cpp:129] Top shape: 2 1 224 224 (100352)
I0918 10:27:01.201056 31184 net.cpp:137] Memory required for data: 2809856
I0918 10:27:01.201061 31184 layer_factory.hpp:77] Creating layer batchnorm0
I0918 10:27:01.201066 31184 net.cpp:84] Creating Layer batchnorm0
I0918 10:27:01.201071 31184 net.cpp:406] batchnorm0 <- data
I0918 10:27:01.201074 31184 net.cpp:367] batchnorm0 -> data (in-place)
I0918 10:27:01.201303 31184 net.cpp:122] Setting up batchnorm0
I0918 10:27:01.201309 31184 net.cpp:129] Top shape: 2 4 224 224 (401408)
I0918 10:27:01.201313 31184 net.cpp:137] Memory required for data: 4415488
I0918 10:27:01.201323 31184 layer_factory.hpp:77] Creating layer conv1_1
I0918 10:27:01.201331 31184 net.cpp:84] Creating Layer conv1_1
I0918 10:27:01.201334 31184 net.cpp:406] conv1_1 <- data
I0918 10:27:01.201339 31184 net.cpp:380] conv1_1 -> conv1_1
I0918 10:27:01.203552 31184 net.cpp:122] Setting up conv1_1
I0918 10:27:01.203563 31184 net.cpp:129] Top shape: 2 64 224 224 (6422528)
I0918 10:27:01.203567 31184 net.cpp:137] Memory required for data: 30105600
I0918 10:27:01.203575 31184 layer_factory.hpp:77] Creating layer batchnorm1_1
I0918 10:27:01.203582 31184 net.cpp:84] Creating Layer batchnorm1_1
I0918 10:27:01.203584 31184 net.cpp:406] batchnorm1_1 <- conv1_1
I0918 10:27:01.203589 31184 net.cpp:367] batchnorm1_1 -> conv1_1 (in-place)
I0918 10:27:01.204265 31184 net.cpp:122] Setting up batchnorm1_1
I0918 10:27:01.204275 31184 net.cpp:129] Top shape: 2 64 224 224 (6422528)
I0918 10:27:01.204278 31184 net.cpp:137] Memory required for data: 55795712
I0918 10:27:01.204286 31184 layer_factory.hpp:77] Creating layer elu1_1
I0918 10:27:01.204291 31184 net.cpp:84] Creating Layer elu1_1
I0918 10:27:01.204294 31184 net.cpp:406] elu1_1 <- conv1_1
I0918 10:27:01.204298 31184 net.cpp:367] elu1_1 -> conv1_1 (in-place)
I0918 10:27:01.204304 31184 net.cpp:122] Setting up elu1_1
I0918 10:27:01.204308 31184 net.cpp:129] Top shape: 2 64 224 224 (6422528)
I0918 10:27:01.204311 31184 net.cpp:137] Memory required for data: 81485824
I0918 10:27:01.204315 31184 layer_factory.hpp:77] Creating layer conv1_2
I0918 10:27:01.204324 31184 net.cpp:84] Creating Layer conv1_2
I0918 10:27:01.204326 31184 net.cpp:406] conv1_2 <- conv1_1
I0918 10:27:01.204330 31184 net.cpp:380] conv1_2 -> conv1_2
I0918 10:27:01.206300 31184 net.cpp:122] Setting up conv1_2
I0918 10:27:01.206312 31184 net.cpp:129] Top shape: 2 64 224 224 (6422528)
I0918 10:27:01.206316 31184 net.cpp:137] Memory required for data: 107175936
I0918 10:27:01.206324 31184 layer_factory.hpp:77] Creating layer batchnorm1_2
I0918 10:27:01.206329 31184 net.cpp:84] Creating Layer batchnorm1_2
I0918 10:27:01.206333 31184 net.cpp:406] batchnorm1_2 <- conv1_2
I0918 10:27:01.206338 31184 net.cpp:367] batchnorm1_2 -> conv1_2 (in-place)
I0918 10:27:01.206567 31184 net.cpp:122] Setting up batchnorm1_2
I0918 10:27:01.206573 31184 net.cpp:129] Top shape: 2 64 224 224 (6422528)
I0918 10:27:01.206576 31184 net.cpp:137] Memory required for data: 132866048
I0918 10:27:01.206583 31184 layer_factory.hpp:77] Creating layer elu1_2
I0918 10:27:01.206588 31184 net.cpp:84] Creating Layer elu1_2
I0918 10:27:01.206590 31184 net.cpp:406] elu1_2 <- conv1_2
I0918 10:27:01.206614 31184 net.cpp:367] elu1_2 -> conv1_2 (in-place)
I0918 10:27:01.206619 31184 net.cpp:122] Setting up elu1_2
I0918 10:27:01.206624 31184 net.cpp:129] Top shape: 2 64 224 224 (6422528)
I0918 10:27:01.206626 31184 net.cpp:137] Memory required for data: 158556160
I0918 10:27:01.206630 31184 layer_factory.hpp:77] Creating layer pool1
I0918 10:27:01.206634 31184 layer_factory.cpp:91] cuDNN does not support multiple tops. Using Caffe's own pooling layer.
I0918 10:27:01.206640 31184 net.cpp:84] Creating Layer pool1
I0918 10:27:01.206642 31184 net.cpp:406] pool1 <- conv1_2
I0918 10:27:01.206648 31184 net.cpp:380] pool1 -> pool1
I0918 10:27:01.206655 31184 net.cpp:380] pool1 -> pool1_mask
I0918 10:27:01.206660 31184 net.cpp:380] pool1 -> pool1_argmax_count
I0918 10:27:01.206717 31184 net.cpp:122] Setting up pool1
I0918 10:27:01.206724 31184 net.cpp:129] Top shape: 2 64 112 112 (1605632)
I0918 10:27:01.206728 31184 net.cpp:129] Top shape: 2 64 112 112 (1605632)
I0918 10:27:01.206732 31184 net.cpp:129] Top shape: 2 64 224 224 (6422528)
I0918 10:27:01.206734 31184 net.cpp:137] Memory required for data: 197091328
I0918 10:27:01.206738 31184 layer_factory.hpp:77] Creating layer conv2_1
I0918 10:27:01.206745 31184 net.cpp:84] Creating Layer conv2_1
I0918 10:27:01.206748 31184 net.cpp:406] conv2_1 <- pool1
I0918 10:27:01.206753 31184 net.cpp:380] conv2_1 -> conv2_1
I0918 10:27:01.209364 31184 net.cpp:122] Setting up conv2_1
I0918 10:27:01.209375 31184 net.cpp:129] Top shape: 2 128 112 112 (3211264)
I0918 10:27:01.209378 31184 net.cpp:137] Memory required for data: 209936384
I0918 10:27:01.209384 31184 layer_factory.hpp:77] Creating layer batchnorm2_1
I0918 10:27:01.209390 31184 net.cpp:84] Creating Layer batchnorm2_1
I0918 10:27:01.209393 31184 net.cpp:406] batchnorm2_1 <- conv2_1
I0918 10:27:01.209398 31184 net.cpp:367] batchnorm2_1 -> conv2_1 (in-place)
I0918 10:27:01.209625 31184 net.cpp:122] Setting up batchnorm2_1
I0918 10:27:01.209632 31184 net.cpp:129] Top shape: 2 128 112 112 (3211264)
I0918 10:27:01.209635 31184 net.cpp:137] Memory required for data: 222781440
I0918 10:27:01.209645 31184 layer_factory.hpp:77] Creating layer elu2_1
I0918 10:27:01.209648 31184 net.cpp:84] Creating Layer elu2_1
I0918 10:27:01.209652 31184 net.cpp:406] elu2_1 <- conv2_1
I0918 10:27:01.209656 31184 net.cpp:367] elu2_1 -> conv2_1 (in-place)
I0918 10:27:01.209661 31184 net.cpp:122] Setting up elu2_1
I0918 10:27:01.209666 31184 net.cpp:129] Top shape: 2 128 112 112 (3211264)
I0918 10:27:01.209671 31184 net.cpp:137] Memory required for data: 235626496
I0918 10:27:01.209673 31184 layer_factory.hpp:77] Creating layer conv2_2
I0918 10:27:01.209681 31184 net.cpp:84] Creating Layer conv2_2
I0918 10:27:01.209684 31184 net.cpp:406] conv2_2 <- conv2_1
I0918 10:27:01.209691 31184 net.cpp:380] conv2_2 -> conv2_2
I0918 10:27:01.212263 31184 net.cpp:122] Setting up conv2_2
I0918 10:27:01.212275 31184 net.cpp:129] Top shape: 2 128 112 112 (3211264)
I0918 10:27:01.212278 31184 net.cpp:137] Memory required for data: 248471552
I0918 10:27:01.212285 31184 layer_factory.hpp:77] Creating layer batchnorm2_2
I0918 10:27:01.212291 31184 net.cpp:84] Creating Layer batchnorm2_2
I0918 10:27:01.212293 31184 net.cpp:406] batchnorm2_2 <- conv2_2
I0918 10:27:01.212297 31184 net.cpp:367] batchnorm2_2 -> conv2_2 (in-place)
I0918 10:27:01.212525 31184 net.cpp:122] Setting up batchnorm2_2
I0918 10:27:01.212532 31184 net.cpp:129] Top shape: 2 128 112 112 (3211264)
I0918 10:27:01.212535 31184 net.cpp:137] Memory required for data: 261316608
I0918 10:27:01.212541 31184 layer_factory.hpp:77] Creating layer elu2_2
I0918 10:27:01.212546 31184 net.cpp:84] Creating Layer elu2_2
I0918 10:27:01.212549 31184 net.cpp:406] elu2_2 <- conv2_2
I0918 10:27:01.212553 31184 net.cpp:367] elu2_2 -> conv2_2 (in-place)
I0918 10:27:01.212558 31184 net.cpp:122] Setting up elu2_2
I0918 10:27:01.212561 31184 net.cpp:129] Top shape: 2 128 112 112 (3211264)
I0918 10:27:01.212564 31184 net.cpp:137] Memory required for data: 274161664
I0918 10:27:01.212568 31184 layer_factory.hpp:77] Creating layer pool2
I0918 10:27:01.212584 31184 layer_factory.cpp:91] cuDNN does not support multiple tops. Using Caffe's own pooling layer.
I0918 10:27:01.212592 31184 net.cpp:84] Creating Layer pool2
I0918 10:27:01.212596 31184 net.cpp:406] pool2 <- conv2_2
I0918 10:27:01.212601 31184 net.cpp:380] pool2 -> pool2
I0918 10:27:01.212607 31184 net.cpp:380] pool2 -> pool2_mask
I0918 10:27:01.212615 31184 net.cpp:380] pool2 -> pool2_argmax_count
I0918 10:27:01.212672 31184 net.cpp:122] Setting up pool2
I0918 10:27:01.212680 31184 net.cpp:129] Top shape: 2 128 56 56 (802816)
I0918 10:27:01.212684 31184 net.cpp:129] Top shape: 2 128 56 56 (802816)
I0918 10:27:01.212689 31184 net.cpp:129] Top shape: 2 128 112 112 (3211264)
I0918 10:27:01.212692 31184 net.cpp:137] Memory required for data: 293429248
I0918 10:27:01.212697 31184 layer_factory.hpp:77] Creating layer conv3_1
I0918 10:27:01.212704 31184 net.cpp:84] Creating Layer conv3_1
I0918 10:27:01.212709 31184 net.cpp:406] conv3_1 <- pool2
I0918 10:27:01.212715 31184 net.cpp:380] conv3_1 -> conv3_1
I0918 10:27:01.216595 31184 net.cpp:122] Setting up conv3_1
I0918 10:27:01.216610 31184 net.cpp:129] Top shape: 2 256 56 56 (1605632)
I0918 10:27:01.216615 31184 net.cpp:137] Memory required for data: 299851776
I0918 10:27:01.216622 31184 layer_factory.hpp:77] Creating layer batchnorm3_1
I0918 10:27:01.216629 31184 net.cpp:84] Creating Layer batchnorm3_1
I0918 10:27:01.216632 31184 net.cpp:406] batchnorm3_1 <- conv3_1
I0918 10:27:01.216639 31184 net.cpp:367] batchnorm3_1 -> conv3_1 (in-place)
I0918 10:27:01.216877 31184 net.cpp:122] Setting up batchnorm3_1
I0918 10:27:01.216883 31184 net.cpp:129] Top shape: 2 256 56 56 (1605632)
I0918 10:27:01.216887 31184 net.cpp:137] Memory required for data: 306274304
I0918 10:27:01.216894 31184 layer_factory.hpp:77] Creating layer elu3_1
I0918 10:27:01.216902 31184 net.cpp:84] Creating Layer elu3_1
I0918 10:27:01.216907 31184 net.cpp:406] elu3_1 <- conv3_1
I0918 10:27:01.216912 31184 net.cpp:367] elu3_1 -> conv3_1 (in-place)
I0918 10:27:01.216917 31184 net.cpp:122] Setting up elu3_1
I0918 10:27:01.216922 31184 net.cpp:129] Top shape: 2 256 56 56 (1605632)
I0918 10:27:01.216925 31184 net.cpp:137] Memory required for data: 312696832
I0918 10:27:01.216928 31184 layer_factory.hpp:77] Creating layer conv3_2
I0918 10:27:01.216938 31184 net.cpp:84] Creating Layer conv3_2
I0918 10:27:01.216943 31184 net.cpp:406] conv3_2 <- conv3_1
I0918 10:27:01.216948 31184 net.cpp:380] conv3_2 -> conv3_2
I0918 10:27:01.222555 31184 net.cpp:122] Setting up conv3_2
I0918 10:27:01.222568 31184 net.cpp:129] Top shape: 2 256 56 56 (1605632)
I0918 10:27:01.222573 31184 net.cpp:137] Memory required for data: 319119360
I0918 10:27:01.222579 31184 layer_factory.hpp:77] Creating layer batchnorm3_2
I0918 10:27:01.222586 31184 net.cpp:84] Creating Layer batchnorm3_2
I0918 10:27:01.222591 31184 net.cpp:406] batchnorm3_2 <- conv3_2
I0918 10:27:01.222596 31184 net.cpp:367] batchnorm3_2 -> conv3_2 (in-place)
I0918 10:27:01.222829 31184 net.cpp:122] Setting up batchnorm3_2
I0918 10:27:01.222836 31184 net.cpp:129] Top shape: 2 256 56 56 (1605632)
I0918 10:27:01.222841 31184 net.cpp:137] Memory required for data: 325541888
I0918 10:27:01.222851 31184 layer_factory.hpp:77] Creating layer elu3_2
I0918 10:27:01.222856 31184 net.cpp:84] Creating Layer elu3_2
I0918 10:27:01.222860 31184 net.cpp:406] elu3_2 <- conv3_2
I0918 10:27:01.222865 31184 net.cpp:367] elu3_2 -> conv3_2 (in-place)
I0918 10:27:01.222872 31184 net.cpp:122] Setting up elu3_2
I0918 10:27:01.222875 31184 net.cpp:129] Top shape: 2 256 56 56 (1605632)
I0918 10:27:01.222879 31184 net.cpp:137] Memory required for data: 331964416
I0918 10:27:01.222883 31184 layer_factory.hpp:77] Creating layer conv3_3
I0918 10:27:01.222892 31184 net.cpp:84] Creating Layer conv3_3
I0918 10:27:01.222896 31184 net.cpp:406] conv3_3 <- conv3_2
I0918 10:27:01.222903 31184 net.cpp:380] conv3_3 -> conv3_3
I0918 10:27:01.228549 31184 net.cpp:122] Setting up conv3_3
I0918 10:27:01.228561 31184 net.cpp:129] Top shape: 2 256 56 56 (1605632)
I0918 10:27:01.228565 31184 net.cpp:137] Memory required for data: 338386944
I0918 10:27:01.228588 31184 layer_factory.hpp:77] Creating layer batchnorm3_3
I0918 10:27:01.228597 31184 net.cpp:84] Creating Layer batchnorm3_3
I0918 10:27:01.228601 31184 net.cpp:406] batchnorm3_3 <- conv3_3
I0918 10:27:01.228607 31184 net.cpp:367] batchnorm3_3 -> conv3_3 (in-place)
I0918 10:27:01.228847 31184 net.cpp:122] Setting up batchnorm3_3
I0918 10:27:01.228853 31184 net.cpp:129] Top shape: 2 256 56 56 (1605632)
I0918 10:27:01.228857 31184 net.cpp:137] Memory required for data: 344809472
I0918 10:27:01.228863 31184 layer_factory.hpp:77] Creating layer elu3_3
I0918 10:27:01.228868 31184 net.cpp:84] Creating Layer elu3_3
I0918 10:27:01.228873 31184 net.cpp:406] elu3_3 <- conv3_3
I0918 10:27:01.228878 31184 net.cpp:367] elu3_3 -> conv3_3 (in-place)
I0918 10:27:01.228883 31184 net.cpp:122] Setting up elu3_3
I0918 10:27:01.228888 31184 net.cpp:129] Top shape: 2 256 56 56 (1605632)
I0918 10:27:01.228893 31184 net.cpp:137] Memory required for data: 351232000
I0918 10:27:01.228895 31184 layer_factory.hpp:77] Creating layer pool3
I0918 10:27:01.228899 31184 layer_factory.cpp:91] cuDNN does not support multiple tops. Using Caffe's own pooling layer.
I0918 10:27:01.228906 31184 net.cpp:84] Creating Layer pool3
I0918 10:27:01.228910 31184 net.cpp:406] pool3 <- conv3_3
I0918 10:27:01.228916 31184 net.cpp:380] pool3 -> pool3
I0918 10:27:01.228922 31184 net.cpp:380] pool3 -> pool3_mask
I0918 10:27:01.228927 31184 net.cpp:380] pool3 -> pool3_argmax_count
I0918 10:27:01.228992 31184 net.cpp:122] Setting up pool3
I0918 10:27:01.228999 31184 net.cpp:129] Top shape: 2 256 28 28 (401408)
I0918 10:27:01.229003 31184 net.cpp:129] Top shape: 2 256 28 28 (401408)
I0918 10:27:01.229008 31184 net.cpp:129] Top shape: 2 256 56 56 (1605632)
I0918 10:27:01.229012 31184 net.cpp:137] Memory required for data: 360865792
I0918 10:27:01.229015 31184 layer_factory.hpp:77] Creating layer conv4_1
I0918 10:27:01.229024 31184 net.cpp:84] Creating Layer conv4_1
I0918 10:27:01.229030 31184 net.cpp:406] conv4_1 <- pool3
I0918 10:27:01.229038 31184 net.cpp:380] conv4_1 -> conv4_1
I0918 10:27:01.238355 31184 net.cpp:122] Setting up conv4_1
I0918 10:27:01.238375 31184 net.cpp:129] Top shape: 2 512 28 28 (802816)
I0918 10:27:01.238379 31184 net.cpp:137] Memory required for data: 364077056
I0918 10:27:01.238387 31184 layer_factory.hpp:77] Creating layer batchnorm4_1
I0918 10:27:01.238396 31184 net.cpp:84] Creating Layer batchnorm4_1
I0918 10:27:01.238402 31184 net.cpp:406] batchnorm4_1 <- conv4_1
I0918 10:27:01.238410 31184 net.cpp:367] batchnorm4_1 -> conv4_1 (in-place)
I0918 10:27:01.238641 31184 net.cpp:122] Setting up batchnorm4_1
I0918 10:27:01.238647 31184 net.cpp:129] Top shape: 2 512 28 28 (802816)
I0918 10:27:01.238651 31184 net.cpp:137] Memory required for data: 367288320
I0918 10:27:01.238657 31184 layer_factory.hpp:77] Creating layer elu4_1
I0918 10:27:01.238662 31184 net.cpp:84] Creating Layer elu4_1
I0918 10:27:01.238667 31184 net.cpp:406] elu4_1 <- conv4_1
I0918 10:27:01.238672 31184 net.cpp:367] elu4_1 -> conv4_1 (in-place)
I0918 10:27:01.238678 31184 net.cpp:122] Setting up elu4_1
I0918 10:27:01.238683 31184 net.cpp:129] Top shape: 2 512 28 28 (802816)
I0918 10:27:01.238687 31184 net.cpp:137] Memory required for data: 370499584
I0918 10:27:01.238690 31184 layer_factory.hpp:77] Creating layer conv4_2
I0918 10:27:01.238699 31184 net.cpp:84] Creating Layer conv4_2
I0918 10:27:01.238703 31184 net.cpp:406] conv4_2 <- conv4_1
I0918 10:27:01.238709 31184 net.cpp:380] conv4_2 -> conv4_2
I0918 10:27:01.255089 31184 net.cpp:122] Setting up conv4_2
I0918 10:27:01.255112 31184 net.cpp:129] Top shape: 2 512 28 28 (802816)
I0918 10:27:01.255116 31184 net.cpp:137] Memory required for data: 373710848
I0918 10:27:01.255123 31184 layer_factory.hpp:77] Creating layer batchnorm4_2
I0918 10:27:01.255131 31184 net.cpp:84] Creating Layer batchnorm4_2
I0918 10:27:01.255134 31184 net.cpp:406] batchnorm4_2 <- conv4_2
I0918 10:27:01.255143 31184 net.cpp:367] batchnorm4_2 -> conv4_2 (in-place)
I0918 10:27:01.255376 31184 net.cpp:122] Setting up batchnorm4_2
I0918 10:27:01.255403 31184 net.cpp:129] Top shape: 2 512 28 28 (802816)
I0918 10:27:01.255405 31184 net.cpp:137] Memory required for data: 376922112
I0918 10:27:01.255412 31184 layer_factory.hpp:77] Creating layer elu4_2
I0918 10:27:01.255421 31184 net.cpp:84] Creating Layer elu4_2
I0918 10:27:01.255424 31184 net.cpp:406] elu4_2 <- conv4_2
I0918 10:27:01.255429 31184 net.cpp:367] elu4_2 -> conv4_2 (in-place)
I0918 10:27:01.255435 31184 net.cpp:122] Setting up elu4_2
I0918 10:27:01.255440 31184 net.cpp:129] Top shape: 2 512 28 28 (802816)
I0918 10:27:01.255444 31184 net.cpp:137] Memory required for data: 380133376
I0918 10:27:01.255445 31184 layer_factory.hpp:77] Creating layer deconv4_3
I0918 10:27:01.255460 31184 net.cpp:84] Creating Layer deconv4_3
I0918 10:27:01.255462 31184 net.cpp:406] deconv4_3 <- conv4_2
I0918 10:27:01.255467 31184 net.cpp:380] deconv4_3 -> deconv4_3
I0918 10:27:01.263115 31184 net.cpp:122] Setting up deconv4_3
I0918 10:27:01.263133 31184 net.cpp:129] Top shape: 2 256 28 28 (401408)
I0918 10:27:01.263135 31184 net.cpp:137] Memory required for data: 381739008
I0918 10:27:01.263141 31184 layer_factory.hpp:77] Creating layer debatchnorm4_3
I0918 10:27:01.263147 31184 net.cpp:84] Creating Layer debatchnorm4_3
I0918 10:27:01.263151 31184 net.cpp:406] debatchnorm4_3 <- deconv4_3
I0918 10:27:01.263157 31184 net.cpp:367] debatchnorm4_3 -> deconv4_3 (in-place)
I0918 10:27:01.263392 31184 net.cpp:122] Setting up debatchnorm4_3
I0918 10:27:01.263399 31184 net.cpp:129] Top shape: 2 256 28 28 (401408)
I0918 10:27:01.263404 31184 net.cpp:137] Memory required for data: 383344640
I0918 10:27:01.263413 31184 layer_factory.hpp:77] Creating layer deelu4_3
I0918 10:27:01.263423 31184 net.cpp:84] Creating Layer deelu4_3
I0918 10:27:01.263427 31184 net.cpp:406] deelu4_3 <- deconv4_3
I0918 10:27:01.263432 31184 net.cpp:367] deelu4_3 -> deconv4_3 (in-place)
I0918 10:27:01.263437 31184 net.cpp:122] Setting up deelu4_3
I0918 10:27:01.263442 31184 net.cpp:129] Top shape: 2 256 28 28 (401408)
I0918 10:27:01.263445 31184 net.cpp:137] Memory required for data: 384950272
I0918 10:27:01.263449 31184 layer_factory.hpp:77] Creating layer unpool3
I0918 10:27:01.263455 31184 net.cpp:84] Creating Layer unpool3
I0918 10:27:01.263459 31184 net.cpp:406] unpool3 <- deconv4_3
I0918 10:27:01.263464 31184 net.cpp:406] unpool3 <- pool3_mask
I0918 10:27:01.263469 31184 net.cpp:406] unpool3 <- pool3_argmax_count
I0918 10:27:01.263476 31184 net.cpp:380] unpool3 -> unpool3
I0918 10:27:01.263505 31184 net.cpp:122] Setting up unpool3
I0918 10:27:01.263511 31184 net.cpp:129] Top shape: 2 256 56 56 (1605632)
I0918 10:27:01.263515 31184 net.cpp:137] Memory required for data: 391372800
I0918 10:27:01.263520 31184 layer_factory.hpp:77] Creating layer deconv3_1
I0918 10:27:01.263525 31184 net.cpp:84] Creating Layer deconv3_1
I0918 10:27:01.263530 31184 net.cpp:406] deconv3_1 <- unpool3
I0918 10:27:01.263537 31184 net.cpp:380] deconv3_1 -> deconv3_1
I0918 10:27:01.267632 31184 net.cpp:122] Setting up deconv3_1
I0918 10:27:01.267644 31184 net.cpp:129] Top shape: 2 256 56 56 (1605632)
I0918 10:27:01.267648 31184 net.cpp:137] Memory required for data: 397795328
I0918 10:27:01.267655 31184 layer_factory.hpp:77] Creating layer debatchnorm3_1
I0918 10:27:01.267666 31184 net.cpp:84] Creating Layer debatchnorm3_1
I0918 10:27:01.267671 31184 net.cpp:406] debatchnorm3_1 <- deconv3_1
I0918 10:27:01.267678 31184 net.cpp:367] debatchnorm3_1 -> deconv3_1 (in-place)
I0918 10:27:01.267915 31184 net.cpp:122] Setting up debatchnorm3_1
I0918 10:27:01.267922 31184 net.cpp:129] Top shape: 2 256 56 56 (1605632)
I0918 10:27:01.267925 31184 net.cpp:137] Memory required for data: 404217856
I0918 10:27:01.267932 31184 layer_factory.hpp:77] Creating layer deelu3_1
I0918 10:27:01.267938 31184 net.cpp:84] Creating Layer deelu3_1
I0918 10:27:01.267942 31184 net.cpp:406] deelu3_1 <- deconv3_1
I0918 10:27:01.267946 31184 net.cpp:367] deelu3_1 -> deconv3_1 (in-place)
I0918 10:27:01.267952 31184 net.cpp:122] Setting up deelu3_1
I0918 10:27:01.267957 31184 net.cpp:129] Top shape: 2 256 56 56 (1605632)
I0918 10:27:01.267978 31184 net.cpp:137] Memory required for data: 410640384
I0918 10:27:01.267982 31184 layer_factory.hpp:77] Creating layer deconv3_2
I0918 10:27:01.267992 31184 net.cpp:84] Creating Layer deconv3_2
I0918 10:27:01.267995 31184 net.cpp:406] deconv3_2 <- deconv3_1
I0918 10:27:01.268002 31184 net.cpp:380] deconv3_2 -> deconv3_2
I0918 10:27:01.272084 31184 net.cpp:122] Setting up deconv3_2
I0918 10:27:01.272095 31184 net.cpp:129] Top shape: 2 256 56 56 (1605632)
I0918 10:27:01.272099 31184 net.cpp:137] Memory required for data: 417062912
I0918 10:27:01.272107 31184 layer_factory.hpp:77] Creating layer debatchnorm3_2
I0918 10:27:01.272117 31184 net.cpp:84] Creating Layer debatchnorm3_2
I0918 10:27:01.272121 31184 net.cpp:406] debatchnorm3_2 <- deconv3_2
I0918 10:27:01.272127 31184 net.cpp:367] debatchnorm3_2 -> deconv3_2 (in-place)
I0918 10:27:01.272356 31184 net.cpp:122] Setting up debatchnorm3_2
I0918 10:27:01.272362 31184 net.cpp:129] Top shape: 2 256 56 56 (1605632)
I0918 10:27:01.272367 31184 net.cpp:137] Memory required for data: 423485440
I0918 10:27:01.272373 31184 layer_factory.hpp:77] Creating layer deelu3_2
I0918 10:27:01.272378 31184 net.cpp:84] Creating Layer deelu3_2
I0918 10:27:01.272382 31184 net.cpp:406] deelu3_2 <- deconv3_2
I0918 10:27:01.272387 31184 net.cpp:367] deelu3_2 -> deconv3_2 (in-place)
I0918 10:27:01.272392 31184 net.cpp:122] Setting up deelu3_2
I0918 10:27:01.272397 31184 net.cpp:129] Top shape: 2 256 56 56 (1605632)
I0918 10:27:01.272400 31184 net.cpp:137] Memory required for data: 429907968
I0918 10:27:01.272404 31184 layer_factory.hpp:77] Creating layer deconv3_3
I0918 10:27:01.272411 31184 net.cpp:84] Creating Layer deconv3_3
I0918 10:27:01.272415 31184 net.cpp:406] deconv3_3 <- deconv3_2
I0918 10:27:01.272423 31184 net.cpp:380] deconv3_3 -> deconv3_3
I0918 10:27:01.274688 31184 net.cpp:122] Setting up deconv3_3
I0918 10:27:01.274699 31184 net.cpp:129] Top shape: 2 128 56 56 (802816)
I0918 10:27:01.274703 31184 net.cpp:137] Memory required for data: 433119232
I0918 10:27:01.274719 31184 layer_factory.hpp:77] Creating layer debatchnorm3_3
I0918 10:27:01.274726 31184 net.cpp:84] Creating Layer debatchnorm3_3
I0918 10:27:01.274731 31184 net.cpp:406] debatchnorm3_3 <- deconv3_3
I0918 10:27:01.274736 31184 net.cpp:367] debatchnorm3_3 -> deconv3_3 (in-place)
I0918 10:27:01.274969 31184 net.cpp:122] Setting up debatchnorm3_3
I0918 10:27:01.274976 31184 net.cpp:129] Top shape: 2 128 56 56 (802816)
I0918 10:27:01.274981 31184 net.cpp:137] Memory required for data: 436330496
I0918 10:27:01.274987 31184 layer_factory.hpp:77] Creating layer deelu3_3
I0918 10:27:01.274992 31184 net.cpp:84] Creating Layer deelu3_3
I0918 10:27:01.274996 31184 net.cpp:406] deelu3_3 <- deconv3_3
I0918 10:27:01.275002 31184 net.cpp:367] deelu3_3 -> deconv3_3 (in-place)
I0918 10:27:01.275007 31184 net.cpp:122] Setting up deelu3_3
I0918 10:27:01.275012 31184 net.cpp:129] Top shape: 2 128 56 56 (802816)
I0918 10:27:01.275015 31184 net.cpp:137] Memory required for data: 439541760
I0918 10:27:01.275019 31184 layer_factory.hpp:77] Creating layer unpool2
I0918 10:27:01.275025 31184 net.cpp:84] Creating Layer unpool2
I0918 10:27:01.275029 31184 net.cpp:406] unpool2 <- deconv3_3
I0918 10:27:01.275034 31184 net.cpp:406] unpool2 <- pool2_mask
I0918 10:27:01.275039 31184 net.cpp:406] unpool2 <- pool2_argmax_count
I0918 10:27:01.275044 31184 net.cpp:380] unpool2 -> unpool2
I0918 10:27:01.275072 31184 net.cpp:122] Setting up unpool2
I0918 10:27:01.275079 31184 net.cpp:129] Top shape: 2 128 112 112 (3211264)
I0918 10:27:01.275082 31184 net.cpp:137] Memory required for data: 452386816
I0918 10:27:01.275086 31184 layer_factory.hpp:77] Creating layer deconv2_1
I0918 10:27:01.275094 31184 net.cpp:84] Creating Layer deconv2_1
I0918 10:27:01.275097 31184 net.cpp:406] deconv2_1 <- unpool2
I0918 10:27:01.275104 31184 net.cpp:380] deconv2_1 -> deconv2_1
I0918 10:27:01.276581 31184 net.cpp:122] Setting up deconv2_1
I0918 10:27:01.276592 31184 net.cpp:129] Top shape: 2 128 112 112 (3211264)
I0918 10:27:01.276609 31184 net.cpp:137] Memory required for data: 465231872
I0918 10:27:01.276617 31184 layer_factory.hpp:77] Creating layer debatchnorm2_1
I0918 10:27:01.276623 31184 net.cpp:84] Creating Layer debatchnorm2_1
I0918 10:27:01.276628 31184 net.cpp:406] debatchnorm2_1 <- deconv2_1
I0918 10:27:01.276633 31184 net.cpp:367] debatchnorm2_1 -> deconv2_1 (in-place)
I0918 10:27:01.276867 31184 net.cpp:122] Setting up debatchnorm2_1
I0918 10:27:01.276875 31184 net.cpp:129] Top shape: 2 128 112 112 (3211264)
I0918 10:27:01.276878 31184 net.cpp:137] Memory required for data: 478076928
I0918 10:27:01.276885 31184 layer_factory.hpp:77] Creating layer deelu2_1
I0918 10:27:01.276890 31184 net.cpp:84] Creating Layer deelu2_1
I0918 10:27:01.276895 31184 net.cpp:406] deelu2_1 <- deconv2_1
I0918 10:27:01.276901 31184 net.cpp:367] deelu2_1 -> deconv2_1 (in-place)
I0918 10:27:01.276906 31184 net.cpp:122] Setting up deelu2_1
I0918 10:27:01.276911 31184 net.cpp:129] Top shape: 2 128 112 112 (3211264)
I0918 10:27:01.276916 31184 net.cpp:137] Memory required for data: 490921984
I0918 10:27:01.276918 31184 layer_factory.hpp:77] Creating layer deconv2_2
I0918 10:27:01.276924 31184 net.cpp:84] Creating Layer deconv2_2
I0918 10:27:01.276929 31184 net.cpp:406] deconv2_2 <- deconv2_1
I0918 10:27:01.276934 31184 net.cpp:380] deconv2_2 -> deconv2_2
I0918 10:27:01.277606 31184 net.cpp:122] Setting up deconv2_2
I0918 10:27:01.277612 31184 net.cpp:129] Top shape: 2 64 112 112 (1605632)
I0918 10:27:01.277616 31184 net.cpp:137] Memory required for data: 497344512
I0918 10:27:01.277621 31184 layer_factory.hpp:77] Creating layer debatchnorm2_2
I0918 10:27:01.277627 31184 net.cpp:84] Creating Layer debatchnorm2_2
I0918 10:27:01.277632 31184 net.cpp:406] debatchnorm2_2 <- deconv2_2
I0918 10:27:01.277637 31184 net.cpp:367] debatchnorm2_2 -> deconv2_2 (in-place)
I0918 10:27:01.277875 31184 net.cpp:122] Setting up debatchnorm2_2
I0918 10:27:01.277884 31184 net.cpp:129] Top shape: 2 64 112 112 (1605632)
I0918 10:27:01.277887 31184 net.cpp:137] Memory required for data: 503767040
I0918 10:27:01.277894 31184 layer_factory.hpp:77] Creating layer deelu2_2
I0918 10:27:01.277899 31184 net.cpp:84] Creating Layer deelu2_2
I0918 10:27:01.277902 31184 net.cpp:406] deelu2_2 <- deconv2_2
I0918 10:27:01.277907 31184 net.cpp:367] deelu2_2 -> deconv2_2 (in-place)
I0918 10:27:01.277914 31184 net.cpp:122] Setting up deelu2_2
I0918 10:27:01.277918 31184 net.cpp:129] Top shape: 2 64 112 112 (1605632)
I0918 10:27:01.277921 31184 net.cpp:137] Memory required for data: 510189568
I0918 10:27:01.277925 31184 layer_factory.hpp:77] Creating layer unpool1
I0918 10:27:01.277931 31184 net.cpp:84] Creating Layer unpool1
I0918 10:27:01.277935 31184 net.cpp:406] unpool1 <- deconv2_2
I0918 10:27:01.277940 31184 net.cpp:406] unpool1 <- pool1_mask
I0918 10:27:01.277945 31184 net.cpp:406] unpool1 <- pool1_argmax_count
I0918 10:27:01.277951 31184 net.cpp:380] unpool1 -> unpool1
I0918 10:27:01.277981 31184 net.cpp:122] Setting up unpool1
I0918 10:27:01.277987 31184 net.cpp:129] Top shape: 2 64 224 224 (6422528)
I0918 10:27:01.277992 31184 net.cpp:137] Memory required for data: 535879680
I0918 10:27:01.277995 31184 layer_factory.hpp:77] Creating layer deconv1_1
I0918 10:27:01.278002 31184 net.cpp:84] Creating Layer deconv1_1
I0918 10:27:01.278007 31184 net.cpp:406] deconv1_1 <- unpool1
I0918 10:27:01.278012 31184 net.cpp:380] deconv1_1 -> deconv1_1
I0918 10:27:01.278924 31184 net.cpp:122] Setting up deconv1_1
I0918 10:27:01.278934 31184 net.cpp:129] Top shape: 2 64 224 224 (6422528)
I0918 10:27:01.278939 31184 net.cpp:137] Memory required for data: 561569792
I0918 10:27:01.278945 31184 layer_factory.hpp:77] Creating layer debatchnorm1_1
I0918 10:27:01.278951 31184 net.cpp:84] Creating Layer debatchnorm1_1
I0918 10:27:01.278956 31184 net.cpp:406] debatchnorm1_1 <- deconv1_1
I0918 10:27:01.278961 31184 net.cpp:367] debatchnorm1_1 -> deconv1_1 (in-place)
I0918 10:27:01.279220 31184 net.cpp:122] Setting up debatchnorm1_1
I0918 10:27:01.279227 31184 net.cpp:129] Top shape: 2 64 224 224 (6422528)
I0918 10:27:01.279240 31184 net.cpp:137] Memory required for data: 587259904
I0918 10:27:01.279248 31184 layer_factory.hpp:77] Creating layer deelu1_1
I0918 10:27:01.279253 31184 net.cpp:84] Creating Layer deelu1_1
I0918 10:27:01.279258 31184 net.cpp:406] deelu1_1 <- deconv1_1
I0918 10:27:01.279263 31184 net.cpp:367] deelu1_1 -> deconv1_1 (in-place)
I0918 10:27:01.279269 31184 net.cpp:122] Setting up deelu1_1
I0918 10:27:01.279274 31184 net.cpp:129] Top shape: 2 64 224 224 (6422528)
I0918 10:27:01.279278 31184 net.cpp:137] Memory required for data: 612950016
I0918 10:27:01.279281 31184 layer_factory.hpp:77] Creating layer deconv1_2
I0918 10:27:01.279289 31184 net.cpp:84] Creating Layer deconv1_2
I0918 10:27:01.279292 31184 net.cpp:406] deconv1_2 <- deconv1_1
I0918 10:27:01.279297 31184 net.cpp:380] deconv1_2 -> deconv1_2
I0918 10:27:01.279796 31184 net.cpp:122] Setting up deconv1_2
I0918 10:27:01.279806 31184 net.cpp:129] Top shape: 2 64 224 224 (6422528)
I0918 10:27:01.279810 31184 net.cpp:137] Memory required for data: 638640128
I0918 10:27:01.279815 31184 layer_factory.hpp:77] Creating layer debatchnorm1_2
I0918 10:27:01.279821 31184 net.cpp:84] Creating Layer debatchnorm1_2
I0918 10:27:01.279825 31184 net.cpp:406] debatchnorm1_2 <- deconv1_2
I0918 10:27:01.279830 31184 net.cpp:367] debatchnorm1_2 -> deconv1_2 (in-place)
I0918 10:27:01.280077 31184 net.cpp:122] Setting up debatchnorm1_2
I0918 10:27:01.280084 31184 net.cpp:129] Top shape: 2 64 224 224 (6422528)
I0918 10:27:01.280088 31184 net.cpp:137] Memory required for data: 664330240
I0918 10:27:01.280095 31184 layer_factory.hpp:77] Creating layer deelu1_2
I0918 10:27:01.280100 31184 net.cpp:84] Creating Layer deelu1_2
I0918 10:27:01.280103 31184 net.cpp:406] deelu1_2 <- deconv1_2
I0918 10:27:01.280109 31184 net.cpp:367] deelu1_2 -> deconv1_2 (in-place)
I0918 10:27:01.280114 31184 net.cpp:122] Setting up deelu1_2
I0918 10:27:01.280118 31184 net.cpp:129] Top shape: 2 64 224 224 (6422528)
I0918 10:27:01.280122 31184 net.cpp:137] Memory required for data: 690020352
I0918 10:27:01.280127 31184 layer_factory.hpp:77] Creating layer segmentation
I0918 10:27:01.280135 31184 net.cpp:84] Creating Layer segmentation
I0918 10:27:01.280139 31184 net.cpp:406] segmentation <- deconv1_2
I0918 10:27:01.280144 31184 net.cpp:380] segmentation -> segmentation
I0918 10:27:01.282516 31184 net.cpp:122] Setting up segmentation
I0918 10:27:01.282529 31184 net.cpp:129] Top shape: 2 2 224 224 (200704)
I0918 10:27:01.282533 31184 net.cpp:137] Memory required for data: 690823168
I0918 10:27:01.282541 31184 layer_factory.hpp:77] Creating layer segmentation_segmentation_0_split
I0918 10:27:01.282547 31184 net.cpp:84] Creating Layer segmentation_segmentation_0_split
I0918 10:27:01.282552 31184 net.cpp:406] segmentation_segmentation_0_split <- segmentation
I0918 10:27:01.282558 31184 net.cpp:380] segmentation_segmentation_0_split -> segmentation_segmentation_0_split_0
I0918 10:27:01.282567 31184 net.cpp:380] segmentation_segmentation_0_split -> segmentation_segmentation_0_split_1
I0918 10:27:01.282618 31184 net.cpp:122] Setting up segmentation_segmentation_0_split
I0918 10:27:01.282625 31184 net.cpp:129] Top shape: 2 2 224 224 (200704)
I0918 10:27:01.282629 31184 net.cpp:129] Top shape: 2 2 224 224 (200704)
I0918 10:27:01.282634 31184 net.cpp:137] Memory required for data: 692428800
I0918 10:27:01.282639 31184 layer_factory.hpp:77] Creating layer infogainLoss
I0918 10:27:01.282645 31184 net.cpp:84] Creating Layer infogainLoss
I0918 10:27:01.282649 31184 net.cpp:406] infogainLoss <- segmentation_segmentation_0_split_0
I0918 10:27:01.282655 31184 net.cpp:406] infogainLoss <- label_data_1_split_0
I0918 10:27:01.282661 31184 net.cpp:380] infogainLoss -> loss
I0918 10:27:01.282670 31184 layer_factory.hpp:77] Creating layer infogainLoss
I0918 10:27:01.283598 31184 net.cpp:122] Setting up infogainLoss
I0918 10:27:01.283609 31184 net.cpp:129] Top shape: (1)
I0918 10:27:01.283613 31184 net.cpp:132]     with loss weight 1
I0918 10:27:01.283622 31184 net.cpp:137] Memory required for data: 692428804
I0918 10:27:01.283627 31184 layer_factory.hpp:77] Creating layer accuracy
I0918 10:27:01.283644 31184 net.cpp:84] Creating Layer accuracy
I0918 10:27:01.283649 31184 net.cpp:406] accuracy <- segmentation_segmentation_0_split_1
I0918 10:27:01.283654 31184 net.cpp:406] accuracy <- label_data_1_split_1
I0918 10:27:01.283660 31184 net.cpp:380] accuracy -> accuracy
I0918 10:27:01.283668 31184 net.cpp:380] accuracy -> per_class_accuracy
I0918 10:27:01.283716 31184 net.cpp:122] Setting up accuracy
I0918 10:27:01.283722 31184 net.cpp:129] Top shape: (1)
I0918 10:27:01.283726 31184 net.cpp:129] Top shape: 2 (2)
I0918 10:27:01.283730 31184 net.cpp:137] Memory required for data: 692428816
I0918 10:27:01.283735 31184 net.cpp:200] accuracy does not need backward computation.
I0918 10:27:01.283740 31184 net.cpp:198] infogainLoss needs backward computation.
I0918 10:27:01.283743 31184 net.cpp:198] segmentation_segmentation_0_split needs backward computation.
I0918 10:27:01.283747 31184 net.cpp:198] segmentation needs backward computation.
…
