…
I1002 13:36:22.650085 10466 net.cpp:294] The NetState phase (0) differed from the phase (1) specified by a rule in layer data
I1002 13:36:22.650116 10466 net.cpp:294] The NetState phase (0) differed from the phase (1) specified by a rule in layer accuracy
I1002 13:36:22.650378 10466 net.cpp:51] Initializing net from parameters: 
name: "ZNet"
state {
  phase: TRAIN
  level: 0
  stage: ""
}
layer {
  name: "data"
  type: "HDF5Data"
  top: "data"
  top: "label"
  include {
    phase: TRAIN
  }
  hdf5_data_param {
    source: "/home/grochette/Documents/SegNet/data/HDF5/Train/hdf5_list.txt"
    batch_size: 16
    shuffle: true
  }
}
layer {
  name: "batchnorm0"
  type: "BatchNorm"
  bottom: "data"
  top: "data"
}
layer {
  name: "conv1_1"
  type: "Convolution"
  bottom: "data"
  top: "conv1_1"
  param {
    lr_mult: 1
    decay_mult: 1
  }
  param {
    lr_mult: 2
    decay_mult: 0
  }
  convolution_param {
    num_output: 32
    pad: 1
    kernel_size: 3
    stride: 1
    weight_filler {
      type: "xavier"
    }
    bias_filler {
      type: "constant"
    }
  }
}
layer {
  name: "batchnorm1_1"
  type: "BatchNorm"
  bottom: "conv1_1"
  top: "conv1_1"
}
layer {
  name: "elu1_1"
  type: "ELU"
  bottom: "conv1_1"
  top: "conv1_1"
}
layer {
  name: "conv1_2"
  type: "Convolution"
  bottom: "conv1_1"
  top: "conv1_2"
  param {
    lr_mult: 1
    decay_mult: 1
  }
  param {
    lr_mult: 2
    decay_mult: 0
  }
  convolution_param {
    num_output: 32
    pad: 1
    kernel_size: 3
    stride: 1
    weight_filler {
      type: "xavier"
    }
    bias_filler {
      type: "constant"
    }
  }
}
layer {
  name: "batchnorm1_2"
  type: "BatchNorm"
  bottom: "conv1_2"
  top: "conv1_2"
}
layer {
  name: "elu1_2"
  type: "ELU"
  bottom: "conv1_2"
  top: "conv1_2"
}
layer {
  name: "pool1"
  type: "Pooling"
  bottom: "conv1_2"
  top: "pool1"
  top: "pool1_mask"
  top: "pool1_argmax_count"
  pooling_param {
    pool: MAX
    kernel_size: 4
    stride: 4
  }
}
layer {
  name: "conv2_1"
  type: "Convolution"
  bottom: "pool1"
  top: "conv2_1"
  param {
    lr_mult: 1
    decay_mult: 1
  }
  param {
    lr_mult: 2
    decay_mult: 0
  }
  convolution_param {
    num_output: 64
    pad: 1
    kernel_size: 3
    stride: 1
    weight_filler {
      type: "xavier"
    }
    bias_filler {
      type: "constant"
    }
  }
}
layer {
  name: "batchnorm2_1"
  type: "BatchNorm"
  bottom: "conv2_1"
  top: "conv2_1"
}
layer {
  name: "elu2_1"
  type: "ELU"
  bottom: "conv2_1"
  top: "conv2_1"
}
layer {
  name: "conv2_2"
  type: "Convolution"
  bottom: "conv2_1"
  top: "conv2_2"
  param {
    lr_mult: 1
    decay_mult: 1
  }
  param {
    lr_mult: 2
    decay_mult: 0
  }
  convolution_param {
    num_output: 64
    pad: 1
    kernel_size: 3
    stride: 1
    weight_filler {
      type: "xavier"
    }
    bias_filler {
      type: "constant"
    }
  }
}
layer {
  name: "batchnorm2_2"
  type: "BatchNorm"
  bottom: "conv2_2"
  top: "conv2_2"
}
layer {
  name: "elu2_2"
  type: "ELU"
  bottom: "conv2_2"
  top: "conv2_2"
}
layer {
  name: "pool2"
  type: "Pooling"
  bottom: "conv2_2"
  top: "pool2"
  top: "pool2_mask"
  top: "pool2_argmax_count"
  pooling_param {
    pool: MAX
    kernel_size: 4
    stride: 4
  }
}
layer {
  name: "conv3_1"
  type: "Convolution"
  bottom: "pool2"
  top: "conv3_1"
  param {
    lr_mult: 1
    decay_mult: 1
  }
  param {
    lr_mult: 2
    decay_mult: 0
  }
  convolution_param {
    num_output: 128
    pad: 1
    kernel_size: 3
    stride: 1
    weight_filler {
      type: "xavier"
    }
    bias_filler {
      type: "constant"
    }
  }
}
layer {
  name: "batchnorm3_1"
  type: "BatchNorm"
  bottom: "conv3_1"
  top: "conv3_1"
}
layer {
  name: "elu3_1"
  type: "ELU"
  bottom: "conv3_1"
  top: "conv3_1"
}
layer {
  name: "conv3_2"
  type: "Convolution"
  bottom: "conv3_1"
  top: "conv3_2"
  param {
    lr_mult: 1
    decay_mult: 1
  }
  param {
    lr_mult: 2
    decay_mult: 0
  }
  convolution_param {
    num_output: 128
    pad: 1
    kernel_size: 3
    stride: 1
    weight_filler {
      type: "xavier"
    }
    bias_filler {
      type: "constant"
    }
  }
}
layer {
  name: "batchnorm3_2"
  type: "BatchNorm"
  bottom: "conv3_2"
  top: "conv3_2"
}
layer {
  name: "elu3_2"
  type: "ELU"
  bottom: "conv3_2"
  top: "conv3_2"
}
layer {
  name: "conv3_3"
  type: "Convolution"
  bottom: "conv3_2"
  top: "conv3_3"
  param {
    lr_mult: 1
    decay_mult: 1
  }
  param {
    lr_mult: 2
    decay_mult: 0
  }
  convolution_param {
    num_output: 128
    pad: 1
    kernel_size: 3
    stride: 1
    weight_filler {
      type: "xavier"
    }
    bias_filler {
      type: "constant"
    }
  }
}
layer {
  name: "batchnorm3_3"
  type: "BatchNorm"
  bottom: "conv3_3"
  top: "conv3_3"
}
layer {
  name: "elu3_3"
  type: "ELU"
  bottom: "conv3_3"
  top: "conv3_3"
}
layer {
  name: "pool3"
  type: "Pooling"
  bottom: "conv3_3"
  top: "pool3"
  top: "pool3_mask"
  top: "pool3_argmax_count"
  pooling_param {
    pool: MAX
    kernel_size: 2
    stride: 2
  }
}
layer {
  name: "conv4_1"
  type: "Convolution"
  bottom: "pool3"
  top: "conv4_1"
  param {
    lr_mult: 1
    decay_mult: 1
  }
  param {
    lr_mult: 2
    decay_mult: 0
  }
  convolution_param {
    num_output: 256
    pad: 1
    kernel_size: 3
    stride: 1
    weight_filler {
      type: "xavier"
    }
    bias_filler {
      type: "constant"
    }
  }
}
layer {
  name: "batchnorm4_1"
  type: "BatchNorm"
  bottom: "conv4_1"
  top: "conv4_1"
}
layer {
  name: "elu4_1"
  type: "ELU"
  bottom: "conv4_1"
  top: "conv4_1"
}
layer {
  name: "conv4_2"
  type: "Convolution"
  bottom: "conv4_1"
  top: "conv4_2"
  param {
    lr_mult: 1
    decay_mult: 1
  }
  param {
    lr_mult: 2
    decay_mult: 0
  }
  convolution_param {
    num_output: 256
    pad: 1
    kernel_size: 3
    stride: 1
    weight_filler {
      type: "xavier"
    }
    bias_filler {
      type: "constant"
    }
  }
}
layer {
  name: "batchnorm4_2"
  type: "BatchNorm"
  bottom: "conv4_2"
  top: "conv4_2"
}
layer {
  name: "elu4_2"
  type: "ELU"
  bottom: "conv4_2"
  top: "conv4_2"
}
layer {
  name: "deconv4_3"
  type: "Deconvolution"
  bottom: "conv4_2"
  top: "deconv4_3"
  param {
    lr_mult: 1
    decay_mult: 1
  }
  param {
    lr_mult: 2
    decay_mult: 0
  }
  convolution_param {
    num_output: 128
    pad: 1
    kernel_size: 3
    stride: 1
    weight_filler {
      type: "xavier"
    }
    bias_filler {
      type: "constant"
    }
  }
}
layer {
  name: "debatchnorm4_3"
  type: "BatchNorm"
  bottom: "deconv4_3"
  top: "deconv4_3"
}
layer {
  name: "deelu4_3"
  type: "ELU"
  bottom: "deconv4_3"
  top: "deconv4_3"
}
layer {
  name: "unpool3"
  type: "Unpooling"
  bottom: "deconv4_3"
  bottom: "pool3_mask"
  bottom: "pool3_argmax_count"
  top: "unpool3"
  pooling_param {
    pool: MAX
    kernel_size: 2
    stride: 2
  }
}
layer {
  name: "deconv3_1"
  type: "Deconvolution"
  bottom: "unpool3"
  top: "deconv3_1"
  param {
    lr_mult: 1
    decay_mult: 1
  }
  param {
    lr_mult: 2
    decay_mult: 0
  }
  convolution_param {
    num_output: 128
    pad: 1
    kernel_size: 3
    stride: 1
    weight_filler {
      type: "xavier"
    }
    bias_filler {
      type: "constant"
    }
  }
}
layer {
  name: "debatchnorm3_1"
  type: "BatchNorm"
  bottom: "deconv3_1"
  top: "deconv3_1"
}
layer {
  name: "deelu3_1"
  type: "ELU"
  bottom: "deconv3_1"
  top: "deconv3_1"
}
layer {
  name: "deconv3_2"
  type: "Deconvolution"
  bottom: "deconv3_1"
  top: "deconv3_2"
  param {
    lr_mult: 1
    decay_mult: 1
  }
  param {
    lr_mult: 2
    decay_mult: 0
  }
  convolution_param {
    num_output: 128
    pad: 1
    kernel_size: 3
    stride: 1
    weight_filler {
      type: "xavier"
    }
    bias_filler {
      type: "constant"
    }
  }
}
layer {
  name: "debatchnorm3_2"
  type: "BatchNorm"
  bottom: "deconv3_2"
  top: "deconv3_2"
}
layer {
  name: "deelu3_2"
  type: "ELU"
  bottom: "deconv3_2"
  top: "deconv3_2"
}
layer {
  name: "deconv3_3"
  type: "Deconvolution"
  bottom: "deconv3_2"
  top: "deconv3_3"
  param {
    lr_mult: 1
    decay_mult: 1
  }
  param {
    lr_mult: 2
    decay_mult: 0
  }
  convolution_param {
    num_output: 64
    pad: 1
    kernel_size: 3
    stride: 1
    weight_filler {
      type: "xavier"
    }
    bias_filler {
      type: "constant"
    }
  }
}
layer {
  name: "debatchnorm3_3"
  type: "BatchNorm"
  bottom: "deconv3_3"
  top: "deconv3_3"
}
layer {
  name: "deelu3_3"
  type: "ELU"
  bottom: "deconv3_3"
  top: "deconv3_3"
}
layer {
  name: "unpool2"
  type: "Unpooling"
  bottom: "deconv3_3"
  bottom: "pool2_mask"
  bottom: "pool2_argmax_count"
  top: "unpool2"
  pooling_param {
    pool: MAX
    kernel_size: 4
    stride: 4
  }
}
layer {
  name: "deconv2_1"
  type: "Deconvolution"
  bottom: "unpool2"
  top: "deconv2_1"
  param {
    lr_mult: 1
    decay_mult: 1
  }
  param {
    lr_mult: 2
    decay_mult: 0
  }
  convolution_param {
    num_output: 64
    pad: 1
    kernel_size: 3
    stride: 1
    weight_filler {
      type: "xavier"
    }
    bias_filler {
      type: "constant"
    }
  }
}
layer {
  name: "debatchnorm2_1"
  type: "BatchNorm"
  bottom: "deconv2_1"
  top: "deconv2_1"
}
layer {
  name: "deelu2_1"
  type: "ELU"
  bottom: "deconv2_1"
  top: "deconv2_1"
}
layer {
  name: "deconv2_2"
  type: "Deconvolution"
  bottom: "deconv2_1"
  top: "deconv2_2"
  param {
    lr_mult: 1
    decay_mult: 1
  }
  param {
    lr_mult: 2
    decay_mult: 0
  }
  convolution_param {
    num_output: 32
    pad: 1
    kernel_size: 3
    stride: 1
    weight_filler {
      type: "xavier"
    }
    bias_filler {
      type: "constant"
    }
  }
}
layer {
  name: "debatchnorm2_2"
  type: "BatchNorm"
  bottom: "deconv2_2"
  top: "deconv2_2"
}
layer {
  name: "deelu2_2"
  type: "ELU"
  bottom: "deconv2_2"
  top: "deconv2_2"
}
layer {
  name: "unpool1"
  type: "Unpooling"
  bottom: "deconv2_2"
  bottom: "pool1_mask"
  bottom: "pool1_argmax_count"
  top: "unpool1"
  pooling_param {
    pool: MAX
    kernel_size: 4
    stride: 4
  }
}
layer {
  name: "deconv1_1"
  type: "Deconvolution"
  bottom: "unpool1"
  top: "deconv1_1"
  param {
    lr_mult: 1
    decay_mult: 1
  }
  param {
    lr_mult: 2
    decay_mult: 0
  }
  convolution_param {
    num_output: 32
    pad: 1
    kernel_size: 3
    stride: 1
    weight_filler {
      type: "xavier"
    }
    bias_filler {
      type: "constant"
    }
  }
}
layer {
  name: "debatchnorm1_1"
  type: "BatchNorm"
  bottom: "deconv1_1"
  top: "deconv1_1"
}
layer {
  name: "deelu1_1"
  type: "ELU"
  bottom: "deconv1_1"
  top: "deconv1_1"
}
layer {
  name: "deconv1_2"
  type: "Deconvolution"
  bottom: "deconv1_1"
  top: "deconv1_2"
  param {
    lr_mult: 1
    decay_mult: 1
  }
  param {
    lr_mult: 2
    decay_mult: 0
  }
  convolution_param {
    num_output: 32
    pad: 1
    kernel_size: 3
    stride: 1
    weight_filler {
      type: "xavier"
    }
    bias_filler {
      type: "constant"
    }
  }
}
layer {
  name: "debatchnorm1_2"
  type: "BatchNorm"
  bottom: "deconv1_2"
  top: "deconv1_2"
}
layer {
  name: "deelu1_2"
  type: "ELU"
  bottom: "deconv1_2"
  top: "deconv1_2"
}
layer {
  name: "segmentation"
  type: "Convolution"
  bottom: "deconv1_2"
  top: "segmentation"
  param {
    lr_mult: 1
    decay_mult: 1
  }
  param {
    lr_mult: 2
    decay_mult: 0
  }
  convolution_param {
    num_output: 3
    pad: 0
    kernel_size: 1
    weight_filler {
      type: "xavier"
    }
    bias_filler {
      type: "constant"
    }
  }
}
layer {
  name: "infogainLoss"
  type: "InfogainLoss"
  bottom: "segmentation"
  bottom: "label"
  top: "loss"
  loss_param {
    ignore_label: 3
  }
  infogain_loss_param {
    source: "/home/grochette/Documents/SegNet/data/infogainH.binaryproto"
  }
}
I1002 13:36:22.650826 10466 layer_factory.hpp:77] Creating layer data
I1002 13:36:22.650840 10466 net.cpp:84] Creating Layer data
I1002 13:36:22.650847 10466 net.cpp:380] data -> data
I1002 13:36:22.650864 10466 net.cpp:380] data -> label
I1002 13:36:22.650874 10466 hdf5_data_layer.cpp:80] Loading list of HDF5 filenames from: /home/grochette/Documents/SegNet/data/HDF5/Train/hdf5_list.txt
I1002 13:36:22.651870 10466 hdf5_data_layer.cpp:94] Number of HDF5 files: 16
I1002 13:36:22.655392 10466 hdf5.cpp:32] Datatype class: H5T_FLOAT
I1002 13:36:25.252563 10466 hdf5.cpp:35] Datatype class: H5T_INTEGER
I1002 13:36:25.613828 10466 net.cpp:122] Setting up data
I1002 13:36:25.613854 10466 net.cpp:129] Top shape: 16 4 224 224 (3211264)
I1002 13:36:25.613859 10466 net.cpp:129] Top shape: 16 1 224 224 (802816)
I1002 13:36:25.613862 10466 net.cpp:137] Memory required for data: 16056320
I1002 13:36:25.613869 10466 layer_factory.hpp:77] Creating layer batchnorm0
I1002 13:36:25.613880 10466 net.cpp:84] Creating Layer batchnorm0
I1002 13:36:25.613886 10466 net.cpp:406] batchnorm0 <- data
I1002 13:36:25.613898 10466 net.cpp:367] batchnorm0 -> data (in-place)
I1002 13:36:25.614557 10466 net.cpp:122] Setting up batchnorm0
I1002 13:36:25.614567 10466 net.cpp:129] Top shape: 16 4 224 224 (3211264)
I1002 13:36:25.614569 10466 net.cpp:137] Memory required for data: 28901376
I1002 13:36:25.614588 10466 layer_factory.hpp:77] Creating layer conv1_1
I1002 13:36:25.614603 10466 net.cpp:84] Creating Layer conv1_1
I1002 13:36:25.614608 10466 net.cpp:406] conv1_1 <- data
I1002 13:36:25.614612 10466 net.cpp:380] conv1_1 -> conv1_1
I1002 13:36:26.096760 10466 net.cpp:122] Setting up conv1_1
I1002 13:36:26.096788 10466 net.cpp:129] Top shape: 16 32 224 224 (25690112)
I1002 13:36:26.096792 10466 net.cpp:137] Memory required for data: 131661824
I1002 13:36:26.096804 10466 layer_factory.hpp:77] Creating layer batchnorm1_1
I1002 13:36:26.096814 10466 net.cpp:84] Creating Layer batchnorm1_1
I1002 13:36:26.096819 10466 net.cpp:406] batchnorm1_1 <- conv1_1
I1002 13:36:26.096825 10466 net.cpp:367] batchnorm1_1 -> conv1_1 (in-place)
I1002 13:36:26.097034 10466 net.cpp:122] Setting up batchnorm1_1
I1002 13:36:26.097043 10466 net.cpp:129] Top shape: 16 32 224 224 (25690112)
I1002 13:36:26.097045 10466 net.cpp:137] Memory required for data: 234422272
I1002 13:36:26.097053 10466 layer_factory.hpp:77] Creating layer elu1_1
I1002 13:36:26.097059 10466 net.cpp:84] Creating Layer elu1_1
I1002 13:36:26.097061 10466 net.cpp:406] elu1_1 <- conv1_1
I1002 13:36:26.097065 10466 net.cpp:367] elu1_1 -> conv1_1 (in-place)
I1002 13:36:26.097070 10466 net.cpp:122] Setting up elu1_1
I1002 13:36:26.097074 10466 net.cpp:129] Top shape: 16 32 224 224 (25690112)
I1002 13:36:26.097077 10466 net.cpp:137] Memory required for data: 337182720
I1002 13:36:26.097081 10466 layer_factory.hpp:77] Creating layer conv1_2
I1002 13:36:26.097090 10466 net.cpp:84] Creating Layer conv1_2
I1002 13:36:26.097095 10466 net.cpp:406] conv1_2 <- conv1_1
I1002 13:36:26.097100 10466 net.cpp:380] conv1_2 -> conv1_2
I1002 13:36:26.099287 10466 net.cpp:122] Setting up conv1_2
I1002 13:36:26.099298 10466 net.cpp:129] Top shape: 16 32 224 224 (25690112)
I1002 13:36:26.099303 10466 net.cpp:137] Memory required for data: 439943168
I1002 13:36:26.099311 10466 layer_factory.hpp:77] Creating layer batchnorm1_2
I1002 13:36:26.099318 10466 net.cpp:84] Creating Layer batchnorm1_2
I1002 13:36:26.099320 10466 net.cpp:406] batchnorm1_2 <- conv1_2
I1002 13:36:26.099325 10466 net.cpp:367] batchnorm1_2 -> conv1_2 (in-place)
I1002 13:36:26.099522 10466 net.cpp:122] Setting up batchnorm1_2
I1002 13:36:26.099529 10466 net.cpp:129] Top shape: 16 32 224 224 (25690112)
I1002 13:36:26.099532 10466 net.cpp:137] Memory required for data: 542703616
I1002 13:36:26.099539 10466 layer_factory.hpp:77] Creating layer elu1_2
I1002 13:36:26.099544 10466 net.cpp:84] Creating Layer elu1_2
I1002 13:36:26.099546 10466 net.cpp:406] elu1_2 <- conv1_2
I1002 13:36:26.099550 10466 net.cpp:367] elu1_2 -> conv1_2 (in-place)
I1002 13:36:26.099555 10466 net.cpp:122] Setting up elu1_2
I1002 13:36:26.099582 10466 net.cpp:129] Top shape: 16 32 224 224 (25690112)
I1002 13:36:26.099586 10466 net.cpp:137] Memory required for data: 645464064
I1002 13:36:26.099588 10466 layer_factory.hpp:77] Creating layer pool1
I1002 13:36:26.099591 10466 layer_factory.cpp:91] cuDNN does not support multiple tops. Using Caffe's own pooling layer.
I1002 13:36:26.099598 10466 net.cpp:84] Creating Layer pool1
I1002 13:36:26.099601 10466 net.cpp:406] pool1 <- conv1_2
I1002 13:36:26.099606 10466 net.cpp:380] pool1 -> pool1
I1002 13:36:26.099612 10466 net.cpp:380] pool1 -> pool1_mask
I1002 13:36:26.099618 10466 net.cpp:380] pool1 -> pool1_argmax_count
I1002 13:36:26.099674 10466 net.cpp:122] Setting up pool1
I1002 13:36:26.099680 10466 net.cpp:129] Top shape: 16 32 56 56 (1605632)
I1002 13:36:26.099684 10466 net.cpp:129] Top shape: 16 32 56 56 (1605632)
I1002 13:36:26.099689 10466 net.cpp:129] Top shape: 16 32 224 224 (25690112)
I1002 13:36:26.099690 10466 net.cpp:137] Memory required for data: 761069568
I1002 13:36:26.099694 10466 layer_factory.hpp:77] Creating layer conv2_1
I1002 13:36:26.099700 10466 net.cpp:84] Creating Layer conv2_1
I1002 13:36:26.099704 10466 net.cpp:406] conv2_1 <- pool1
I1002 13:36:26.099709 10466 net.cpp:380] conv2_1 -> conv2_1
I1002 13:36:26.101912 10466 net.cpp:122] Setting up conv2_1
I1002 13:36:26.101924 10466 net.cpp:129] Top shape: 16 64 56 56 (3211264)
I1002 13:36:26.101928 10466 net.cpp:137] Memory required for data: 773914624
I1002 13:36:26.101934 10466 layer_factory.hpp:77] Creating layer batchnorm2_1
I1002 13:36:26.101939 10466 net.cpp:84] Creating Layer batchnorm2_1
I1002 13:36:26.101943 10466 net.cpp:406] batchnorm2_1 <- conv2_1
I1002 13:36:26.101948 10466 net.cpp:367] batchnorm2_1 -> conv2_1 (in-place)
I1002 13:36:26.102133 10466 net.cpp:122] Setting up batchnorm2_1
I1002 13:36:26.102139 10466 net.cpp:129] Top shape: 16 64 56 56 (3211264)
I1002 13:36:26.102143 10466 net.cpp:137] Memory required for data: 786759680
I1002 13:36:26.102152 10466 layer_factory.hpp:77] Creating layer elu2_1
I1002 13:36:26.102156 10466 net.cpp:84] Creating Layer elu2_1
I1002 13:36:26.102159 10466 net.cpp:406] elu2_1 <- conv2_1
I1002 13:36:26.102162 10466 net.cpp:367] elu2_1 -> conv2_1 (in-place)
I1002 13:36:26.102167 10466 net.cpp:122] Setting up elu2_1
I1002 13:36:26.102171 10466 net.cpp:129] Top shape: 16 64 56 56 (3211264)
I1002 13:36:26.102174 10466 net.cpp:137] Memory required for data: 799604736
I1002 13:36:26.102179 10466 layer_factory.hpp:77] Creating layer conv2_2
I1002 13:36:26.102187 10466 net.cpp:84] Creating Layer conv2_2
I1002 13:36:26.102190 10466 net.cpp:406] conv2_2 <- conv2_1
I1002 13:36:26.102195 10466 net.cpp:380] conv2_2 -> conv2_2
I1002 13:36:26.104038 10466 net.cpp:122] Setting up conv2_2
I1002 13:36:26.104050 10466 net.cpp:129] Top shape: 16 64 56 56 (3211264)
I1002 13:36:26.104053 10466 net.cpp:137] Memory required for data: 812449792
I1002 13:36:26.104059 10466 layer_factory.hpp:77] Creating layer batchnorm2_2
I1002 13:36:26.104064 10466 net.cpp:84] Creating Layer batchnorm2_2
I1002 13:36:26.104068 10466 net.cpp:406] batchnorm2_2 <- conv2_2
I1002 13:36:26.104073 10466 net.cpp:367] batchnorm2_2 -> conv2_2 (in-place)
I1002 13:36:26.104254 10466 net.cpp:122] Setting up batchnorm2_2
I1002 13:36:26.104259 10466 net.cpp:129] Top shape: 16 64 56 56 (3211264)
I1002 13:36:26.104264 10466 net.cpp:137] Memory required for data: 825294848
I1002 13:36:26.104269 10466 layer_factory.hpp:77] Creating layer elu2_2
I1002 13:36:26.104274 10466 net.cpp:84] Creating Layer elu2_2
I1002 13:36:26.104275 10466 net.cpp:406] elu2_2 <- conv2_2
I1002 13:36:26.104280 10466 net.cpp:367] elu2_2 -> conv2_2 (in-place)
I1002 13:36:26.104285 10466 net.cpp:122] Setting up elu2_2
I1002 13:36:26.104288 10466 net.cpp:129] Top shape: 16 64 56 56 (3211264)
I1002 13:36:26.104290 10466 net.cpp:137] Memory required for data: 838139904
I1002 13:36:26.104293 10466 layer_factory.hpp:77] Creating layer pool2
I1002 13:36:26.104296 10466 layer_factory.cpp:91] cuDNN does not support multiple tops. Using Caffe's own pooling layer.
I1002 13:36:26.104312 10466 net.cpp:84] Creating Layer pool2
I1002 13:36:26.104315 10466 net.cpp:406] pool2 <- conv2_2
I1002 13:36:26.104321 10466 net.cpp:380] pool2 -> pool2
I1002 13:36:26.104326 10466 net.cpp:380] pool2 -> pool2_mask
I1002 13:36:26.104331 10466 net.cpp:380] pool2 -> pool2_argmax_count
I1002 13:36:26.104374 10466 net.cpp:122] Setting up pool2
I1002 13:36:26.104380 10466 net.cpp:129] Top shape: 16 64 14 14 (200704)
I1002 13:36:26.104384 10466 net.cpp:129] Top shape: 16 64 14 14 (200704)
I1002 13:36:26.104388 10466 net.cpp:129] Top shape: 16 64 56 56 (3211264)
I1002 13:36:26.104390 10466 net.cpp:137] Memory required for data: 852590592
I1002 13:36:26.104393 10466 layer_factory.hpp:77] Creating layer conv3_1
I1002 13:36:26.104403 10466 net.cpp:84] Creating Layer conv3_1
I1002 13:36:26.104405 10466 net.cpp:406] conv3_1 <- pool2
I1002 13:36:26.104410 10466 net.cpp:380] conv3_1 -> conv3_1
I1002 13:36:26.106894 10466 net.cpp:122] Setting up conv3_1
I1002 13:36:26.106905 10466 net.cpp:129] Top shape: 16 128 14 14 (401408)
I1002 13:36:26.106909 10466 net.cpp:137] Memory required for data: 854196224
I1002 13:36:26.106915 10466 layer_factory.hpp:77] Creating layer batchnorm3_1
I1002 13:36:26.106920 10466 net.cpp:84] Creating Layer batchnorm3_1
I1002 13:36:26.106925 10466 net.cpp:406] batchnorm3_1 <- conv3_1
I1002 13:36:26.106928 10466 net.cpp:367] batchnorm3_1 -> conv3_1 (in-place)
I1002 13:36:26.107105 10466 net.cpp:122] Setting up batchnorm3_1
I1002 13:36:26.107110 10466 net.cpp:129] Top shape: 16 128 14 14 (401408)
I1002 13:36:26.107115 10466 net.cpp:137] Memory required for data: 855801856
I1002 13:36:26.107120 10466 layer_factory.hpp:77] Creating layer elu3_1
I1002 13:36:26.107125 10466 net.cpp:84] Creating Layer elu3_1
I1002 13:36:26.107127 10466 net.cpp:406] elu3_1 <- conv3_1
I1002 13:36:26.107132 10466 net.cpp:367] elu3_1 -> conv3_1 (in-place)
I1002 13:36:26.107136 10466 net.cpp:122] Setting up elu3_1
I1002 13:36:26.107141 10466 net.cpp:129] Top shape: 16 128 14 14 (401408)
I1002 13:36:26.107144 10466 net.cpp:137] Memory required for data: 857407488
I1002 13:36:26.107148 10466 layer_factory.hpp:77] Creating layer conv3_2
I1002 13:36:26.107156 10466 net.cpp:84] Creating Layer conv3_2
I1002 13:36:26.107159 10466 net.cpp:406] conv3_2 <- conv3_1
I1002 13:36:26.107164 10466 net.cpp:380] conv3_2 -> conv3_2
I1002 13:36:26.109910 10466 net.cpp:122] Setting up conv3_2
I1002 13:36:26.109926 10466 net.cpp:129] Top shape: 16 128 14 14 (401408)
I1002 13:36:26.109930 10466 net.cpp:137] Memory required for data: 859013120
I1002 13:36:26.109936 10466 layer_factory.hpp:77] Creating layer batchnorm3_2
I1002 13:36:26.109943 10466 net.cpp:84] Creating Layer batchnorm3_2
I1002 13:36:26.109946 10466 net.cpp:406] batchnorm3_2 <- conv3_2
I1002 13:36:26.109951 10466 net.cpp:367] batchnorm3_2 -> conv3_2 (in-place)
I1002 13:36:26.110146 10466 net.cpp:122] Setting up batchnorm3_2
I1002 13:36:26.110152 10466 net.cpp:129] Top shape: 16 128 14 14 (401408)
I1002 13:36:26.110155 10466 net.cpp:137] Memory required for data: 860618752
I1002 13:36:26.110167 10466 layer_factory.hpp:77] Creating layer elu3_2
I1002 13:36:26.110170 10466 net.cpp:84] Creating Layer elu3_2
I1002 13:36:26.110174 10466 net.cpp:406] elu3_2 <- conv3_2
I1002 13:36:26.110178 10466 net.cpp:367] elu3_2 -> conv3_2 (in-place)
I1002 13:36:26.110183 10466 net.cpp:122] Setting up elu3_2
I1002 13:36:26.110188 10466 net.cpp:129] Top shape: 16 128 14 14 (401408)
I1002 13:36:26.110193 10466 net.cpp:137] Memory required for data: 862224384
I1002 13:36:26.110194 10466 layer_factory.hpp:77] Creating layer conv3_3
I1002 13:36:26.110208 10466 net.cpp:84] Creating Layer conv3_3
I1002 13:36:26.110211 10466 net.cpp:406] conv3_3 <- conv3_2
I1002 13:36:26.110218 10466 net.cpp:380] conv3_3 -> conv3_3
I1002 13:36:26.113114 10466 net.cpp:122] Setting up conv3_3
I1002 13:36:26.113126 10466 net.cpp:129] Top shape: 16 128 14 14 (401408)
I1002 13:36:26.113129 10466 net.cpp:137] Memory required for data: 863830016
I1002 13:36:26.113137 10466 layer_factory.hpp:77] Creating layer batchnorm3_3
I1002 13:36:26.113158 10466 net.cpp:84] Creating Layer batchnorm3_3
I1002 13:36:26.113163 10466 net.cpp:406] batchnorm3_3 <- conv3_3
I1002 13:36:26.113168 10466 net.cpp:367] batchnorm3_3 -> conv3_3 (in-place)
I1002 13:36:26.113381 10466 net.cpp:122] Setting up batchnorm3_3
I1002 13:36:26.113389 10466 net.cpp:129] Top shape: 16 128 14 14 (401408)
I1002 13:36:26.113392 10466 net.cpp:137] Memory required for data: 865435648
I1002 13:36:26.113399 10466 layer_factory.hpp:77] Creating layer elu3_3
I1002 13:36:26.113404 10466 net.cpp:84] Creating Layer elu3_3
I1002 13:36:26.113409 10466 net.cpp:406] elu3_3 <- conv3_3
I1002 13:36:26.113412 10466 net.cpp:367] elu3_3 -> conv3_3 (in-place)
I1002 13:36:26.113417 10466 net.cpp:122] Setting up elu3_3
I1002 13:36:26.113423 10466 net.cpp:129] Top shape: 16 128 14 14 (401408)
I1002 13:36:26.113426 10466 net.cpp:137] Memory required for data: 867041280
I1002 13:36:26.113430 10466 layer_factory.hpp:77] Creating layer pool3
I1002 13:36:26.113435 10466 layer_factory.cpp:91] cuDNN does not support multiple tops. Using Caffe's own pooling layer.
I1002 13:36:26.113440 10466 net.cpp:84] Creating Layer pool3
I1002 13:36:26.113445 10466 net.cpp:406] pool3 <- conv3_3
I1002 13:36:26.113448 10466 net.cpp:380] pool3 -> pool3
I1002 13:36:26.113454 10466 net.cpp:380] pool3 -> pool3_mask
I1002 13:36:26.113463 10466 net.cpp:380] pool3 -> pool3_argmax_count
I1002 13:36:26.113512 10466 net.cpp:122] Setting up pool3
I1002 13:36:26.113517 10466 net.cpp:129] Top shape: 16 128 7 7 (100352)
I1002 13:36:26.113523 10466 net.cpp:129] Top shape: 16 128 7 7 (100352)
I1002 13:36:26.113528 10466 net.cpp:129] Top shape: 16 128 14 14 (401408)
I1002 13:36:26.113530 10466 net.cpp:137] Memory required for data: 869449728
I1002 13:36:26.113534 10466 layer_factory.hpp:77] Creating layer conv4_1
I1002 13:36:26.113543 10466 net.cpp:84] Creating Layer conv4_1
I1002 13:36:26.113546 10466 net.cpp:406] conv4_1 <- pool3
I1002 13:36:26.113553 10466 net.cpp:380] conv4_1 -> conv4_1
I1002 13:36:26.117254 10466 net.cpp:122] Setting up conv4_1
I1002 13:36:26.117266 10466 net.cpp:129] Top shape: 16 256 7 7 (200704)
I1002 13:36:26.117270 10466 net.cpp:137] Memory required for data: 870252544
I1002 13:36:26.117277 10466 layer_factory.hpp:77] Creating layer batchnorm4_1
I1002 13:36:26.117283 10466 net.cpp:84] Creating Layer batchnorm4_1
I1002 13:36:26.117287 10466 net.cpp:406] batchnorm4_1 <- conv4_1
I1002 13:36:26.117293 10466 net.cpp:367] batchnorm4_1 -> conv4_1 (in-place)
I1002 13:36:26.117480 10466 net.cpp:122] Setting up batchnorm4_1
I1002 13:36:26.117486 10466 net.cpp:129] Top shape: 16 256 7 7 (200704)
I1002 13:36:26.117488 10466 net.cpp:137] Memory required for data: 871055360
I1002 13:36:26.117496 10466 layer_factory.hpp:77] Creating layer elu4_1
I1002 13:36:26.117501 10466 net.cpp:84] Creating Layer elu4_1
I1002 13:36:26.117504 10466 net.cpp:406] elu4_1 <- conv4_1
I1002 13:36:26.117509 10466 net.cpp:367] elu4_1 -> conv4_1 (in-place)
I1002 13:36:26.117516 10466 net.cpp:122] Setting up elu4_1
I1002 13:36:26.117519 10466 net.cpp:129] Top shape: 16 256 7 7 (200704)
I1002 13:36:26.117522 10466 net.cpp:137] Memory required for data: 871858176
I1002 13:36:26.117527 10466 layer_factory.hpp:77] Creating layer conv4_2
I1002 13:36:26.117534 10466 net.cpp:84] Creating Layer conv4_2
I1002 13:36:26.117538 10466 net.cpp:406] conv4_2 <- conv4_1
I1002 13:36:26.117543 10466 net.cpp:380] conv4_2 -> conv4_2
I1002 13:36:26.123037 10466 net.cpp:122] Setting up conv4_2
I1002 13:36:26.123051 10466 net.cpp:129] Top shape: 16 256 7 7 (200704)
I1002 13:36:26.123055 10466 net.cpp:137] Memory required for data: 872660992
I1002 13:36:26.123062 10466 layer_factory.hpp:77] Creating layer batchnorm4_2
I1002 13:36:26.123069 10466 net.cpp:84] Creating Layer batchnorm4_2
I1002 13:36:26.123073 10466 net.cpp:406] batchnorm4_2 <- conv4_2
I1002 13:36:26.123080 10466 net.cpp:367] batchnorm4_2 -> conv4_2 (in-place)
I1002 13:36:26.123275 10466 net.cpp:122] Setting up batchnorm4_2
I1002 13:36:26.123282 10466 net.cpp:129] Top shape: 16 256 7 7 (200704)
I1002 13:36:26.123299 10466 net.cpp:137] Memory required for data: 873463808
I1002 13:36:26.123307 10466 layer_factory.hpp:77] Creating layer elu4_2
I1002 13:36:26.123312 10466 net.cpp:84] Creating Layer elu4_2
I1002 13:36:26.123316 10466 net.cpp:406] elu4_2 <- conv4_2
I1002 13:36:26.123320 10466 net.cpp:367] elu4_2 -> conv4_2 (in-place)
I1002 13:36:26.123327 10466 net.cpp:122] Setting up elu4_2
I1002 13:36:26.123332 10466 net.cpp:129] Top shape: 16 256 7 7 (200704)
I1002 13:36:26.123334 10466 net.cpp:137] Memory required for data: 874266624
I1002 13:36:26.123337 10466 layer_factory.hpp:77] Creating layer deconv4_3
I1002 13:36:26.123348 10466 net.cpp:84] Creating Layer deconv4_3
I1002 13:36:26.123353 10466 net.cpp:406] deconv4_3 <- conv4_2
I1002 13:36:26.123358 10466 net.cpp:380] deconv4_3 -> deconv4_3
I1002 13:36:26.125718 10466 net.cpp:122] Setting up deconv4_3
I1002 13:36:26.125735 10466 net.cpp:129] Top shape: 16 128 7 7 (100352)
I1002 13:36:26.125739 10466 net.cpp:137] Memory required for data: 874668032
I1002 13:36:26.125746 10466 layer_factory.hpp:77] Creating layer debatchnorm4_3
I1002 13:36:26.125753 10466 net.cpp:84] Creating Layer debatchnorm4_3
I1002 13:36:26.125758 10466 net.cpp:406] debatchnorm4_3 <- deconv4_3
I1002 13:36:26.125766 10466 net.cpp:367] debatchnorm4_3 -> deconv4_3 (in-place)
I1002 13:36:26.125969 10466 net.cpp:122] Setting up debatchnorm4_3
I1002 13:36:26.125975 10466 net.cpp:129] Top shape: 16 128 7 7 (100352)
I1002 13:36:26.125979 10466 net.cpp:137] Memory required for data: 875069440
I1002 13:36:26.125986 10466 layer_factory.hpp:77] Creating layer deelu4_3
I1002 13:36:26.125991 10466 net.cpp:84] Creating Layer deelu4_3
I1002 13:36:26.125995 10466 net.cpp:406] deelu4_3 <- deconv4_3
I1002 13:36:26.126000 10466 net.cpp:367] deelu4_3 -> deconv4_3 (in-place)
I1002 13:36:26.126006 10466 net.cpp:122] Setting up deelu4_3
I1002 13:36:26.126011 10466 net.cpp:129] Top shape: 16 128 7 7 (100352)
I1002 13:36:26.126014 10466 net.cpp:137] Memory required for data: 875470848
I1002 13:36:26.126019 10466 layer_factory.hpp:77] Creating layer unpool3
I1002 13:36:26.126024 10466 net.cpp:84] Creating Layer unpool3
I1002 13:36:26.126029 10466 net.cpp:406] unpool3 <- deconv4_3
I1002 13:36:26.126034 10466 net.cpp:406] unpool3 <- pool3_mask
I1002 13:36:26.126039 10466 net.cpp:406] unpool3 <- pool3_argmax_count
I1002 13:36:26.126047 10466 net.cpp:380] unpool3 -> unpool3
I1002 13:36:26.126075 10466 net.cpp:122] Setting up unpool3
I1002 13:36:26.126080 10466 net.cpp:129] Top shape: 16 128 14 14 (401408)
I1002 13:36:26.126085 10466 net.cpp:137] Memory required for data: 877076480
I1002 13:36:26.126087 10466 layer_factory.hpp:77] Creating layer deconv3_1
I1002 13:36:26.126094 10466 net.cpp:84] Creating Layer deconv3_1
I1002 13:36:26.126098 10466 net.cpp:406] deconv3_1 <- unpool3
I1002 13:36:26.126106 10466 net.cpp:380] deconv3_1 -> deconv3_1
I1002 13:36:26.127576 10466 net.cpp:122] Setting up deconv3_1
I1002 13:36:26.127588 10466 net.cpp:129] Top shape: 16 128 14 14 (401408)
I1002 13:36:26.127593 10466 net.cpp:137] Memory required for data: 878682112
I1002 13:36:26.127599 10466 layer_factory.hpp:77] Creating layer debatchnorm3_1
I1002 13:36:26.127605 10466 net.cpp:84] Creating Layer debatchnorm3_1
I1002 13:36:26.127610 10466 net.cpp:406] debatchnorm3_1 <- deconv3_1
I1002 13:36:26.127615 10466 net.cpp:367] debatchnorm3_1 -> deconv3_1 (in-place)
I1002 13:36:26.127816 10466 net.cpp:122] Setting up debatchnorm3_1
I1002 13:36:26.127822 10466 net.cpp:129] Top shape: 16 128 14 14 (401408)
I1002 13:36:26.127825 10466 net.cpp:137] Memory required for data: 880287744
I1002 13:36:26.127831 10466 layer_factory.hpp:77] Creating layer deelu3_1
I1002 13:36:26.127835 10466 net.cpp:84] Creating Layer deelu3_1
I1002 13:36:26.127838 10466 net.cpp:406] deelu3_1 <- deconv3_1
I1002 13:36:26.127842 10466 net.cpp:367] deelu3_1 -> deconv3_1 (in-place)
I1002 13:36:26.127847 10466 net.cpp:122] Setting up deelu3_1
I1002 13:36:26.127852 10466 net.cpp:129] Top shape: 16 128 14 14 (401408)
I1002 13:36:26.127854 10466 net.cpp:137] Memory required for data: 881893376
I1002 13:36:26.127874 10466 layer_factory.hpp:77] Creating layer deconv3_2
I1002 13:36:26.127881 10466 net.cpp:84] Creating Layer deconv3_2
I1002 13:36:26.127885 10466 net.cpp:406] deconv3_2 <- deconv3_1
I1002 13:36:26.127890 10466 net.cpp:380] deconv3_2 -> deconv3_2
I1002 13:36:26.129384 10466 net.cpp:122] Setting up deconv3_2
I1002 13:36:26.129396 10466 net.cpp:129] Top shape: 16 128 14 14 (401408)
I1002 13:36:26.129401 10466 net.cpp:137] Memory required for data: 883499008
I1002 13:36:26.129407 10466 layer_factory.hpp:77] Creating layer debatchnorm3_2
I1002 13:36:26.129413 10466 net.cpp:84] Creating Layer debatchnorm3_2
I1002 13:36:26.129416 10466 net.cpp:406] debatchnorm3_2 <- deconv3_2
I1002 13:36:26.129423 10466 net.cpp:367] debatchnorm3_2 -> deconv3_2 (in-place)
I1002 13:36:26.129621 10466 net.cpp:122] Setting up debatchnorm3_2
I1002 13:36:26.129627 10466 net.cpp:129] Top shape: 16 128 14 14 (401408)
I1002 13:36:26.129631 10466 net.cpp:137] Memory required for data: 885104640
I1002 13:36:26.129638 10466 layer_factory.hpp:77] Creating layer deelu3_2
I1002 13:36:26.129642 10466 net.cpp:84] Creating Layer deelu3_2
I1002 13:36:26.129647 10466 net.cpp:406] deelu3_2 <- deconv3_2
I1002 13:36:26.129652 10466 net.cpp:367] deelu3_2 -> deconv3_2 (in-place)
I1002 13:36:26.129657 10466 net.cpp:122] Setting up deelu3_2
I1002 13:36:26.129662 10466 net.cpp:129] Top shape: 16 128 14 14 (401408)
I1002 13:36:26.129664 10466 net.cpp:137] Memory required for data: 886710272
I1002 13:36:26.129668 10466 layer_factory.hpp:77] Creating layer deconv3_3
I1002 13:36:26.129675 10466 net.cpp:84] Creating Layer deconv3_3
I1002 13:36:26.129678 10466 net.cpp:406] deconv3_3 <- deconv3_2
I1002 13:36:26.129688 10466 net.cpp:380] deconv3_3 -> deconv3_3
I1002 13:36:26.130311 10466 net.cpp:122] Setting up deconv3_3
I1002 13:36:26.130319 10466 net.cpp:129] Top shape: 16 64 14 14 (200704)
I1002 13:36:26.130322 10466 net.cpp:137] Memory required for data: 887513088
I1002 13:36:26.130336 10466 layer_factory.hpp:77] Creating layer debatchnorm3_3
I1002 13:36:26.130343 10466 net.cpp:84] Creating Layer debatchnorm3_3
I1002 13:36:26.130347 10466 net.cpp:406] debatchnorm3_3 <- deconv3_3
I1002 13:36:26.130352 10466 net.cpp:367] debatchnorm3_3 -> deconv3_3 (in-place)
I1002 13:36:26.130554 10466 net.cpp:122] Setting up debatchnorm3_3
I1002 13:36:26.130560 10466 net.cpp:129] Top shape: 16 64 14 14 (200704)
I1002 13:36:26.130564 10466 net.cpp:137] Memory required for data: 888315904
I1002 13:36:26.130571 10466 layer_factory.hpp:77] Creating layer deelu3_3
I1002 13:36:26.130578 10466 net.cpp:84] Creating Layer deelu3_3
I1002 13:36:26.130581 10466 net.cpp:406] deelu3_3 <- deconv3_3
I1002 13:36:26.130587 10466 net.cpp:367] deelu3_3 -> deconv3_3 (in-place)
I1002 13:36:26.130592 10466 net.cpp:122] Setting up deelu3_3
I1002 13:36:26.130596 10466 net.cpp:129] Top shape: 16 64 14 14 (200704)
I1002 13:36:26.130599 10466 net.cpp:137] Memory required for data: 889118720
I1002 13:36:26.130604 10466 layer_factory.hpp:77] Creating layer unpool2
I1002 13:36:26.130610 10466 net.cpp:84] Creating Layer unpool2
I1002 13:36:26.130614 10466 net.cpp:406] unpool2 <- deconv3_3
I1002 13:36:26.130619 10466 net.cpp:406] unpool2 <- pool2_mask
I1002 13:36:26.130623 10466 net.cpp:406] unpool2 <- pool2_argmax_count
I1002 13:36:26.130628 10466 net.cpp:380] unpool2 -> unpool2
I1002 13:36:26.130655 10466 net.cpp:122] Setting up unpool2
I1002 13:36:26.130661 10466 net.cpp:129] Top shape: 16 64 56 56 (3211264)
I1002 13:36:26.130664 10466 net.cpp:137] Memory required for data: 901963776
I1002 13:36:26.130667 10466 layer_factory.hpp:77] Creating layer deconv2_1
I1002 13:36:26.130674 10466 net.cpp:84] Creating Layer deconv2_1
I1002 13:36:26.130678 10466 net.cpp:406] deconv2_1 <- unpool2
I1002 13:36:26.130684 10466 net.cpp:380] deconv2_1 -> deconv2_1
I1002 13:36:26.131122 10466 net.cpp:122] Setting up deconv2_1
I1002 13:36:26.131129 10466 net.cpp:129] Top shape: 16 64 56 56 (3211264)
I1002 13:36:26.131132 10466 net.cpp:137] Memory required for data: 914808832
I1002 13:36:26.131139 10466 layer_factory.hpp:77] Creating layer debatchnorm2_1
I1002 13:36:26.131155 10466 net.cpp:84] Creating Layer debatchnorm2_1
I1002 13:36:26.131160 10466 net.cpp:406] debatchnorm2_1 <- deconv2_1
I1002 13:36:26.131165 10466 net.cpp:367] debatchnorm2_1 -> deconv2_1 (in-place)
I1002 13:36:26.131367 10466 net.cpp:122] Setting up debatchnorm2_1
I1002 13:36:26.131373 10466 net.cpp:129] Top shape: 16 64 56 56 (3211264)
I1002 13:36:26.131376 10466 net.cpp:137] Memory required for data: 927653888
I1002 13:36:26.131383 10466 layer_factory.hpp:77] Creating layer deelu2_1
I1002 13:36:26.131388 10466 net.cpp:84] Creating Layer deelu2_1
I1002 13:36:26.131392 10466 net.cpp:406] deelu2_1 <- deconv2_1
I1002 13:36:26.131397 10466 net.cpp:367] deelu2_1 -> deconv2_1 (in-place)
I1002 13:36:26.131402 10466 net.cpp:122] Setting up deelu2_1
I1002 13:36:26.131407 10466 net.cpp:129] Top shape: 16 64 56 56 (3211264)
I1002 13:36:26.131410 10466 net.cpp:137] Memory required for data: 940498944
I1002 13:36:26.131413 10466 layer_factory.hpp:77] Creating layer deconv2_2
I1002 13:36:26.131422 10466 net.cpp:84] Creating Layer deconv2_2
I1002 13:36:26.131427 10466 net.cpp:406] deconv2_2 <- deconv2_1
I1002 13:36:26.131433 10466 net.cpp:380] deconv2_2 -> deconv2_2
I1002 13:36:26.131783 10466 net.cpp:122] Setting up deconv2_2
I1002 13:36:26.131789 10466 net.cpp:129] Top shape: 16 32 56 56 (1605632)
I1002 13:36:26.131794 10466 net.cpp:137] Memory required for data: 946921472
I1002 13:36:26.131799 10466 layer_factory.hpp:77] Creating layer debatchnorm2_2
I1002 13:36:26.131806 10466 net.cpp:84] Creating Layer debatchnorm2_2
I1002 13:36:26.131810 10466 net.cpp:406] debatchnorm2_2 <- deconv2_2
I1002 13:36:26.131815 10466 net.cpp:367] debatchnorm2_2 -> deconv2_2 (in-place)
I1002 13:36:26.132019 10466 net.cpp:122] Setting up debatchnorm2_2
I1002 13:36:26.132025 10466 net.cpp:129] Top shape: 16 32 56 56 (1605632)
I1002 13:36:26.132028 10466 net.cpp:137] Memory required for data: 953344000
I1002 13:36:26.132036 10466 layer_factory.hpp:77] Creating layer deelu2_2
I1002 13:36:26.132041 10466 net.cpp:84] Creating Layer deelu2_2
I1002 13:36:26.132045 10466 net.cpp:406] deelu2_2 <- deconv2_2
I1002 13:36:26.132050 10466 net.cpp:367] deelu2_2 -> deconv2_2 (in-place)
I1002 13:36:26.132056 10466 net.cpp:122] Setting up deelu2_2
I1002 13:36:26.132061 10466 net.cpp:129] Top shape: 16 32 56 56 (1605632)
I1002 13:36:26.132064 10466 net.cpp:137] Memory required for data: 959766528
I1002 13:36:26.132067 10466 layer_factory.hpp:77] Creating layer unpool1
I1002 13:36:26.132073 10466 net.cpp:84] Creating Layer unpool1
I1002 13:36:26.132077 10466 net.cpp:406] unpool1 <- deconv2_2
I1002 13:36:26.132081 10466 net.cpp:406] unpool1 <- pool1_mask
I1002 13:36:26.132086 10466 net.cpp:406] unpool1 <- pool1_argmax_count
I1002 13:36:26.132091 10466 net.cpp:380] unpool1 -> unpool1
I1002 13:36:26.132115 10466 net.cpp:122] Setting up unpool1
I1002 13:36:26.132120 10466 net.cpp:129] Top shape: 16 32 224 224 (25690112)
I1002 13:36:26.132124 10466 net.cpp:137] Memory required for data: 1062526976
I1002 13:36:26.132128 10466 layer_factory.hpp:77] Creating layer deconv1_1
I1002 13:36:26.132135 10466 net.cpp:84] Creating Layer deconv1_1
I1002 13:36:26.132140 10466 net.cpp:406] deconv1_1 <- unpool1
I1002 13:36:26.132146 10466 net.cpp:380] deconv1_1 -> deconv1_1
I1002 13:36:26.132447 10466 net.cpp:122] Setting up deconv1_1
I1002 13:36:26.132454 10466 net.cpp:129] Top shape: 16 32 224 224 (25690112)
I1002 13:36:26.132458 10466 net.cpp:137] Memory required for data: 1165287424
I1002 13:36:26.132463 10466 layer_factory.hpp:77] Creating layer debatchnorm1_1
I1002 13:36:26.132469 10466 net.cpp:84] Creating Layer debatchnorm1_1
I1002 13:36:26.132473 10466 net.cpp:406] debatchnorm1_1 <- deconv1_1
I1002 13:36:26.132479 10466 net.cpp:367] debatchnorm1_1 -> deconv1_1 (in-place)
I1002 13:36:26.132691 10466 net.cpp:122] Setting up debatchnorm1_1
I1002 13:36:26.132699 10466 net.cpp:129] Top shape: 16 32 224 224 (25690112)
I1002 13:36:26.132702 10466 net.cpp:137] Memory required for data: 1268047872
I1002 13:36:26.132709 10466 layer_factory.hpp:77] Creating layer deelu1_1
I1002 13:36:26.132721 10466 net.cpp:84] Creating Layer deelu1_1
I1002 13:36:26.132726 10466 net.cpp:406] deelu1_1 <- deconv1_1
I1002 13:36:26.132731 10466 net.cpp:367] deelu1_1 -> deconv1_1 (in-place)
I1002 13:36:26.132736 10466 net.cpp:122] Setting up deelu1_1
I1002 13:36:26.132741 10466 net.cpp:129] Top shape: 16 32 224 224 (25690112)
I1002 13:36:26.132745 10466 net.cpp:137] Memory required for data: 1370808320
I1002 13:36:26.132750 10466 layer_factory.hpp:77] Creating layer deconv1_2
I1002 13:36:26.132755 10466 net.cpp:84] Creating Layer deconv1_2
I1002 13:36:26.132758 10466 net.cpp:406] deconv1_2 <- deconv1_1
I1002 13:36:26.132766 10466 net.cpp:380] deconv1_2 -> deconv1_2
I1002 13:36:26.133074 10466 net.cpp:122] Setting up deconv1_2
I1002 13:36:26.133081 10466 net.cpp:129] Top shape: 16 32 224 224 (25690112)
I1002 13:36:26.133085 10466 net.cpp:137] Memory required for data: 1473568768
I1002 13:36:26.133091 10466 layer_factory.hpp:77] Creating layer debatchnorm1_2
I1002 13:36:26.133096 10466 net.cpp:84] Creating Layer debatchnorm1_2
I1002 13:36:26.133100 10466 net.cpp:406] debatchnorm1_2 <- deconv1_2
I1002 13:36:26.133105 10466 net.cpp:367] debatchnorm1_2 -> deconv1_2 (in-place)
I1002 13:36:26.133781 10466 net.cpp:122] Setting up debatchnorm1_2
I1002 13:36:26.133792 10466 net.cpp:129] Top shape: 16 32 224 224 (25690112)
I1002 13:36:26.133795 10466 net.cpp:137] Memory required for data: 1576329216
I1002 13:36:26.133803 10466 layer_factory.hpp:77] Creating layer deelu1_2
I1002 13:36:26.133810 10466 net.cpp:84] Creating Layer deelu1_2
I1002 13:36:26.133812 10466 net.cpp:406] deelu1_2 <- deconv1_2
I1002 13:36:26.133818 10466 net.cpp:367] deelu1_2 -> deconv1_2 (in-place)
I1002 13:36:26.133824 10466 net.cpp:122] Setting up deelu1_2
I1002 13:36:26.133831 10466 net.cpp:129] Top shape: 16 32 224 224 (25690112)
I1002 13:36:26.133833 10466 net.cpp:137] Memory required for data: 1679089664
I1002 13:36:26.133837 10466 layer_factory.hpp:77] Creating layer segmentation
I1002 13:36:26.133846 10466 net.cpp:84] Creating Layer segmentation
I1002 13:36:26.133850 10466 net.cpp:406] segmentation <- deconv1_2
I1002 13:36:26.133857 10466 net.cpp:380] segmentation -> segmentation
I1002 13:36:26.135720 10466 net.cpp:122] Setting up segmentation
I1002 13:36:26.135731 10466 net.cpp:129] Top shape: 16 3 224 224 (2408448)
I1002 13:36:26.135736 10466 net.cpp:137] Memory required for data: 1688723456
I1002 13:36:26.135742 10466 layer_factory.hpp:77] Creating layer infogainLoss
I1002 13:36:26.135751 10466 net.cpp:84] Creating Layer infogainLoss
I1002 13:36:26.135756 10466 net.cpp:406] infogainLoss <- segmentation
I1002 13:36:26.135761 10466 net.cpp:406] infogainLoss <- label
I1002 13:36:26.135768 10466 net.cpp:380] infogainLoss -> loss
…
I1002 13:36:26.140707 10466 solver.cpp:172] Creating test net (#0) specified by net file: train_val.prototxt
I1002 13:36:26.140769 10466 net.cpp:294] The NetState phase (1) differed from the phase (0) specified by a rule in layer data
I1002 13:36:26.141041 10466 net.cpp:51] Initializing net from parameters: 
name: "ZNet"
state {
  phase: TEST
}
layer {
  name: "data"
  type: "HDF5Data"
  top: "data"
  top: "label"
  include {
    phase: TEST
  }
  hdf5_data_param {
    source: "/home/grochette/Documents/SegNet/data/HDF5/Validation/hdf5_list.txt"
    batch_size: 2
  }
}
layer {
  name: "batchnorm0"
  type: "BatchNorm"
  bottom: "data"
  top: "data"
}
layer {
  name: "conv1_1"
  type: "Convolution"
  bottom: "data"
  top: "conv1_1"
  param {
    lr_mult: 1
    decay_mult: 1
  }
  param {
    lr_mult: 2
    decay_mult: 0
  }
  convolution_param {
    num_output: 32
    pad: 1
    kernel_size: 3
    stride: 1
    weight_filler {
      type: "xavier"
    }
    bias_filler {
      type: "constant"
    }
  }
}
layer {
  name: "batchnorm1_1"
  type: "BatchNorm"
  bottom: "conv1_1"
  top: "conv1_1"
}
layer {
  name: "elu1_1"
  type: "ELU"
  bottom: "conv1_1"
  top: "conv1_1"
}
layer {
  name: "conv1_2"
  type: "Convolution"
  bottom: "conv1_1"
  top: "conv1_2"
  param {
    lr_mult: 1
    decay_mult: 1
  }
  param {
    lr_mult: 2
    decay_mult: 0
  }
  convolution_param {
    num_output: 32
    pad: 1
    kernel_size: 3
    stride: 1
    weight_filler {
      type: "xavier"
    }
    bias_filler {
      type: "constant"
    }
  }
}
layer {
  name: "batchnorm1_2"
  type: "BatchNorm"
  bottom: "conv1_2"
  top: "conv1_2"
}
layer {
  name: "elu1_2"
  type: "ELU"
  bottom: "conv1_2"
  top: "conv1_2"
}
layer {
  name: "pool1"
  type: "Pooling"
  bottom: "conv1_2"
  top: "pool1"
  top: "pool1_mask"
  top: "pool1_argmax_count"
  pooling_param {
    pool: MAX
    kernel_size: 4
    stride: 4
  }
}
layer {
  name: "conv2_1"
  type: "Convolution"
  bottom: "pool1"
  top: "conv2_1"
  param {
    lr_mult: 1
    decay_mult: 1
  }
  param {
    lr_mult: 2
    decay_mult: 0
  }
  convolution_param {
    num_output: 64
    pad: 1
    kernel_size: 3
    stride: 1
    weight_filler {
      type: "xavier"
    }
    bias_filler {
      type: "constant"
    }
  }
}
layer {
  name: "batchnorm2_1"
  type: "BatchNorm"
  bottom: "conv2_1"
  top: "conv2_1"
}
layer {
  name: "elu2_1"
  type: "ELU"
  bottom: "conv2_1"
  top: "conv2_1"
}
layer {
  name: "conv2_2"
  type: "Convolution"
  bottom: "conv2_1"
  top: "conv2_2"
  param {
    lr_mult: 1
    decay_mult: 1
  }
  param {
    lr_mult: 2
    decay_mult: 0
  }
  convolution_param {
    num_output: 64
    pad: 1
    kernel_size: 3
    stride: 1
    weight_filler {
      type: "xavier"
    }
    bias_filler {
      type: "constant"
    }
  }
}
layer {
  name: "batchnorm2_2"
  type: "BatchNorm"
  bottom: "conv2_2"
  top: "conv2_2"
}
layer {
  name: "elu2_2"
  type: "ELU"
  bottom: "conv2_2"
  top: "conv2_2"
}
layer {
  name: "pool2"
  type: "Pooling"
  bottom: "conv2_2"
  top: "pool2"
  top: "pool2_mask"
  top: "pool2_argmax_count"
  pooling_param {
    pool: MAX
    kernel_size: 4
    stride: 4
  }
}
layer {
  name: "conv3_1"
  type: "Convolution"
  bottom: "pool2"
  top: "conv3_1"
  param {
    lr_mult: 1
    decay_mult: 1
  }
  param {
    lr_mult: 2
    decay_mult: 0
  }
  convolution_param {
    num_output: 128
    pad: 1
    kernel_size: 3
    stride: 1
    weight_filler {
      type: "xavier"
    }
    bias_filler {
      type: "constant"
    }
  }
}
layer {
  name: "batchnorm3_1"
  type: "BatchNorm"
  bottom: "conv3_1"
  top: "conv3_1"
}
layer {
  name: "elu3_1"
  type: "ELU"
  bottom: "conv3_1"
  top: "conv3_1"
}
layer {
  name: "conv3_2"
  type: "Convolution"
  bottom: "conv3_1"
  top: "conv3_2"
  param {
    lr_mult: 1
    decay_mult: 1
  }
  param {
    lr_mult: 2
    decay_mult: 0
  }
  convolution_param {
    num_output: 128
    pad: 1
    kernel_size: 3
    stride: 1
    weight_filler {
      type: "xavier"
    }
    bias_filler {
      type: "constant"
    }
  }
}
layer {
  name: "batchnorm3_2"
  type: "BatchNorm"
  bottom: "conv3_2"
  top: "conv3_2"
}
layer {
  name: "elu3_2"
  type: "ELU"
  bottom: "conv3_2"
  top: "conv3_2"
}
layer {
  name: "conv3_3"
  type: "Convolution"
  bottom: "conv3_2"
  top: "conv3_3"
  param {
    lr_mult: 1
    decay_mult: 1
  }
  param {
    lr_mult: 2
    decay_mult: 0
  }
  convolution_param {
    num_output: 128
    pad: 1
    kernel_size: 3
    stride: 1
    weight_filler {
      type: "xavier"
    }
    bias_filler {
      type: "constant"
    }
  }
}
layer {
  name: "batchnorm3_3"
  type: "BatchNorm"
  bottom: "conv3_3"
  top: "conv3_3"
}
layer {
  name: "elu3_3"
  type: "ELU"
  bottom: "conv3_3"
  top: "conv3_3"
}
layer {
  name: "pool3"
  type: "Pooling"
  bottom: "conv3_3"
  top: "pool3"
  top: "pool3_mask"
  top: "pool3_argmax_count"
  pooling_param {
    pool: MAX
    kernel_size: 2
    stride: 2
  }
}
layer {
  name: "conv4_1"
  type: "Convolution"
  bottom: "pool3"
  top: "conv4_1"
  param {
    lr_mult: 1
    decay_mult: 1
  }
  param {
    lr_mult: 2
    decay_mult: 0
  }
  convolution_param {
    num_output: 256
    pad: 1
    kernel_size: 3
    stride: 1
    weight_filler {
      type: "xavier"
    }
    bias_filler {
      type: "constant"
    }
  }
}
layer {
  name: "batchnorm4_1"
  type: "BatchNorm"
  bottom: "conv4_1"
  top: "conv4_1"
}
layer {
  name: "elu4_1"
  type: "ELU"
  bottom: "conv4_1"
  top: "conv4_1"
}
layer {
  name: "conv4_2"
  type: "Convolution"
  bottom: "conv4_1"
  top: "conv4_2"
  param {
    lr_mult: 1
    decay_mult: 1
  }
  param {
    lr_mult: 2
    decay_mult: 0
  }
  convolution_param {
    num_output: 256
    pad: 1
    kernel_size: 3
    stride: 1
    weight_filler {
      type: "xavier"
    }
    bias_filler {
      type: "constant"
    }
  }
}
layer {
  name: "batchnorm4_2"
  type: "BatchNorm"
  bottom: "conv4_2"
  top: "conv4_2"
}
layer {
  name: "elu4_2"
  type: "ELU"
  bottom: "conv4_2"
  top: "conv4_2"
}
layer {
  name: "deconv4_3"
  type: "Deconvolution"
  bottom: "conv4_2"
  top: "deconv4_3"
  param {
    lr_mult: 1
    decay_mult: 1
  }
  param {
    lr_mult: 2
    decay_mult: 0
  }
  convolution_param {
    num_output: 128
    pad: 1
    kernel_size: 3
    stride: 1
    weight_filler {
      type: "xavier"
    }
    bias_filler {
      type: "constant"
    }
  }
}
layer {
  name: "debatchnorm4_3"
  type: "BatchNorm"
  bottom: "deconv4_3"
  top: "deconv4_3"
}
layer {
  name: "deelu4_3"
  type: "ELU"
  bottom: "deconv4_3"
  top: "deconv4_3"
}
layer {
  name: "unpool3"
  type: "Unpooling"
  bottom: "deconv4_3"
  bottom: "pool3_mask"
  bottom: "pool3_argmax_count"
  top: "unpool3"
  pooling_param {
    pool: MAX
    kernel_size: 2
    stride: 2
  }
}
layer {
  name: "deconv3_1"
  type: "Deconvolution"
  bottom: "unpool3"
  top: "deconv3_1"
  param {
    lr_mult: 1
    decay_mult: 1
  }
  param {
    lr_mult: 2
    decay_mult: 0
  }
  convolution_param {
    num_output: 128
    pad: 1
    kernel_size: 3
    stride: 1
    weight_filler {
      type: "xavier"
    }
    bias_filler {
      type: "constant"
    }
  }
}
layer {
  name: "debatchnorm3_1"
  type: "BatchNorm"
  bottom: "deconv3_1"
  top: "deconv3_1"
}
layer {
  name: "deelu3_1"
  type: "ELU"
  bottom: "deconv3_1"
  top: "deconv3_1"
}
layer {
  name: "deconv3_2"
  type: "Deconvolution"
  bottom: "deconv3_1"
  top: "deconv3_2"
  param {
    lr_mult: 1
    decay_mult: 1
  }
  param {
    lr_mult: 2
    decay_mult: 0
  }
  convolution_param {
    num_output: 128
    pad: 1
    kernel_size: 3
    stride: 1
    weight_filler {
      type: "xavier"
    }
    bias_filler {
      type: "constant"
    }
  }
}
layer {
  name: "debatchnorm3_2"
  type: "BatchNorm"
  bottom: "deconv3_2"
  top: "deconv3_2"
}
layer {
  name: "deelu3_2"
  type: "ELU"
  bottom: "deconv3_2"
  top: "deconv3_2"
}
layer {
  name: "deconv3_3"
  type: "Deconvolution"
  bottom: "deconv3_2"
  top: "deconv3_3"
  param {
    lr_mult: 1
    decay_mult: 1
  }
  param {
    lr_mult: 2
    decay_mult: 0
  }
  convolution_param {
    num_output: 64
    pad: 1
    kernel_size: 3
    stride: 1
    weight_filler {
      type: "xavier"
    }
    bias_filler {
      type: "constant"
    }
  }
}
layer {
  name: "debatchnorm3_3"
  type: "BatchNorm"
  bottom: "deconv3_3"
  top: "deconv3_3"
}
layer {
  name: "deelu3_3"
  type: "ELU"
  bottom: "deconv3_3"
  top: "deconv3_3"
}
layer {
  name: "unpool2"
  type: "Unpooling"
  bottom: "deconv3_3"
  bottom: "pool2_mask"
  bottom: "pool2_argmax_count"
  top: "unpool2"
  pooling_param {
    pool: MAX
    kernel_size: 4
    stride: 4
  }
}
layer {
  name: "deconv2_1"
  type: "Deconvolution"
  bottom: "unpool2"
  top: "deconv2_1"
  param {
    lr_mult: 1
    decay_mult: 1
  }
  param {
    lr_mult: 2
    decay_mult: 0
  }
  convolution_param {
    num_output: 64
    pad: 1
    kernel_size: 3
    stride: 1
    weight_filler {
      type: "xavier"
    }
    bias_filler {
      type: "constant"
    }
  }
}
layer {
  name: "debatchnorm2_1"
  type: "BatchNorm"
  bottom: "deconv2_1"
  top: "deconv2_1"
}
layer {
  name: "deelu2_1"
  type: "ELU"
  bottom: "deconv2_1"
  top: "deconv2_1"
}
layer {
  name: "deconv2_2"
  type: "Deconvolution"
  bottom: "deconv2_1"
  top: "deconv2_2"
  param {
    lr_mult: 1
    decay_mult: 1
  }
  param {
    lr_mult: 2
    decay_mult: 0
  }
  convolution_param {
    num_output: 32
    pad: 1
    kernel_size: 3
    stride: 1
    weight_filler {
      type: "xavier"
    }
    bias_filler {
      type: "constant"
    }
  }
}
layer {
  name: "debatchnorm2_2"
  type: "BatchNorm"
  bottom: "deconv2_2"
  top: "deconv2_2"
}
layer {
  name: "deelu2_2"
  type: "ELU"
  bottom: "deconv2_2"
  top: "deconv2_2"
}
layer {
  name: "unpool1"
  type: "Unpooling"
  bottom: "deconv2_2"
  bottom: "pool1_mask"
  bottom: "pool1_argmax_count"
  top: "unpool1"
  pooling_param {
    pool: MAX
    kernel_size: 4
    stride: 4
  }
}
layer {
  name: "deconv1_1"
  type: "Deconvolution"
  bottom: "unpool1"
  top: "deconv1_1"
  param {
    lr_mult: 1
    decay_mult: 1
  }
  param {
    lr_mult: 2
    decay_mult: 0
  }
  convolution_param {
    num_output: 32
    pad: 1
    kernel_size: 3
    stride: 1
    weight_filler {
      type: "xavier"
    }
    bias_filler {
      type: "constant"
    }
  }
}
layer {
  name: "debatchnorm1_1"
  type: "BatchNorm"
  bottom: "deconv1_1"
  top: "deconv1_1"
}
layer {
  name: "deelu1_1"
  type: "ELU"
  bottom: "deconv1_1"
  top: "deconv1_1"
}
layer {
  name: "deconv1_2"
  type: "Deconvolution"
  bottom: "deconv1_1"
  top: "deconv1_2"
  param {
    lr_mult: 1
    decay_mult: 1
  }
  param {
    lr_mult: 2
    decay_mult: 0
  }
  convolution_param {
    num_output: 32
    pad: 1
    kernel_size: 3
    stride: 1
    weight_filler {
      type: "xavier"
    }
    bias_filler {
      type: "constant"
    }
  }
}
layer {
  name: "debatchnorm1_2"
  type: "BatchNorm"
  bottom: "deconv1_2"
  top: "deconv1_2"
}
layer {
  name: "deelu1_2"
  type: "ELU"
  bottom: "deconv1_2"
  top: "deconv1_2"
}
layer {
  name: "segmentation"
  type: "Convolution"
  bottom: "deconv1_2"
  top: "segmentation"
  param {
    lr_mult: 1
    decay_mult: 1
  }
  param {
    lr_mult: 2
    decay_mult: 0
  }
  convolution_param {
    num_output: 3
    pad: 0
    kernel_size: 1
    weight_filler {
      type: "xavier"
    }
    bias_filler {
      type: "constant"
    }
  }
}
layer {
  name: "infogainLoss"
  type: "InfogainLoss"
  bottom: "segmentation"
  bottom: "label"
  top: "loss"
  loss_param {
    ignore_label: 3
  }
  infogain_loss_param {
    source: "/home/grochette/Documents/SegNet/data/infogainH.binaryproto"
  }
}
layer {
  name: "accuracy"
  type: "Accuracy"
  bottom: "segmentation"
  bottom: "label"
  top: "accuracy"
  top: "per_class_accuracy"
  include {
    phase: TEST
  }
  accuracy_param {
    ignore_label: 3
  }
}
I1002 13:36:26.141518 10466 layer_factory.hpp:77] Creating layer data
I1002 13:36:26.141528 10466 net.cpp:84] Creating Layer data
I1002 13:36:26.141533 10466 net.cpp:380] data -> data
I1002 13:36:26.141541 10466 net.cpp:380] data -> label
I1002 13:36:26.141548 10466 hdf5_data_layer.cpp:80] Loading list of HDF5 filenames from: /home/grochette/Documents/SegNet/data/HDF5/Validation/hdf5_list.txt
I1002 13:36:26.141978 10466 hdf5_data_layer.cpp:94] Number of HDF5 files: 2
I1002 13:36:27.103509 10466 net.cpp:122] Setting up data
I1002 13:36:27.103538 10466 net.cpp:129] Top shape: 2 4 224 224 (401408)
I1002 13:36:27.103543 10466 net.cpp:129] Top shape: 2 1 224 224 (100352)
I1002 13:36:27.103546 10466 net.cpp:137] Memory required for data: 2007040
I1002 13:36:27.103551 10466 layer_factory.hpp:77] Creating layer label_data_1_split
I1002 13:36:27.103561 10466 net.cpp:84] Creating Layer label_data_1_split
I1002 13:36:27.103566 10466 net.cpp:406] label_data_1_split <- label
I1002 13:36:27.103572 10466 net.cpp:380] label_data_1_split -> label_data_1_split_0
I1002 13:36:27.103583 10466 net.cpp:380] label_data_1_split -> label_data_1_split_1
I1002 13:36:27.103628 10466 net.cpp:122] Setting up label_data_1_split
I1002 13:36:27.103634 10466 net.cpp:129] Top shape: 2 1 224 224 (100352)
I1002 13:36:27.103639 10466 net.cpp:129] Top shape: 2 1 224 224 (100352)
I1002 13:36:27.103642 10466 net.cpp:137] Memory required for data: 2809856
I1002 13:36:27.103644 10466 layer_factory.hpp:77] Creating layer batchnorm0
I1002 13:36:27.103652 10466 net.cpp:84] Creating Layer batchnorm0
I1002 13:36:27.103654 10466 net.cpp:406] batchnorm0 <- data
I1002 13:36:27.103659 10466 net.cpp:367] batchnorm0 -> data (in-place)
I1002 13:36:27.103876 10466 net.cpp:122] Setting up batchnorm0
I1002 13:36:27.103883 10466 net.cpp:129] Top shape: 2 4 224 224 (401408)
I1002 13:36:27.103886 10466 net.cpp:137] Memory required for data: 4415488
I1002 13:36:27.103898 10466 layer_factory.hpp:77] Creating layer conv1_1
I1002 13:36:27.103906 10466 net.cpp:84] Creating Layer conv1_1
I1002 13:36:27.103909 10466 net.cpp:406] conv1_1 <- data
I1002 13:36:27.103917 10466 net.cpp:380] conv1_1 -> conv1_1
I1002 13:36:27.106108 10466 net.cpp:122] Setting up conv1_1
I1002 13:36:27.106120 10466 net.cpp:129] Top shape: 2 32 224 224 (3211264)
I1002 13:36:27.106124 10466 net.cpp:137] Memory required for data: 17260544
I1002 13:36:27.106132 10466 layer_factory.hpp:77] Creating layer batchnorm1_1
I1002 13:36:27.106139 10466 net.cpp:84] Creating Layer batchnorm1_1
I1002 13:36:27.106142 10466 net.cpp:406] batchnorm1_1 <- conv1_1
I1002 13:36:27.106147 10466 net.cpp:367] batchnorm1_1 -> conv1_1 (in-place)
I1002 13:36:27.106375 10466 net.cpp:122] Setting up batchnorm1_1
I1002 13:36:27.106382 10466 net.cpp:129] Top shape: 2 32 224 224 (3211264)
I1002 13:36:27.106385 10466 net.cpp:137] Memory required for data: 30105600
I1002 13:36:27.106391 10466 layer_factory.hpp:77] Creating layer elu1_1
I1002 13:36:27.106396 10466 net.cpp:84] Creating Layer elu1_1
I1002 13:36:27.106400 10466 net.cpp:406] elu1_1 <- conv1_1
I1002 13:36:27.106403 10466 net.cpp:367] elu1_1 -> conv1_1 (in-place)
I1002 13:36:27.106407 10466 net.cpp:122] Setting up elu1_1
I1002 13:36:27.106412 10466 net.cpp:129] Top shape: 2 32 224 224 (3211264)
I1002 13:36:27.106415 10466 net.cpp:137] Memory required for data: 42950656
I1002 13:36:27.106420 10466 layer_factory.hpp:77] Creating layer conv1_2
I1002 13:36:27.106427 10466 net.cpp:84] Creating Layer conv1_2
I1002 13:36:27.106431 10466 net.cpp:406] conv1_2 <- conv1_1
I1002 13:36:27.106436 10466 net.cpp:380] conv1_2 -> conv1_2
I1002 13:36:27.108675 10466 net.cpp:122] Setting up conv1_2
I1002 13:36:27.108686 10466 net.cpp:129] Top shape: 2 32 224 224 (3211264)
I1002 13:36:27.108690 10466 net.cpp:137] Memory required for data: 55795712
I1002 13:36:27.108698 10466 layer_factory.hpp:77] Creating layer batchnorm1_2
I1002 13:36:27.108705 10466 net.cpp:84] Creating Layer batchnorm1_2
I1002 13:36:27.108707 10466 net.cpp:406] batchnorm1_2 <- conv1_2
I1002 13:36:27.108712 10466 net.cpp:367] batchnorm1_2 -> conv1_2 (in-place)
I1002 13:36:27.108938 10466 net.cpp:122] Setting up batchnorm1_2
I1002 13:36:27.108945 10466 net.cpp:129] Top shape: 2 32 224 224 (3211264)
I1002 13:36:27.108948 10466 net.cpp:137] Memory required for data: 68640768
I1002 13:36:27.108954 10466 layer_factory.hpp:77] Creating layer elu1_2
I1002 13:36:27.108959 10466 net.cpp:84] Creating Layer elu1_2
I1002 13:36:27.108963 10466 net.cpp:406] elu1_2 <- conv1_2
I1002 13:36:27.108966 10466 net.cpp:367] elu1_2 -> conv1_2 (in-place)
I1002 13:36:27.108991 10466 net.cpp:122] Setting up elu1_2
I1002 13:36:27.108995 10466 net.cpp:129] Top shape: 2 32 224 224 (3211264)
I1002 13:36:27.108999 10466 net.cpp:137] Memory required for data: 81485824
I1002 13:36:27.109000 10466 layer_factory.hpp:77] Creating layer pool1
I1002 13:36:27.109004 10466 layer_factory.cpp:91] cuDNN does not support multiple tops. Using Caffe's own pooling layer.
I1002 13:36:27.109009 10466 net.cpp:84] Creating Layer pool1
I1002 13:36:27.109011 10466 net.cpp:406] pool1 <- conv1_2
I1002 13:36:27.109015 10466 net.cpp:380] pool1 -> pool1
I1002 13:36:27.109021 10466 net.cpp:380] pool1 -> pool1_mask
I1002 13:36:27.109026 10466 net.cpp:380] pool1 -> pool1_argmax_count
I1002 13:36:27.109081 10466 net.cpp:122] Setting up pool1
I1002 13:36:27.109086 10466 net.cpp:129] Top shape: 2 32 56 56 (200704)
I1002 13:36:27.109091 10466 net.cpp:129] Top shape: 2 32 56 56 (200704)
I1002 13:36:27.109096 10466 net.cpp:129] Top shape: 2 32 224 224 (3211264)
I1002 13:36:27.109097 10466 net.cpp:137] Memory required for data: 95936512
I1002 13:36:27.109100 10466 layer_factory.hpp:77] Creating layer conv2_1
I1002 13:36:27.109108 10466 net.cpp:84] Creating Layer conv2_1
I1002 13:36:27.109112 10466 net.cpp:406] conv2_1 <- pool1
I1002 13:36:27.109115 10466 net.cpp:380] conv2_1 -> conv2_1
I1002 13:36:27.110729 10466 net.cpp:122] Setting up conv2_1
I1002 13:36:27.110741 10466 net.cpp:129] Top shape: 2 64 56 56 (401408)
I1002 13:36:27.110745 10466 net.cpp:137] Memory required for data: 97542144
I1002 13:36:27.110751 10466 layer_factory.hpp:77] Creating layer batchnorm2_1
I1002 13:36:27.110759 10466 net.cpp:84] Creating Layer batchnorm2_1
I1002 13:36:27.110764 10466 net.cpp:406] batchnorm2_1 <- conv2_1
I1002 13:36:27.110769 10466 net.cpp:367] batchnorm2_1 -> conv2_1 (in-place)
I1002 13:36:27.110988 10466 net.cpp:122] Setting up batchnorm2_1
I1002 13:36:27.110994 10466 net.cpp:129] Top shape: 2 64 56 56 (401408)
I1002 13:36:27.110998 10466 net.cpp:137] Memory required for data: 99147776
I1002 13:36:27.111009 10466 layer_factory.hpp:77] Creating layer elu2_1
I1002 13:36:27.111014 10466 net.cpp:84] Creating Layer elu2_1
I1002 13:36:27.111018 10466 net.cpp:406] elu2_1 <- conv2_1
I1002 13:36:27.111023 10466 net.cpp:367] elu2_1 -> conv2_1 (in-place)
I1002 13:36:27.111028 10466 net.cpp:122] Setting up elu2_1
I1002 13:36:27.111033 10466 net.cpp:129] Top shape: 2 64 56 56 (401408)
I1002 13:36:27.111037 10466 net.cpp:137] Memory required for data: 100753408
I1002 13:36:27.111040 10466 layer_factory.hpp:77] Creating layer conv2_2
I1002 13:36:27.111049 10466 net.cpp:84] Creating Layer conv2_2
I1002 13:36:27.111053 10466 net.cpp:406] conv2_2 <- conv2_1
I1002 13:36:27.111059 10466 net.cpp:380] conv2_2 -> conv2_2
I1002 13:36:27.113040 10466 net.cpp:122] Setting up conv2_2
I1002 13:36:27.113051 10466 net.cpp:129] Top shape: 2 64 56 56 (401408)
I1002 13:36:27.113054 10466 net.cpp:137] Memory required for data: 102359040
I1002 13:36:27.113060 10466 layer_factory.hpp:77] Creating layer batchnorm2_2
I1002 13:36:27.113065 10466 net.cpp:84] Creating Layer batchnorm2_2
I1002 13:36:27.113068 10466 net.cpp:406] batchnorm2_2 <- conv2_2
I1002 13:36:27.113073 10466 net.cpp:367] batchnorm2_2 -> conv2_2 (in-place)
I1002 13:36:27.113306 10466 net.cpp:122] Setting up batchnorm2_2
I1002 13:36:27.113312 10466 net.cpp:129] Top shape: 2 64 56 56 (401408)
I1002 13:36:27.113315 10466 net.cpp:137] Memory required for data: 103964672
I1002 13:36:27.113322 10466 layer_factory.hpp:77] Creating layer elu2_2
I1002 13:36:27.113325 10466 net.cpp:84] Creating Layer elu2_2
I1002 13:36:27.113328 10466 net.cpp:406] elu2_2 <- conv2_2
I1002 13:36:27.113332 10466 net.cpp:367] elu2_2 -> conv2_2 (in-place)
I1002 13:36:27.113338 10466 net.cpp:122] Setting up elu2_2
I1002 13:36:27.113343 10466 net.cpp:129] Top shape: 2 64 56 56 (401408)
I1002 13:36:27.113346 10466 net.cpp:137] Memory required for data: 105570304
I1002 13:36:27.113350 10466 layer_factory.hpp:77] Creating layer pool2
I1002 13:36:27.113354 10466 layer_factory.cpp:91] cuDNN does not support multiple tops. Using Caffe's own pooling layer.
I1002 13:36:27.113371 10466 net.cpp:84] Creating Layer pool2
I1002 13:36:27.113375 10466 net.cpp:406] pool2 <- conv2_2
I1002 13:36:27.113381 10466 net.cpp:380] pool2 -> pool2
I1002 13:36:27.113387 10466 net.cpp:380] pool2 -> pool2_mask
I1002 13:36:27.113394 10466 net.cpp:380] pool2 -> pool2_argmax_count
I1002 13:36:27.113451 10466 net.cpp:122] Setting up pool2
I1002 13:36:27.113457 10466 net.cpp:129] Top shape: 2 64 14 14 (25088)
I1002 13:36:27.113461 10466 net.cpp:129] Top shape: 2 64 14 14 (25088)
I1002 13:36:27.113466 10466 net.cpp:129] Top shape: 2 64 56 56 (401408)
I1002 13:36:27.113468 10466 net.cpp:137] Memory required for data: 107376640
I1002 13:36:27.113472 10466 layer_factory.hpp:77] Creating layer conv3_1
I1002 13:36:27.113483 10466 net.cpp:84] Creating Layer conv3_1
I1002 13:36:27.113487 10466 net.cpp:406] conv3_1 <- pool2
I1002 13:36:27.113492 10466 net.cpp:380] conv3_1 -> conv3_1
I1002 13:36:27.115674 10466 net.cpp:122] Setting up conv3_1
I1002 13:36:27.115685 10466 net.cpp:129] Top shape: 2 128 14 14 (50176)
I1002 13:36:27.115689 10466 net.cpp:137] Memory required for data: 107577344
I1002 13:36:27.115695 10466 layer_factory.hpp:77] Creating layer batchnorm3_1
I1002 13:36:27.115703 10466 net.cpp:84] Creating Layer batchnorm3_1
I1002 13:36:27.115707 10466 net.cpp:406] batchnorm3_1 <- conv3_1
I1002 13:36:27.115713 10466 net.cpp:367] batchnorm3_1 -> conv3_1 (in-place)
I1002 13:36:27.116048 10466 net.cpp:122] Setting up batchnorm3_1
I1002 13:36:27.116061 10466 net.cpp:129] Top shape: 2 128 14 14 (50176)
I1002 13:36:27.116068 10466 net.cpp:137] Memory required for data: 107778048
I1002 13:36:27.116076 10466 layer_factory.hpp:77] Creating layer elu3_1
I1002 13:36:27.116082 10466 net.cpp:84] Creating Layer elu3_1
I1002 13:36:27.116088 10466 net.cpp:406] elu3_1 <- conv3_1
I1002 13:36:27.116096 10466 net.cpp:367] elu3_1 -> conv3_1 (in-place)
I1002 13:36:27.116106 10466 net.cpp:122] Setting up elu3_1
I1002 13:36:27.116112 10466 net.cpp:129] Top shape: 2 128 14 14 (50176)
I1002 13:36:27.116119 10466 net.cpp:137] Memory required for data: 107978752
I1002 13:36:27.116123 10466 layer_factory.hpp:77] Creating layer conv3_2
I1002 13:36:27.116132 10466 net.cpp:84] Creating Layer conv3_2
I1002 13:36:27.116137 10466 net.cpp:406] conv3_2 <- conv3_1
I1002 13:36:27.116142 10466 net.cpp:380] conv3_2 -> conv3_2
I1002 13:36:27.119220 10466 net.cpp:122] Setting up conv3_2
I1002 13:36:27.119233 10466 net.cpp:129] Top shape: 2 128 14 14 (50176)
I1002 13:36:27.119237 10466 net.cpp:137] Memory required for data: 108179456
I1002 13:36:27.119243 10466 layer_factory.hpp:77] Creating layer batchnorm3_2
I1002 13:36:27.119251 10466 net.cpp:84] Creating Layer batchnorm3_2
I1002 13:36:27.119253 10466 net.cpp:406] batchnorm3_2 <- conv3_2
I1002 13:36:27.119257 10466 net.cpp:367] batchnorm3_2 -> conv3_2 (in-place)
I1002 13:36:27.119485 10466 net.cpp:122] Setting up batchnorm3_2
I1002 13:36:27.119493 10466 net.cpp:129] Top shape: 2 128 14 14 (50176)
I1002 13:36:27.119495 10466 net.cpp:137] Memory required for data: 108380160
I1002 13:36:27.119506 10466 layer_factory.hpp:77] Creating layer elu3_2
I1002 13:36:27.119511 10466 net.cpp:84] Creating Layer elu3_2
I1002 13:36:27.119514 10466 net.cpp:406] elu3_2 <- conv3_2
I1002 13:36:27.119519 10466 net.cpp:367] elu3_2 -> conv3_2 (in-place)
I1002 13:36:27.119525 10466 net.cpp:122] Setting up elu3_2
I1002 13:36:27.119530 10466 net.cpp:129] Top shape: 2 128 14 14 (50176)
I1002 13:36:27.119534 10466 net.cpp:137] Memory required for data: 108580864
I1002 13:36:27.119536 10466 layer_factory.hpp:77] Creating layer conv3_3
I1002 13:36:27.119545 10466 net.cpp:84] Creating Layer conv3_3
I1002 13:36:27.119549 10466 net.cpp:406] conv3_3 <- conv3_2
I1002 13:36:27.119554 10466 net.cpp:380] conv3_3 -> conv3_3
I1002 13:36:27.122587 10466 net.cpp:122] Setting up conv3_3
I1002 13:36:27.122601 10466 net.cpp:129] Top shape: 2 128 14 14 (50176)
I1002 13:36:27.122604 10466 net.cpp:137] Memory required for data: 108781568
I1002 13:36:27.122611 10466 layer_factory.hpp:77] Creating layer batchnorm3_3
I1002 13:36:27.122632 10466 net.cpp:84] Creating Layer batchnorm3_3
I1002 13:36:27.122637 10466 net.cpp:406] batchnorm3_3 <- conv3_3
I1002 13:36:27.122642 10466 net.cpp:367] batchnorm3_3 -> conv3_3 (in-place)
I1002 13:36:27.122866 10466 net.cpp:122] Setting up batchnorm3_3
I1002 13:36:27.122872 10466 net.cpp:129] Top shape: 2 128 14 14 (50176)
I1002 13:36:27.122875 10466 net.cpp:137] Memory required for data: 108982272
I1002 13:36:27.122882 10466 layer_factory.hpp:77] Creating layer elu3_3
I1002 13:36:27.122886 10466 net.cpp:84] Creating Layer elu3_3
I1002 13:36:27.122889 10466 net.cpp:406] elu3_3 <- conv3_3
I1002 13:36:27.122892 10466 net.cpp:367] elu3_3 -> conv3_3 (in-place)
I1002 13:36:27.122897 10466 net.cpp:122] Setting up elu3_3
I1002 13:36:27.122902 10466 net.cpp:129] Top shape: 2 128 14 14 (50176)
I1002 13:36:27.122905 10466 net.cpp:137] Memory required for data: 109182976
I1002 13:36:27.122910 10466 layer_factory.hpp:77] Creating layer pool3
I1002 13:36:27.122913 10466 layer_factory.cpp:91] cuDNN does not support multiple tops. Using Caffe's own pooling layer.
I1002 13:36:27.122918 10466 net.cpp:84] Creating Layer pool3
I1002 13:36:27.122921 10466 net.cpp:406] pool3 <- conv3_3
I1002 13:36:27.122928 10466 net.cpp:380] pool3 -> pool3
I1002 13:36:27.122936 10466 net.cpp:380] pool3 -> pool3_mask
I1002 13:36:27.122941 10466 net.cpp:380] pool3 -> pool3_argmax_count
I1002 13:36:27.122997 10466 net.cpp:122] Setting up pool3
I1002 13:36:27.123004 10466 net.cpp:129] Top shape: 2 128 7 7 (12544)
I1002 13:36:27.123008 10466 net.cpp:129] Top shape: 2 128 7 7 (12544)
I1002 13:36:27.123013 10466 net.cpp:129] Top shape: 2 128 14 14 (50176)
I1002 13:36:27.123014 10466 net.cpp:137] Memory required for data: 109484032
I1002 13:36:27.123018 10466 layer_factory.hpp:77] Creating layer conv4_1
I1002 13:36:27.123025 10466 net.cpp:84] Creating Layer conv4_1
I1002 13:36:27.123028 10466 net.cpp:406] conv4_1 <- pool3
I1002 13:36:27.123034 10466 net.cpp:380] conv4_1 -> conv4_1
I1002 13:36:27.127545 10466 net.cpp:122] Setting up conv4_1
I1002 13:36:27.127557 10466 net.cpp:129] Top shape: 2 256 7 7 (25088)
I1002 13:36:27.127562 10466 net.cpp:137] Memory required for data: 109584384
I1002 13:36:27.127568 10466 layer_factory.hpp:77] Creating layer batchnorm4_1
I1002 13:36:27.127575 10466 net.cpp:84] Creating Layer batchnorm4_1
I1002 13:36:27.127580 10466 net.cpp:406] batchnorm4_1 <- conv4_1
I1002 13:36:27.127585 10466 net.cpp:367] batchnorm4_1 -> conv4_1 (in-place)
I1002 13:36:27.127815 10466 net.cpp:122] Setting up batchnorm4_1
I1002 13:36:27.127821 10466 net.cpp:129] Top shape: 2 256 7 7 (25088)
I1002 13:36:27.127825 10466 net.cpp:137] Memory required for data: 109684736
I1002 13:36:27.127832 10466 layer_factory.hpp:77] Creating layer elu4_1
I1002 13:36:27.127837 10466 net.cpp:84] Creating Layer elu4_1
I1002 13:36:27.127841 10466 net.cpp:406] elu4_1 <- conv4_1
I1002 13:36:27.127846 10466 net.cpp:367] elu4_1 -> conv4_1 (in-place)
I1002 13:36:27.127851 10466 net.cpp:122] Setting up elu4_1
I1002 13:36:27.127856 10466 net.cpp:129] Top shape: 2 256 7 7 (25088)
I1002 13:36:27.127859 10466 net.cpp:137] Memory required for data: 109785088
I1002 13:36:27.127863 10466 layer_factory.hpp:77] Creating layer conv4_2
I1002 13:36:27.127873 10466 net.cpp:84] Creating Layer conv4_2
I1002 13:36:27.127876 10466 net.cpp:406] conv4_2 <- conv4_1
I1002 13:36:27.127882 10466 net.cpp:380] conv4_2 -> conv4_2
I1002 13:36:27.134043 10466 net.cpp:122] Setting up conv4_2
I1002 13:36:27.134061 10466 net.cpp:129] Top shape: 2 256 7 7 (25088)
I1002 13:36:27.134088 10466 net.cpp:137] Memory required for data: 109885440
I1002 13:36:27.134099 10466 layer_factory.hpp:77] Creating layer batchnorm4_2
I1002 13:36:27.134109 10466 net.cpp:84] Creating Layer batchnorm4_2
I1002 13:36:27.134114 10466 net.cpp:406] batchnorm4_2 <- conv4_2
I1002 13:36:27.134124 10466 net.cpp:367] batchnorm4_2 -> conv4_2 (in-place)
I1002 13:36:27.134356 10466 net.cpp:122] Setting up batchnorm4_2
I1002 13:36:27.134362 10466 net.cpp:129] Top shape: 2 256 7 7 (25088)
I1002 13:36:27.134366 10466 net.cpp:137] Memory required for data: 109985792
I1002 13:36:27.134393 10466 layer_factory.hpp:77] Creating layer elu4_2
I1002 13:36:27.134403 10466 net.cpp:84] Creating Layer elu4_2
I1002 13:36:27.134408 10466 net.cpp:406] elu4_2 <- conv4_2
I1002 13:36:27.134413 10466 net.cpp:367] elu4_2 -> conv4_2 (in-place)
I1002 13:36:27.134419 10466 net.cpp:122] Setting up elu4_2
I1002 13:36:27.134423 10466 net.cpp:129] Top shape: 2 256 7 7 (25088)
I1002 13:36:27.134428 10466 net.cpp:137] Memory required for data: 110086144
I1002 13:36:27.134431 10466 layer_factory.hpp:77] Creating layer deconv4_3
I1002 13:36:27.134439 10466 net.cpp:84] Creating Layer deconv4_3
I1002 13:36:27.134443 10466 net.cpp:406] deconv4_3 <- conv4_2
I1002 13:36:27.134450 10466 net.cpp:380] deconv4_3 -> deconv4_3
I1002 13:36:27.136731 10466 net.cpp:122] Setting up deconv4_3
I1002 13:36:27.136742 10466 net.cpp:129] Top shape: 2 128 7 7 (12544)
I1002 13:36:27.136745 10466 net.cpp:137] Memory required for data: 110136320
I1002 13:36:27.136752 10466 layer_factory.hpp:77] Creating layer debatchnorm4_3
I1002 13:36:27.136759 10466 net.cpp:84] Creating Layer debatchnorm4_3
I1002 13:36:27.136764 10466 net.cpp:406] debatchnorm4_3 <- deconv4_3
I1002 13:36:27.136768 10466 net.cpp:367] debatchnorm4_3 -> deconv4_3 (in-place)
I1002 13:36:27.136992 10466 net.cpp:122] Setting up debatchnorm4_3
I1002 13:36:27.136998 10466 net.cpp:129] Top shape: 2 128 7 7 (12544)
I1002 13:36:27.137002 10466 net.cpp:137] Memory required for data: 110186496
I1002 13:36:27.137009 10466 layer_factory.hpp:77] Creating layer deelu4_3
I1002 13:36:27.137014 10466 net.cpp:84] Creating Layer deelu4_3
I1002 13:36:27.137018 10466 net.cpp:406] deelu4_3 <- deconv4_3
I1002 13:36:27.137022 10466 net.cpp:367] deelu4_3 -> deconv4_3 (in-place)
I1002 13:36:27.137027 10466 net.cpp:122] Setting up deelu4_3
I1002 13:36:27.137033 10466 net.cpp:129] Top shape: 2 128 7 7 (12544)
I1002 13:36:27.137037 10466 net.cpp:137] Memory required for data: 110236672
I1002 13:36:27.137042 10466 layer_factory.hpp:77] Creating layer unpool3
I1002 13:36:27.137048 10466 net.cpp:84] Creating Layer unpool3
I1002 13:36:27.137053 10466 net.cpp:406] unpool3 <- deconv4_3
I1002 13:36:27.137058 10466 net.cpp:406] unpool3 <- pool3_mask
I1002 13:36:27.137063 10466 net.cpp:406] unpool3 <- pool3_argmax_count
I1002 13:36:27.137068 10466 net.cpp:380] unpool3 -> unpool3
I1002 13:36:27.137095 10466 net.cpp:122] Setting up unpool3
I1002 13:36:27.137100 10466 net.cpp:129] Top shape: 2 128 14 14 (50176)
I1002 13:36:27.137104 10466 net.cpp:137] Memory required for data: 110437376
I1002 13:36:27.137105 10466 layer_factory.hpp:77] Creating layer deconv3_1
I1002 13:36:27.137114 10466 net.cpp:84] Creating Layer deconv3_1
I1002 13:36:27.137116 10466 net.cpp:406] deconv3_1 <- unpool3
I1002 13:36:27.137122 10466 net.cpp:380] deconv3_1 -> deconv3_1
I1002 13:36:27.138598 10466 net.cpp:122] Setting up deconv3_1
I1002 13:36:27.138609 10466 net.cpp:129] Top shape: 2 128 14 14 (50176)
I1002 13:36:27.138612 10466 net.cpp:137] Memory required for data: 110638080
I1002 13:36:27.138617 10466 layer_factory.hpp:77] Creating layer debatchnorm3_1
I1002 13:36:27.138622 10466 net.cpp:84] Creating Layer debatchnorm3_1
I1002 13:36:27.138625 10466 net.cpp:406] debatchnorm3_1 <- deconv3_1
I1002 13:36:27.138631 10466 net.cpp:367] debatchnorm3_1 -> deconv3_1 (in-place)
I1002 13:36:27.138852 10466 net.cpp:122] Setting up debatchnorm3_1
I1002 13:36:27.138859 10466 net.cpp:129] Top shape: 2 128 14 14 (50176)
I1002 13:36:27.138862 10466 net.cpp:137] Memory required for data: 110838784
I1002 13:36:27.138869 10466 layer_factory.hpp:77] Creating layer deelu3_1
I1002 13:36:27.138872 10466 net.cpp:84] Creating Layer deelu3_1
I1002 13:36:27.138875 10466 net.cpp:406] deelu3_1 <- deconv3_1
I1002 13:36:27.138880 10466 net.cpp:367] deelu3_1 -> deconv3_1 (in-place)
I1002 13:36:27.138885 10466 net.cpp:122] Setting up deelu3_1
I1002 13:36:27.138890 10466 net.cpp:129] Top shape: 2 128 14 14 (50176)
I1002 13:36:27.138892 10466 net.cpp:137] Memory required for data: 111039488
I1002 13:36:27.138896 10466 layer_factory.hpp:77] Creating layer deconv3_2
I1002 13:36:27.138913 10466 net.cpp:84] Creating Layer deconv3_2
I1002 13:36:27.138917 10466 net.cpp:406] deconv3_2 <- deconv3_1
I1002 13:36:27.138922 10466 net.cpp:380] deconv3_2 -> deconv3_2
I1002 13:36:27.140398 10466 net.cpp:122] Setting up deconv3_2
I1002 13:36:27.140408 10466 net.cpp:129] Top shape: 2 128 14 14 (50176)
I1002 13:36:27.140411 10466 net.cpp:137] Memory required for data: 111240192
I1002 13:36:27.140417 10466 layer_factory.hpp:77] Creating layer debatchnorm3_2
I1002 13:36:27.140424 10466 net.cpp:84] Creating Layer debatchnorm3_2
I1002 13:36:27.140429 10466 net.cpp:406] debatchnorm3_2 <- deconv3_2
I1002 13:36:27.140434 10466 net.cpp:367] debatchnorm3_2 -> deconv3_2 (in-place)
I1002 13:36:27.140661 10466 net.cpp:122] Setting up debatchnorm3_2
I1002 13:36:27.140667 10466 net.cpp:129] Top shape: 2 128 14 14 (50176)
I1002 13:36:27.140671 10466 net.cpp:137] Memory required for data: 111440896
I1002 13:36:27.140676 10466 layer_factory.hpp:77] Creating layer deelu3_2
I1002 13:36:27.140681 10466 net.cpp:84] Creating Layer deelu3_2
I1002 13:36:27.140686 10466 net.cpp:406] deelu3_2 <- deconv3_2
I1002 13:36:27.140691 10466 net.cpp:367] deelu3_2 -> deconv3_2 (in-place)
I1002 13:36:27.140696 10466 net.cpp:122] Setting up deelu3_2
I1002 13:36:27.140700 10466 net.cpp:129] Top shape: 2 128 14 14 (50176)
I1002 13:36:27.140704 10466 net.cpp:137] Memory required for data: 111641600
I1002 13:36:27.140707 10466 layer_factory.hpp:77] Creating layer deconv3_3
I1002 13:36:27.140714 10466 net.cpp:84] Creating Layer deconv3_3
I1002 13:36:27.140718 10466 net.cpp:406] deconv3_3 <- deconv3_2
I1002 13:36:27.140724 10466 net.cpp:380] deconv3_3 -> deconv3_3
I1002 13:36:27.141400 10466 net.cpp:122] Setting up deconv3_3
I1002 13:36:27.141407 10466 net.cpp:129] Top shape: 2 64 14 14 (25088)
I1002 13:36:27.141412 10466 net.cpp:137] Memory required for data: 111741952
I1002 13:36:27.141427 10466 layer_factory.hpp:77] Creating layer debatchnorm3_3
I1002 13:36:27.141433 10466 net.cpp:84] Creating Layer debatchnorm3_3
I1002 13:36:27.141436 10466 net.cpp:406] debatchnorm3_3 <- deconv3_3
I1002 13:36:27.141441 10466 net.cpp:367] debatchnorm3_3 -> deconv3_3 (in-place)
I1002 13:36:27.141676 10466 net.cpp:122] Setting up debatchnorm3_3
I1002 13:36:27.141682 10466 net.cpp:129] Top shape: 2 64 14 14 (25088)
I1002 13:36:27.141686 10466 net.cpp:137] Memory required for data: 111842304
I1002 13:36:27.141692 10466 layer_factory.hpp:77] Creating layer deelu3_3
I1002 13:36:27.141697 10466 net.cpp:84] Creating Layer deelu3_3
I1002 13:36:27.141701 10466 net.cpp:406] deelu3_3 <- deconv3_3
I1002 13:36:27.141706 10466 net.cpp:367] deelu3_3 -> deconv3_3 (in-place)
I1002 13:36:27.141711 10466 net.cpp:122] Setting up deelu3_3
I1002 13:36:27.141716 10466 net.cpp:129] Top shape: 2 64 14 14 (25088)
I1002 13:36:27.141719 10466 net.cpp:137] Memory required for data: 111942656
I1002 13:36:27.141722 10466 layer_factory.hpp:77] Creating layer unpool2
I1002 13:36:27.141728 10466 net.cpp:84] Creating Layer unpool2
I1002 13:36:27.141732 10466 net.cpp:406] unpool2 <- deconv3_3
I1002 13:36:27.141736 10466 net.cpp:406] unpool2 <- pool2_mask
I1002 13:36:27.141741 10466 net.cpp:406] unpool2 <- pool2_argmax_count
I1002 13:36:27.141746 10466 net.cpp:380] unpool2 -> unpool2
I1002 13:36:27.141777 10466 net.cpp:122] Setting up unpool2
I1002 13:36:27.141782 10466 net.cpp:129] Top shape: 2 64 56 56 (401408)
I1002 13:36:27.141784 10466 net.cpp:137] Memory required for data: 113548288
I1002 13:36:27.141788 10466 layer_factory.hpp:77] Creating layer deconv2_1
I1002 13:36:27.141793 10466 net.cpp:84] Creating Layer deconv2_1
I1002 13:36:27.141796 10466 net.cpp:406] deconv2_1 <- unpool2
I1002 13:36:27.141803 10466 net.cpp:380] deconv2_1 -> deconv2_1
I1002 13:36:27.142279 10466 net.cpp:122] Setting up deconv2_1
I1002 13:36:27.142287 10466 net.cpp:129] Top shape: 2 64 56 56 (401408)
I1002 13:36:27.142289 10466 net.cpp:137] Memory required for data: 115153920
I1002 13:36:27.142294 10466 layer_factory.hpp:77] Creating layer debatchnorm2_1
I1002 13:36:27.142308 10466 net.cpp:84] Creating Layer debatchnorm2_1
I1002 13:36:27.142313 10466 net.cpp:406] debatchnorm2_1 <- deconv2_1
I1002 13:36:27.142320 10466 net.cpp:367] debatchnorm2_1 -> deconv2_1 (in-place)
I1002 13:36:27.142556 10466 net.cpp:122] Setting up debatchnorm2_1
I1002 13:36:27.142562 10466 net.cpp:129] Top shape: 2 64 56 56 (401408)
I1002 13:36:27.142566 10466 net.cpp:137] Memory required for data: 116759552
I1002 13:36:27.142573 10466 layer_factory.hpp:77] Creating layer deelu2_1
I1002 13:36:27.142577 10466 net.cpp:84] Creating Layer deelu2_1
I1002 13:36:27.142581 10466 net.cpp:406] deelu2_1 <- deconv2_1
I1002 13:36:27.142586 10466 net.cpp:367] deelu2_1 -> deconv2_1 (in-place)
I1002 13:36:27.142591 10466 net.cpp:122] Setting up deelu2_1
I1002 13:36:27.142596 10466 net.cpp:129] Top shape: 2 64 56 56 (401408)
I1002 13:36:27.142599 10466 net.cpp:137] Memory required for data: 118365184
I1002 13:36:27.142603 10466 layer_factory.hpp:77] Creating layer deconv2_2
I1002 13:36:27.142609 10466 net.cpp:84] Creating Layer deconv2_2
I1002 13:36:27.142613 10466 net.cpp:406] deconv2_2 <- deconv2_1
I1002 13:36:27.142618 10466 net.cpp:380] deconv2_2 -> deconv2_2
I1002 13:36:27.143008 10466 net.cpp:122] Setting up deconv2_2
I1002 13:36:27.143015 10466 net.cpp:129] Top shape: 2 32 56 56 (200704)
I1002 13:36:27.143018 10466 net.cpp:137] Memory required for data: 119168000
I1002 13:36:27.143023 10466 layer_factory.hpp:77] Creating layer debatchnorm2_2
I1002 13:36:27.143028 10466 net.cpp:84] Creating Layer debatchnorm2_2
I1002 13:36:27.143031 10466 net.cpp:406] debatchnorm2_2 <- deconv2_2
I1002 13:36:27.143036 10466 net.cpp:367] debatchnorm2_2 -> deconv2_2 (in-place)
I1002 13:36:27.143265 10466 net.cpp:122] Setting up debatchnorm2_2
I1002 13:36:27.143271 10466 net.cpp:129] Top shape: 2 32 56 56 (200704)
I1002 13:36:27.143275 10466 net.cpp:137] Memory required for data: 119970816
I1002 13:36:27.143280 10466 layer_factory.hpp:77] Creating layer deelu2_2
I1002 13:36:27.143283 10466 net.cpp:84] Creating Layer deelu2_2
I1002 13:36:27.143287 10466 net.cpp:406] deelu2_2 <- deconv2_2
I1002 13:36:27.143290 10466 net.cpp:367] deelu2_2 -> deconv2_2 (in-place)
I1002 13:36:27.143295 10466 net.cpp:122] Setting up deelu2_2
I1002 13:36:27.143298 10466 net.cpp:129] Top shape: 2 32 56 56 (200704)
I1002 13:36:27.143302 10466 net.cpp:137] Memory required for data: 120773632
I1002 13:36:27.143306 10466 layer_factory.hpp:77] Creating layer unpool1
I1002 13:36:27.143311 10466 net.cpp:84] Creating Layer unpool1
I1002 13:36:27.143314 10466 net.cpp:406] unpool1 <- deconv2_2
I1002 13:36:27.143318 10466 net.cpp:406] unpool1 <- pool1_mask
I1002 13:36:27.143322 10466 net.cpp:406] unpool1 <- pool1_argmax_count
I1002 13:36:27.143327 10466 net.cpp:380] unpool1 -> unpool1
I1002 13:36:27.143355 10466 net.cpp:122] Setting up unpool1
I1002 13:36:27.143362 10466 net.cpp:129] Top shape: 2 32 224 224 (3211264)
I1002 13:36:27.143364 10466 net.cpp:137] Memory required for data: 133618688
I1002 13:36:27.143368 10466 layer_factory.hpp:77] Creating layer deconv1_1
I1002 13:36:27.143373 10466 net.cpp:84] Creating Layer deconv1_1
I1002 13:36:27.143376 10466 net.cpp:406] deconv1_1 <- unpool1
I1002 13:36:27.143383 10466 net.cpp:380] deconv1_1 -> deconv1_1
I1002 13:36:27.143713 10466 net.cpp:122] Setting up deconv1_1
I1002 13:36:27.143720 10466 net.cpp:129] Top shape: 2 32 224 224 (3211264)
I1002 13:36:27.143724 10466 net.cpp:137] Memory required for data: 146463744
I1002 13:36:27.143730 10466 layer_factory.hpp:77] Creating layer debatchnorm1_1
I1002 13:36:27.143735 10466 net.cpp:84] Creating Layer debatchnorm1_1
I1002 13:36:27.143739 10466 net.cpp:406] debatchnorm1_1 <- deconv1_1
I1002 13:36:27.143744 10466 net.cpp:367] debatchnorm1_1 -> deconv1_1 (in-place)
I1002 13:36:27.144418 10466 net.cpp:122] Setting up debatchnorm1_1
I1002 13:36:27.144428 10466 net.cpp:129] Top shape: 2 32 224 224 (3211264)
I1002 13:36:27.144433 10466 net.cpp:137] Memory required for data: 159308800
I1002 13:36:27.144440 10466 layer_factory.hpp:77] Creating layer deelu1_1
I1002 13:36:27.144445 10466 net.cpp:84] Creating Layer deelu1_1
I1002 13:36:27.144457 10466 net.cpp:406] deelu1_1 <- deconv1_1
I1002 13:36:27.144464 10466 net.cpp:367] deelu1_1 -> deconv1_1 (in-place)
I1002 13:36:27.144471 10466 net.cpp:122] Setting up deelu1_1
I1002 13:36:27.144476 10466 net.cpp:129] Top shape: 2 32 224 224 (3211264)
I1002 13:36:27.144480 10466 net.cpp:137] Memory required for data: 172153856
I1002 13:36:27.144484 10466 layer_factory.hpp:77] Creating layer deconv1_2
I1002 13:36:27.144490 10466 net.cpp:84] Creating Layer deconv1_2
I1002 13:36:27.144495 10466 net.cpp:406] deconv1_2 <- deconv1_1
I1002 13:36:27.144500 10466 net.cpp:380] deconv1_2 -> deconv1_2
I1002 13:36:27.144845 10466 net.cpp:122] Setting up deconv1_2
I1002 13:36:27.144853 10466 net.cpp:129] Top shape: 2 32 224 224 (3211264)
I1002 13:36:27.144857 10466 net.cpp:137] Memory required for data: 184998912
I1002 13:36:27.144862 10466 layer_factory.hpp:77] Creating layer debatchnorm1_2
I1002 13:36:27.144868 10466 net.cpp:84] Creating Layer debatchnorm1_2
I1002 13:36:27.144872 10466 net.cpp:406] debatchnorm1_2 <- deconv1_2
I1002 13:36:27.144877 10466 net.cpp:367] debatchnorm1_2 -> deconv1_2 (in-place)
I1002 13:36:27.145110 10466 net.cpp:122] Setting up debatchnorm1_2
I1002 13:36:27.145117 10466 net.cpp:129] Top shape: 2 32 224 224 (3211264)
I1002 13:36:27.145120 10466 net.cpp:137] Memory required for data: 197843968
I1002 13:36:27.145126 10466 layer_factory.hpp:77] Creating layer deelu1_2
I1002 13:36:27.145131 10466 net.cpp:84] Creating Layer deelu1_2
I1002 13:36:27.145135 10466 net.cpp:406] deelu1_2 <- deconv1_2
I1002 13:36:27.145140 10466 net.cpp:367] deelu1_2 -> deconv1_2 (in-place)
I1002 13:36:27.145145 10466 net.cpp:122] Setting up deelu1_2
I1002 13:36:27.145149 10466 net.cpp:129] Top shape: 2 32 224 224 (3211264)
I1002 13:36:27.145153 10466 net.cpp:137] Memory required for data: 210689024
I1002 13:36:27.145156 10466 layer_factory.hpp:77] Creating layer segmentation
I1002 13:36:27.145165 10466 net.cpp:84] Creating Layer segmentation
I1002 13:36:27.145169 10466 net.cpp:406] segmentation <- deconv1_2
I1002 13:36:27.145174 10466 net.cpp:380] segmentation -> segmentation
I1002 13:36:27.147122 10466 net.cpp:122] Setting up segmentation
I1002 13:36:27.147135 10466 net.cpp:129] Top shape: 2 3 224 224 (301056)
I1002 13:36:27.147152 10466 net.cpp:137] Memory required for data: 211893248
I1002 13:36:27.147158 10466 layer_factory.hpp:77] Creating layer segmentation_segmentation_0_split
I1002 13:36:27.147166 10466 net.cpp:84] Creating Layer segmentation_segmentation_0_split
I1002 13:36:27.147171 10466 net.cpp:406] segmentation_segmentation_0_split <- segmentation
I1002 13:36:27.147177 10466 net.cpp:380] segmentation_segmentation_0_split -> segmentation_segmentation_0_split_0
I1002 13:36:27.147186 10466 net.cpp:380] segmentation_segmentation_0_split -> segmentation_segmentation_0_split_1
I1002 13:36:27.147235 10466 net.cpp:122] Setting up segmentation_segmentation_0_split
I1002 13:36:27.147241 10466 net.cpp:129] Top shape: 2 3 224 224 (301056)
I1002 13:36:27.147246 10466 net.cpp:129] Top shape: 2 3 224 224 (301056)
I1002 13:36:27.147249 10466 net.cpp:137] Memory required for data: 214301696
I1002 13:36:27.147253 10466 layer_factory.hpp:77] Creating layer infogainLoss
I1002 13:36:27.147261 10466 net.cpp:84] Creating Layer infogainLoss
I1002 13:36:27.147265 10466 net.cpp:406] infogainLoss <- segmentation_segmentation_0_split_0
I1002 13:36:27.147270 10466 net.cpp:406] infogainLoss <- label_data_1_split_0
I1002 13:36:27.147277 10466 net.cpp:380] infogainLoss -> loss
I1002 13:36:27.147285 10466 layer_factory.hpp:77] Creating layer infogainLoss
I1002 13:36:27.148257 10466 net.cpp:122] Setting up infogainLoss
I1002 13:36:27.148267 10466 net.cpp:129] Top shape: (1)
I1002 13:36:27.148272 10466 net.cpp:132]     with loss weight 1
I1002 13:36:27.148280 10466 net.cpp:137] Memory required for data: 214301700
I1002 13:36:27.148284 10466 layer_factory.hpp:77] Creating layer accuracy
I1002 13:36:27.148293 10466 net.cpp:84] Creating Layer accuracy
I1002 13:36:27.148298 10466 net.cpp:406] accuracy <- segmentation_segmentation_0_split_1
I1002 13:36:27.148313 10466 net.cpp:406] accuracy <- label_data_1_split_1
I1002 13:36:27.148319 10466 net.cpp:380] accuracy -> accuracy
I1002 13:36:27.148327 10466 net.cpp:380] accuracy -> per_class_accuracy
I1002 13:36:27.148373 10466 net.cpp:122] Setting up accuracy
I1002 13:36:27.148380 10466 net.cpp:129] Top shape: (1)
I1002 13:36:27.148383 10466 net.cpp:129] Top shape: 3 (3)
I1002 13:36:27.148386 10466 net.cpp:137] Memory required for data: 214301716
I1002 13:36:27.148391 10466 net.cpp:200] accuracy does not need backward computation.
I1002 13:36:27.148396 10466 net.cpp:198] infogainLoss needs backward computation.
I1002 13:36:27.148399 10466 net.cpp:198] segmentation_segmentation_0_split needs backward computation.
I1002 13:36:27.148403 10466 net.cpp:198] segmentation needs backward computation.
…
