…
I0905 17:28:21.055908 11265 net.cpp:294] The NetState phase (0) differed from the phase (1) specified by a rule in layer data
I0905 17:28:21.055933 11265 net.cpp:294] The NetState phase (0) differed from the phase (1) specified by a rule in layer accuracy
I0905 17:28:21.056139 11265 net.cpp:51] Initializing net from parameters: 
name: "SegNet5"
state {
  phase: TRAIN
  level: 0
  stage: ""
}
layer {
  name: "data"
  type: "HDF5Data"
  top: "data"
  top: "label"
  include {
    phase: TRAIN
  }
  hdf5_data_param {
    source: "/home/grochette/Documents/SegNet/data/HDF5/Train/hdf5_list.txt"
    batch_size: 4
    shuffle: true
  }
}
layer {
  name: "batchnorm0"
  type: "BatchNorm"
  bottom: "data"
  top: "data"
}
layer {
  name: "conv1_1"
  type: "Convolution"
  bottom: "data"
  top: "conv1_1"
  param {
    lr_mult: 1
    decay_mult: 1
  }
  param {
    lr_mult: 2
    decay_mult: 0
  }
  convolution_param {
    num_output: 64
    pad: 1
    kernel_size: 3
    stride: 1
    weight_filler {
      type: "xavier"
    }
    bias_filler {
      type: "constant"
    }
  }
}
layer {
  name: "batchnorm1_1"
  type: "BatchNorm"
  bottom: "conv1_1"
  top: "conv1_1"
}
layer {
  name: "elu1_1"
  type: "ELU"
  bottom: "conv1_1"
  top: "conv1_1"
}
layer {
  name: "conv1_2"
  type: "Convolution"
  bottom: "conv1_1"
  top: "conv1_2"
  param {
    lr_mult: 1
    decay_mult: 1
  }
  param {
    lr_mult: 2
    decay_mult: 0
  }
  convolution_param {
    num_output: 64
    pad: 1
    kernel_size: 3
    stride: 1
    weight_filler {
      type: "xavier"
    }
    bias_filler {
      type: "constant"
    }
  }
}
layer {
  name: "batchnorm1_2"
  type: "BatchNorm"
  bottom: "conv1_2"
  top: "conv1_2"
}
layer {
  name: "elu1_2"
  type: "ELU"
  bottom: "conv1_2"
  top: "conv1_2"
}
layer {
  name: "pool1"
  type: "Pooling"
  bottom: "conv1_2"
  top: "pool1"
  top: "pool1_mask"
  top: "pool1_argmax_count"
  pooling_param {
    pool: MAX
    kernel_size: 2
    stride: 2
  }
}
layer {
  name: "conv2_1"
  type: "Convolution"
  bottom: "pool1"
  top: "conv2_1"
  param {
    lr_mult: 1
    decay_mult: 1
  }
  param {
    lr_mult: 2
    decay_mult: 0
  }
  convolution_param {
    num_output: 128
    pad: 1
    kernel_size: 3
    stride: 1
    weight_filler {
      type: "xavier"
    }
    bias_filler {
      type: "constant"
    }
  }
}
layer {
  name: "batchnorm2_1"
  type: "BatchNorm"
  bottom: "conv2_1"
  top: "conv2_1"
}
layer {
  name: "elu2_1"
  type: "ELU"
  bottom: "conv2_1"
  top: "conv2_1"
}
layer {
  name: "conv2_2"
  type: "Convolution"
  bottom: "conv2_1"
  top: "conv2_2"
  param {
    lr_mult: 1
    decay_mult: 1
  }
  param {
    lr_mult: 2
    decay_mult: 0
  }
  convolution_param {
    num_output: 128
    pad: 1
    kernel_size: 3
    stride: 1
    weight_filler {
      type: "xavier"
    }
    bias_filler {
      type: "constant"
    }
  }
}
layer {
  name: "batchnorm2_2"
  type: "BatchNorm"
  bottom: "conv2_2"
  top: "conv2_2"
}
layer {
  name: "elu2_2"
  type: "ELU"
  bottom: "conv2_2"
  top: "conv2_2"
}
layer {
  name: "pool2"
  type: "Pooling"
  bottom: "conv2_2"
  top: "pool2"
  top: "pool2_mask"
  top: "pool2_argmax_count"
  pooling_param {
    pool: MAX
    kernel_size: 2
    stride: 2
  }
}
layer {
  name: "conv3_1"
  type: "Convolution"
  bottom: "pool2"
  top: "conv3_1"
  param {
    lr_mult: 1
    decay_mult: 1
  }
  param {
    lr_mult: 2
    decay_mult: 0
  }
  convolution_param {
    num_output: 256
    pad: 1
    kernel_size: 3
    stride: 1
    weight_filler {
      type: "xavier"
    }
    bias_filler {
      type: "constant"
    }
  }
}
layer {
  name: "batchnorm3_1"
  type: "BatchNorm"
  bottom: "conv3_1"
  top: "conv3_1"
}
layer {
  name: "elu3_1"
  type: "ELU"
  bottom: "conv3_1"
  top: "conv3_1"
}
layer {
  name: "conv3_2"
  type: "Convolution"
  bottom: "conv3_1"
  top: "conv3_2"
  param {
    lr_mult: 1
    decay_mult: 1
  }
  param {
    lr_mult: 2
    decay_mult: 0
  }
  convolution_param {
    num_output: 256
    pad: 1
    kernel_size: 3
    stride: 1
    weight_filler {
      type: "xavier"
    }
    bias_filler {
      type: "constant"
    }
  }
}
layer {
  name: "batchnorm3_2"
  type: "BatchNorm"
  bottom: "conv3_2"
  top: "conv3_2"
}
layer {
  name: "elu3_2"
  type: "ELU"
  bottom: "conv3_2"
  top: "conv3_2"
}
layer {
  name: "deconv3_3"
  type: "Deconvolution"
  bottom: "conv3_2"
  top: "deconv3_3"
  param {
    lr_mult: 1
    decay_mult: 1
  }
  param {
    lr_mult: 2
    decay_mult: 0
  }
  convolution_param {
    num_output: 128
    pad: 1
    kernel_size: 3
    stride: 1
    weight_filler {
      type: "xavier"
    }
    bias_filler {
      type: "constant"
    }
  }
}
layer {
  name: "debatchnorm3_3"
  type: "BatchNorm"
  bottom: "deconv3_3"
  top: "deconv3_3"
}
layer {
  name: "deelu3_3"
  type: "ELU"
  bottom: "deconv3_3"
  top: "deconv3_3"
}
layer {
  name: "unpool2"
  type: "Unpooling"
  bottom: "deconv3_3"
  bottom: "pool2_mask"
  bottom: "pool2_argmax_count"
  top: "unpool2"
  pooling_param {
    pool: MAX
    kernel_size: 2
    stride: 2
  }
}
layer {
  name: "deconv2_1"
  type: "Deconvolution"
  bottom: "unpool2"
  top: "deconv2_1"
  param {
    lr_mult: 1
    decay_mult: 1
  }
  param {
    lr_mult: 2
    decay_mult: 0
  }
  convolution_param {
    num_output: 128
    pad: 1
    kernel_size: 3
    stride: 1
    weight_filler {
      type: "xavier"
    }
    bias_filler {
      type: "constant"
    }
  }
}
layer {
  name: "debatchnorm2_1"
  type: "BatchNorm"
  bottom: "deconv2_1"
  top: "deconv2_1"
}
layer {
  name: "deelu2_1"
  type: "ELU"
  bottom: "deconv2_1"
  top: "deconv2_1"
}
layer {
  name: "deconv2_2"
  type: "Deconvolution"
  bottom: "deconv2_1"
  top: "deconv2_2"
  param {
    lr_mult: 1
    decay_mult: 1
  }
  param {
    lr_mult: 2
    decay_mult: 0
  }
  convolution_param {
    num_output: 64
    pad: 1
    kernel_size: 3
    stride: 1
    weight_filler {
      type: "xavier"
    }
    bias_filler {
      type: "constant"
    }
  }
}
layer {
  name: "debatchnorm2_2"
  type: "BatchNorm"
  bottom: "deconv2_2"
  top: "deconv2_2"
}
layer {
  name: "deelu2_2"
  type: "ELU"
  bottom: "deconv2_2"
  top: "deconv2_2"
}
layer {
  name: "unpool1"
  type: "Unpooling"
  bottom: "deconv2_2"
  bottom: "pool1_mask"
  bottom: "pool1_argmax_count"
  top: "unpool1"
  pooling_param {
    pool: MAX
    kernel_size: 2
    stride: 2
  }
}
layer {
  name: "deconv1_1"
  type: "Deconvolution"
  bottom: "unpool1"
  top: "deconv1_1"
  param {
    lr_mult: 1
    decay_mult: 1
  }
  param {
    lr_mult: 2
    decay_mult: 0
  }
  convolution_param {
    num_output: 64
    pad: 1
    kernel_size: 3
    stride: 1
    weight_filler {
      type: "xavier"
    }
    bias_filler {
      type: "constant"
    }
  }
}
layer {
  name: "debatchnorm1_1"
  type: "BatchNorm"
  bottom: "deconv1_1"
  top: "deconv1_1"
}
layer {
  name: "deelu1_1"
  type: "ELU"
  bottom: "deconv1_1"
  top: "deconv1_1"
}
layer {
  name: "deconv1_2"
  type: "Deconvolution"
  bottom: "deconv1_1"
  top: "deconv1_2"
  param {
    lr_mult: 1
    decay_mult: 1
  }
  param {
    lr_mult: 2
    decay_mult: 0
  }
  convolution_param {
    num_output: 64
    pad: 1
    kernel_size: 3
    stride: 1
    weight_filler {
      type: "xavier"
    }
    bias_filler {
      type: "constant"
    }
  }
}
layer {
  name: "debatchnorm1_2"
  type: "BatchNorm"
  bottom: "deconv1_2"
  top: "deconv1_2"
}
layer {
  name: "deelu1_2"
  type: "ELU"
  bottom: "deconv1_2"
  top: "deconv1_2"
}
layer {
  name: "segmentation"
  type: "Convolution"
  bottom: "deconv1_2"
  top: "segmentation"
  param {
    lr_mult: 1
    decay_mult: 1
  }
  param {
    lr_mult: 2
    decay_mult: 0
  }
  convolution_param {
    num_output: 2
    pad: 0
    kernel_size: 1
    weight_filler {
      type: "xavier"
    }
    bias_filler {
      type: "constant"
    }
  }
}
layer {
  name: "infogainLoss"
  type: "InfogainLoss"
  bottom: "segmentation"
  bottom: "label"
  top: "loss"
  loss_param {
    ignore_label: 2
  }
  infogain_loss_param {
    source: "/home/grochette/Documents/SegNet/data/infogainH.binaryproto"
  }
}
I0905 17:28:21.056438 11265 layer_factory.hpp:77] Creating layer data
I0905 17:28:21.056452 11265 net.cpp:84] Creating Layer data
I0905 17:28:21.056457 11265 net.cpp:380] data -> data
I0905 17:28:21.056473 11265 net.cpp:380] data -> label
I0905 17:28:21.056483 11265 hdf5_data_layer.cpp:80] Loading list of HDF5 filenames from: /home/grochette/Documents/SegNet/data/HDF5/Train/hdf5_list.txt
I0905 17:28:21.056540 11265 hdf5_data_layer.cpp:94] Number of HDF5 files: 86
I0905 17:28:21.057487 11265 hdf5.cpp:32] Datatype class: H5T_FLOAT
I0905 17:28:21.404831 11265 hdf5.cpp:35] Datatype class: H5T_INTEGER
I0905 17:28:21.525257 11265 net.cpp:122] Setting up data
I0905 17:28:21.525290 11265 net.cpp:129] Top shape: 4 4 224 224 (802816)
I0905 17:28:21.525295 11265 net.cpp:129] Top shape: 4 1 224 224 (200704)
I0905 17:28:21.525298 11265 net.cpp:137] Memory required for data: 4014080
I0905 17:28:21.525305 11265 layer_factory.hpp:77] Creating layer batchnorm0
I0905 17:28:21.525316 11265 net.cpp:84] Creating Layer batchnorm0
I0905 17:28:21.525323 11265 net.cpp:406] batchnorm0 <- data
I0905 17:28:21.525334 11265 net.cpp:367] batchnorm0 -> data (in-place)
I0905 17:28:21.526063 11265 net.cpp:122] Setting up batchnorm0
I0905 17:28:21.526074 11265 net.cpp:129] Top shape: 4 4 224 224 (802816)
I0905 17:28:21.526077 11265 net.cpp:137] Memory required for data: 7225344
I0905 17:28:21.526096 11265 layer_factory.hpp:77] Creating layer conv1_1
I0905 17:28:21.526110 11265 net.cpp:84] Creating Layer conv1_1
I0905 17:28:21.526130 11265 net.cpp:406] conv1_1 <- data
I0905 17:28:21.526137 11265 net.cpp:380] conv1_1 -> conv1_1
I0905 17:28:22.004642 11265 net.cpp:122] Setting up conv1_1
I0905 17:28:22.004684 11265 net.cpp:129] Top shape: 4 64 224 224 (12845056)
I0905 17:28:22.004689 11265 net.cpp:137] Memory required for data: 58605568
I0905 17:28:22.004703 11265 layer_factory.hpp:77] Creating layer batchnorm1_1
I0905 17:28:22.004712 11265 net.cpp:84] Creating Layer batchnorm1_1
I0905 17:28:22.004716 11265 net.cpp:406] batchnorm1_1 <- conv1_1
I0905 17:28:22.004724 11265 net.cpp:367] batchnorm1_1 -> conv1_1 (in-place)
I0905 17:28:22.004921 11265 net.cpp:122] Setting up batchnorm1_1
I0905 17:28:22.004928 11265 net.cpp:129] Top shape: 4 64 224 224 (12845056)
I0905 17:28:22.004932 11265 net.cpp:137] Memory required for data: 109985792
I0905 17:28:22.004940 11265 layer_factory.hpp:77] Creating layer elu1_1
I0905 17:28:22.004946 11265 net.cpp:84] Creating Layer elu1_1
I0905 17:28:22.004951 11265 net.cpp:406] elu1_1 <- conv1_1
I0905 17:28:22.004956 11265 net.cpp:367] elu1_1 -> conv1_1 (in-place)
I0905 17:28:22.004961 11265 net.cpp:122] Setting up elu1_1
I0905 17:28:22.004966 11265 net.cpp:129] Top shape: 4 64 224 224 (12845056)
I0905 17:28:22.004969 11265 net.cpp:137] Memory required for data: 161366016
I0905 17:28:22.004972 11265 layer_factory.hpp:77] Creating layer conv1_2
I0905 17:28:22.004982 11265 net.cpp:84] Creating Layer conv1_2
I0905 17:28:22.004987 11265 net.cpp:406] conv1_2 <- conv1_1
I0905 17:28:22.004993 11265 net.cpp:380] conv1_2 -> conv1_2
I0905 17:28:22.006958 11265 net.cpp:122] Setting up conv1_2
I0905 17:28:22.006968 11265 net.cpp:129] Top shape: 4 64 224 224 (12845056)
I0905 17:28:22.006978 11265 net.cpp:137] Memory required for data: 212746240
I0905 17:28:22.006989 11265 layer_factory.hpp:77] Creating layer batchnorm1_2
I0905 17:28:22.006995 11265 net.cpp:84] Creating Layer batchnorm1_2
I0905 17:28:22.006999 11265 net.cpp:406] batchnorm1_2 <- conv1_2
I0905 17:28:22.007004 11265 net.cpp:367] batchnorm1_2 -> conv1_2 (in-place)
I0905 17:28:22.007630 11265 net.cpp:122] Setting up batchnorm1_2
I0905 17:28:22.007657 11265 net.cpp:129] Top shape: 4 64 224 224 (12845056)
I0905 17:28:22.007660 11265 net.cpp:137] Memory required for data: 264126464
I0905 17:28:22.007668 11265 layer_factory.hpp:77] Creating layer elu1_2
I0905 17:28:22.007675 11265 net.cpp:84] Creating Layer elu1_2
I0905 17:28:22.007679 11265 net.cpp:406] elu1_2 <- conv1_2
I0905 17:28:22.007683 11265 net.cpp:367] elu1_2 -> conv1_2 (in-place)
I0905 17:28:22.007689 11265 net.cpp:122] Setting up elu1_2
I0905 17:28:22.007695 11265 net.cpp:129] Top shape: 4 64 224 224 (12845056)
I0905 17:28:22.007699 11265 net.cpp:137] Memory required for data: 315506688
I0905 17:28:22.007704 11265 layer_factory.hpp:77] Creating layer pool1
I0905 17:28:22.007709 11265 layer_factory.cpp:91] cuDNN does not support multiple tops. Using Caffe's own pooling layer.
I0905 17:28:22.007719 11265 net.cpp:84] Creating Layer pool1
I0905 17:28:22.007725 11265 net.cpp:406] pool1 <- conv1_2
I0905 17:28:22.007732 11265 net.cpp:380] pool1 -> pool1
I0905 17:28:22.007743 11265 net.cpp:380] pool1 -> pool1_mask
I0905 17:28:22.007752 11265 net.cpp:380] pool1 -> pool1_argmax_count
I0905 17:28:22.007814 11265 net.cpp:122] Setting up pool1
I0905 17:28:22.007822 11265 net.cpp:129] Top shape: 4 64 112 112 (3211264)
I0905 17:28:22.007828 11265 net.cpp:129] Top shape: 4 64 112 112 (3211264)
I0905 17:28:22.007835 11265 net.cpp:129] Top shape: 4 64 224 224 (12845056)
I0905 17:28:22.007839 11265 net.cpp:137] Memory required for data: 392577024
I0905 17:28:22.007843 11265 layer_factory.hpp:77] Creating layer conv2_1
I0905 17:28:22.007853 11265 net.cpp:84] Creating Layer conv2_1
I0905 17:28:22.007858 11265 net.cpp:406] conv2_1 <- pool1
I0905 17:28:22.007866 11265 net.cpp:380] conv2_1 -> conv2_1
I0905 17:28:22.010825 11265 net.cpp:122] Setting up conv2_1
I0905 17:28:22.010838 11265 net.cpp:129] Top shape: 4 128 112 112 (6422528)
I0905 17:28:22.010845 11265 net.cpp:137] Memory required for data: 418267136
I0905 17:28:22.010854 11265 layer_factory.hpp:77] Creating layer batchnorm2_1
I0905 17:28:22.010861 11265 net.cpp:84] Creating Layer batchnorm2_1
I0905 17:28:22.010866 11265 net.cpp:406] batchnorm2_1 <- conv2_1
I0905 17:28:22.010875 11265 net.cpp:367] batchnorm2_1 -> conv2_1 (in-place)
I0905 17:28:22.011068 11265 net.cpp:122] Setting up batchnorm2_1
I0905 17:28:22.011076 11265 net.cpp:129] Top shape: 4 128 112 112 (6422528)
I0905 17:28:22.011081 11265 net.cpp:137] Memory required for data: 443957248
I0905 17:28:22.011095 11265 layer_factory.hpp:77] Creating layer elu2_1
I0905 17:28:22.011101 11265 net.cpp:84] Creating Layer elu2_1
I0905 17:28:22.011106 11265 net.cpp:406] elu2_1 <- conv2_1
I0905 17:28:22.011112 11265 net.cpp:367] elu2_1 -> conv2_1 (in-place)
I0905 17:28:22.011119 11265 net.cpp:122] Setting up elu2_1
I0905 17:28:22.011126 11265 net.cpp:129] Top shape: 4 128 112 112 (6422528)
I0905 17:28:22.011129 11265 net.cpp:137] Memory required for data: 469647360
I0905 17:28:22.011134 11265 layer_factory.hpp:77] Creating layer conv2_2
I0905 17:28:22.011144 11265 net.cpp:84] Creating Layer conv2_2
I0905 17:28:22.011148 11265 net.cpp:406] conv2_2 <- conv2_1
I0905 17:28:22.011153 11265 net.cpp:380] conv2_2 -> conv2_2
I0905 17:28:22.013665 11265 net.cpp:122] Setting up conv2_2
I0905 17:28:22.013677 11265 net.cpp:129] Top shape: 4 128 112 112 (6422528)
I0905 17:28:22.013682 11265 net.cpp:137] Memory required for data: 495337472
I0905 17:28:22.013689 11265 layer_factory.hpp:77] Creating layer batchnorm2_2
I0905 17:28:22.013695 11265 net.cpp:84] Creating Layer batchnorm2_2
I0905 17:28:22.013700 11265 net.cpp:406] batchnorm2_2 <- conv2_2
I0905 17:28:22.013705 11265 net.cpp:367] batchnorm2_2 -> conv2_2 (in-place)
I0905 17:28:22.013885 11265 net.cpp:122] Setting up batchnorm2_2
I0905 17:28:22.013891 11265 net.cpp:129] Top shape: 4 128 112 112 (6422528)
I0905 17:28:22.013895 11265 net.cpp:137] Memory required for data: 521027584
I0905 17:28:22.013902 11265 layer_factory.hpp:77] Creating layer elu2_2
I0905 17:28:22.013907 11265 net.cpp:84] Creating Layer elu2_2
I0905 17:28:22.013911 11265 net.cpp:406] elu2_2 <- conv2_2
I0905 17:28:22.013928 11265 net.cpp:367] elu2_2 -> conv2_2 (in-place)
I0905 17:28:22.013934 11265 net.cpp:122] Setting up elu2_2
I0905 17:28:22.013941 11265 net.cpp:129] Top shape: 4 128 112 112 (6422528)
I0905 17:28:22.013943 11265 net.cpp:137] Memory required for data: 546717696
I0905 17:28:22.013947 11265 layer_factory.hpp:77] Creating layer pool2
I0905 17:28:22.013952 11265 layer_factory.cpp:91] cuDNN does not support multiple tops. Using Caffe's own pooling layer.
I0905 17:28:22.013957 11265 net.cpp:84] Creating Layer pool2
I0905 17:28:22.013960 11265 net.cpp:406] pool2 <- conv2_2
I0905 17:28:22.013965 11265 net.cpp:380] pool2 -> pool2
I0905 17:28:22.013972 11265 net.cpp:380] pool2 -> pool2_mask
I0905 17:28:22.013981 11265 net.cpp:380] pool2 -> pool2_argmax_count
I0905 17:28:22.014031 11265 net.cpp:122] Setting up pool2
I0905 17:28:22.014039 11265 net.cpp:129] Top shape: 4 128 56 56 (1605632)
I0905 17:28:22.014046 11265 net.cpp:129] Top shape: 4 128 56 56 (1605632)
I0905 17:28:22.014052 11265 net.cpp:129] Top shape: 4 128 112 112 (6422528)
I0905 17:28:22.014057 11265 net.cpp:137] Memory required for data: 585252864
I0905 17:28:22.014062 11265 layer_factory.hpp:77] Creating layer conv3_1
I0905 17:28:22.014075 11265 net.cpp:84] Creating Layer conv3_1
I0905 17:28:22.014080 11265 net.cpp:406] conv3_1 <- pool2
I0905 17:28:22.014088 11265 net.cpp:380] conv3_1 -> conv3_1
I0905 17:28:22.017937 11265 net.cpp:122] Setting up conv3_1
I0905 17:28:22.017954 11265 net.cpp:129] Top shape: 4 256 56 56 (3211264)
I0905 17:28:22.017961 11265 net.cpp:137] Memory required for data: 598097920
I0905 17:28:22.017971 11265 layer_factory.hpp:77] Creating layer batchnorm3_1
I0905 17:28:22.017979 11265 net.cpp:84] Creating Layer batchnorm3_1
I0905 17:28:22.017984 11265 net.cpp:406] batchnorm3_1 <- conv3_1
I0905 17:28:22.017992 11265 net.cpp:367] batchnorm3_1 -> conv3_1 (in-place)
I0905 17:28:22.018182 11265 net.cpp:122] Setting up batchnorm3_1
I0905 17:28:22.018189 11265 net.cpp:129] Top shape: 4 256 56 56 (3211264)
I0905 17:28:22.018194 11265 net.cpp:137] Memory required for data: 610942976
I0905 17:28:22.018201 11265 layer_factory.hpp:77] Creating layer elu3_1
I0905 17:28:22.018208 11265 net.cpp:84] Creating Layer elu3_1
I0905 17:28:22.018210 11265 net.cpp:406] elu3_1 <- conv3_1
I0905 17:28:22.018216 11265 net.cpp:367] elu3_1 -> conv3_1 (in-place)
I0905 17:28:22.018223 11265 net.cpp:122] Setting up elu3_1
I0905 17:28:22.018229 11265 net.cpp:129] Top shape: 4 256 56 56 (3211264)
I0905 17:28:22.018234 11265 net.cpp:137] Memory required for data: 623788032
I0905 17:28:22.018240 11265 layer_factory.hpp:77] Creating layer conv3_2
I0905 17:28:22.018251 11265 net.cpp:84] Creating Layer conv3_2
I0905 17:28:22.018255 11265 net.cpp:406] conv3_2 <- conv3_1
I0905 17:28:22.018262 11265 net.cpp:380] conv3_2 -> conv3_2
I0905 17:28:22.024564 11265 net.cpp:122] Setting up conv3_2
I0905 17:28:22.024581 11265 net.cpp:129] Top shape: 4 256 56 56 (3211264)
I0905 17:28:22.024587 11265 net.cpp:137] Memory required for data: 636633088
I0905 17:28:22.024597 11265 layer_factory.hpp:77] Creating layer batchnorm3_2
I0905 17:28:22.024606 11265 net.cpp:84] Creating Layer batchnorm3_2
I0905 17:28:22.024611 11265 net.cpp:406] batchnorm3_2 <- conv3_2
I0905 17:28:22.024618 11265 net.cpp:367] batchnorm3_2 -> conv3_2 (in-place)
I0905 17:28:22.024804 11265 net.cpp:122] Setting up batchnorm3_2
I0905 17:28:22.024813 11265 net.cpp:129] Top shape: 4 256 56 56 (3211264)
I0905 17:28:22.024817 11265 net.cpp:137] Memory required for data: 649478144
I0905 17:28:22.024832 11265 layer_factory.hpp:77] Creating layer elu3_2
I0905 17:28:22.024837 11265 net.cpp:84] Creating Layer elu3_2
I0905 17:28:22.024842 11265 net.cpp:406] elu3_2 <- conv3_2
I0905 17:28:22.024849 11265 net.cpp:367] elu3_2 -> conv3_2 (in-place)
I0905 17:28:22.024855 11265 net.cpp:122] Setting up elu3_2
I0905 17:28:22.024862 11265 net.cpp:129] Top shape: 4 256 56 56 (3211264)
I0905 17:28:22.024868 11265 net.cpp:137] Memory required for data: 662323200
I0905 17:28:22.024873 11265 layer_factory.hpp:77] Creating layer deconv3_3
I0905 17:28:22.024897 11265 net.cpp:84] Creating Layer deconv3_3
I0905 17:28:22.024901 11265 net.cpp:406] deconv3_3 <- conv3_2
I0905 17:28:22.024910 11265 net.cpp:380] deconv3_3 -> deconv3_3
I0905 17:28:22.027151 11265 net.cpp:122] Setting up deconv3_3
I0905 17:28:22.027163 11265 net.cpp:129] Top shape: 4 128 56 56 (1605632)
I0905 17:28:22.027169 11265 net.cpp:137] Memory required for data: 668745728
I0905 17:28:22.027179 11265 layer_factory.hpp:77] Creating layer debatchnorm3_3
I0905 17:28:22.027185 11265 net.cpp:84] Creating Layer debatchnorm3_3
I0905 17:28:22.027190 11265 net.cpp:406] debatchnorm3_3 <- deconv3_3
I0905 17:28:22.027196 11265 net.cpp:367] debatchnorm3_3 -> deconv3_3 (in-place)
I0905 17:28:22.027379 11265 net.cpp:122] Setting up debatchnorm3_3
I0905 17:28:22.027387 11265 net.cpp:129] Top shape: 4 128 56 56 (1605632)
I0905 17:28:22.027392 11265 net.cpp:137] Memory required for data: 675168256
I0905 17:28:22.027401 11265 layer_factory.hpp:77] Creating layer deelu3_3
I0905 17:28:22.027407 11265 net.cpp:84] Creating Layer deelu3_3
I0905 17:28:22.027412 11265 net.cpp:406] deelu3_3 <- deconv3_3
I0905 17:28:22.027418 11265 net.cpp:367] deelu3_3 -> deconv3_3 (in-place)
I0905 17:28:22.027426 11265 net.cpp:122] Setting up deelu3_3
I0905 17:28:22.027431 11265 net.cpp:129] Top shape: 4 128 56 56 (1605632)
I0905 17:28:22.027436 11265 net.cpp:137] Memory required for data: 681590784
I0905 17:28:22.027441 11265 layer_factory.hpp:77] Creating layer unpool2
I0905 17:28:22.027449 11265 net.cpp:84] Creating Layer unpool2
I0905 17:28:22.027454 11265 net.cpp:406] unpool2 <- deconv3_3
I0905 17:28:22.027459 11265 net.cpp:406] unpool2 <- pool2_mask
I0905 17:28:22.027464 11265 net.cpp:406] unpool2 <- pool2_argmax_count
I0905 17:28:22.027469 11265 net.cpp:380] unpool2 -> unpool2
I0905 17:28:22.027494 11265 net.cpp:122] Setting up unpool2
I0905 17:28:22.027500 11265 net.cpp:129] Top shape: 4 128 112 112 (6422528)
I0905 17:28:22.027503 11265 net.cpp:137] Memory required for data: 707280896
I0905 17:28:22.027508 11265 layer_factory.hpp:77] Creating layer deconv2_1
I0905 17:28:22.027514 11265 net.cpp:84] Creating Layer deconv2_1
I0905 17:28:22.027518 11265 net.cpp:406] deconv2_1 <- unpool2
I0905 17:28:22.027524 11265 net.cpp:380] deconv2_1 -> deconv2_1
I0905 17:28:22.028921 11265 net.cpp:122] Setting up deconv2_1
I0905 17:28:22.028933 11265 net.cpp:129] Top shape: 4 128 112 112 (6422528)
I0905 17:28:22.028936 11265 net.cpp:137] Memory required for data: 732971008
I0905 17:28:22.028942 11265 layer_factory.hpp:77] Creating layer debatchnorm2_1
I0905 17:28:22.028949 11265 net.cpp:84] Creating Layer debatchnorm2_1
I0905 17:28:22.028954 11265 net.cpp:406] debatchnorm2_1 <- deconv2_1
I0905 17:28:22.028959 11265 net.cpp:367] debatchnorm2_1 -> deconv2_1 (in-place)
I0905 17:28:22.029141 11265 net.cpp:122] Setting up debatchnorm2_1
I0905 17:28:22.029150 11265 net.cpp:129] Top shape: 4 128 112 112 (6422528)
I0905 17:28:22.029155 11265 net.cpp:137] Memory required for data: 758661120
I0905 17:28:22.029163 11265 layer_factory.hpp:77] Creating layer deelu2_1
I0905 17:28:22.029170 11265 net.cpp:84] Creating Layer deelu2_1
I0905 17:28:22.029175 11265 net.cpp:406] deelu2_1 <- deconv2_1
I0905 17:28:22.029182 11265 net.cpp:367] deelu2_1 -> deconv2_1 (in-place)
I0905 17:28:22.029188 11265 net.cpp:122] Setting up deelu2_1
I0905 17:28:22.029196 11265 net.cpp:129] Top shape: 4 128 112 112 (6422528)
I0905 17:28:22.029201 11265 net.cpp:137] Memory required for data: 784351232
I0905 17:28:22.029206 11265 layer_factory.hpp:77] Creating layer deconv2_2
I0905 17:28:22.029213 11265 net.cpp:84] Creating Layer deconv2_2
I0905 17:28:22.029217 11265 net.cpp:406] deconv2_2 <- deconv2_1
I0905 17:28:22.029225 11265 net.cpp:380] deconv2_2 -> deconv2_2
I0905 17:28:22.029840 11265 net.cpp:122] Setting up deconv2_2
I0905 17:28:22.029850 11265 net.cpp:129] Top shape: 4 64 112 112 (3211264)
I0905 17:28:22.029853 11265 net.cpp:137] Memory required for data: 797196288
I0905 17:28:22.029861 11265 layer_factory.hpp:77] Creating layer debatchnorm2_2
I0905 17:28:22.029868 11265 net.cpp:84] Creating Layer debatchnorm2_2
I0905 17:28:22.029883 11265 net.cpp:406] debatchnorm2_2 <- deconv2_2
I0905 17:28:22.029891 11265 net.cpp:367] debatchnorm2_2 -> deconv2_2 (in-place)
I0905 17:28:22.030077 11265 net.cpp:122] Setting up debatchnorm2_2
I0905 17:28:22.030086 11265 net.cpp:129] Top shape: 4 64 112 112 (3211264)
I0905 17:28:22.030091 11265 net.cpp:137] Memory required for data: 810041344
I0905 17:28:22.030100 11265 layer_factory.hpp:77] Creating layer deelu2_2
I0905 17:28:22.030107 11265 net.cpp:84] Creating Layer deelu2_2
I0905 17:28:22.030112 11265 net.cpp:406] deelu2_2 <- deconv2_2
I0905 17:28:22.030118 11265 net.cpp:367] deelu2_2 -> deconv2_2 (in-place)
I0905 17:28:22.030125 11265 net.cpp:122] Setting up deelu2_2
I0905 17:28:22.030133 11265 net.cpp:129] Top shape: 4 64 112 112 (3211264)
I0905 17:28:22.030136 11265 net.cpp:137] Memory required for data: 822886400
I0905 17:28:22.030143 11265 layer_factory.hpp:77] Creating layer unpool1
I0905 17:28:22.030153 11265 net.cpp:84] Creating Layer unpool1
I0905 17:28:22.030156 11265 net.cpp:406] unpool1 <- deconv2_2
I0905 17:28:22.030163 11265 net.cpp:406] unpool1 <- pool1_mask
I0905 17:28:22.030169 11265 net.cpp:406] unpool1 <- pool1_argmax_count
I0905 17:28:22.030176 11265 net.cpp:380] unpool1 -> unpool1
I0905 17:28:22.030201 11265 net.cpp:122] Setting up unpool1
I0905 17:28:22.030208 11265 net.cpp:129] Top shape: 4 64 224 224 (12845056)
I0905 17:28:22.030215 11265 net.cpp:137] Memory required for data: 874266624
I0905 17:28:22.030220 11265 layer_factory.hpp:77] Creating layer deconv1_1
I0905 17:28:22.030227 11265 net.cpp:84] Creating Layer deconv1_1
I0905 17:28:22.030232 11265 net.cpp:406] deconv1_1 <- unpool1
I0905 17:28:22.030241 11265 net.cpp:380] deconv1_1 -> deconv1_1
I0905 17:28:22.030679 11265 net.cpp:122] Setting up deconv1_1
I0905 17:28:22.030689 11265 net.cpp:129] Top shape: 4 64 224 224 (12845056)
I0905 17:28:22.030694 11265 net.cpp:137] Memory required for data: 925646848
I0905 17:28:22.030701 11265 layer_factory.hpp:77] Creating layer debatchnorm1_1
I0905 17:28:22.030707 11265 net.cpp:84] Creating Layer debatchnorm1_1
I0905 17:28:22.030711 11265 net.cpp:406] debatchnorm1_1 <- deconv1_1
I0905 17:28:22.030719 11265 net.cpp:367] debatchnorm1_1 -> deconv1_1 (in-place)
I0905 17:28:22.030930 11265 net.cpp:122] Setting up debatchnorm1_1
I0905 17:28:22.030937 11265 net.cpp:129] Top shape: 4 64 224 224 (12845056)
I0905 17:28:22.030941 11265 net.cpp:137] Memory required for data: 977027072
I0905 17:28:22.030951 11265 layer_factory.hpp:77] Creating layer deelu1_1
I0905 17:28:22.030956 11265 net.cpp:84] Creating Layer deelu1_1
I0905 17:28:22.030961 11265 net.cpp:406] deelu1_1 <- deconv1_1
I0905 17:28:22.030969 11265 net.cpp:367] deelu1_1 -> deconv1_1 (in-place)
I0905 17:28:22.031002 11265 net.cpp:122] Setting up deelu1_1
I0905 17:28:22.031008 11265 net.cpp:129] Top shape: 4 64 224 224 (12845056)
I0905 17:28:22.031013 11265 net.cpp:137] Memory required for data: 1028407296
I0905 17:28:22.031018 11265 layer_factory.hpp:77] Creating layer deconv1_2
I0905 17:28:22.031025 11265 net.cpp:84] Creating Layer deconv1_2
I0905 17:28:22.031030 11265 net.cpp:406] deconv1_2 <- deconv1_1
I0905 17:28:22.031040 11265 net.cpp:380] deconv1_2 -> deconv1_2
I0905 17:28:22.031919 11265 net.cpp:122] Setting up deconv1_2
I0905 17:28:22.031932 11265 net.cpp:129] Top shape: 4 64 224 224 (12845056)
I0905 17:28:22.031939 11265 net.cpp:137] Memory required for data: 1079787520
I0905 17:28:22.031946 11265 layer_factory.hpp:77] Creating layer debatchnorm1_2
I0905 17:28:22.031954 11265 net.cpp:84] Creating Layer debatchnorm1_2
I0905 17:28:22.031958 11265 net.cpp:406] debatchnorm1_2 <- deconv1_2
I0905 17:28:22.031967 11265 net.cpp:367] debatchnorm1_2 -> deconv1_2 (in-place)
I0905 17:28:22.032179 11265 net.cpp:122] Setting up debatchnorm1_2
I0905 17:28:22.032187 11265 net.cpp:129] Top shape: 4 64 224 224 (12845056)
I0905 17:28:22.032191 11265 net.cpp:137] Memory required for data: 1131167744
I0905 17:28:22.032202 11265 layer_factory.hpp:77] Creating layer deelu1_2
I0905 17:28:22.032208 11265 net.cpp:84] Creating Layer deelu1_2
I0905 17:28:22.032224 11265 net.cpp:406] deelu1_2 <- deconv1_2
I0905 17:28:22.032232 11265 net.cpp:367] deelu1_2 -> deconv1_2 (in-place)
I0905 17:28:22.032238 11265 net.cpp:122] Setting up deelu1_2
I0905 17:28:22.032244 11265 net.cpp:129] Top shape: 4 64 224 224 (12845056)
I0905 17:28:22.032248 11265 net.cpp:137] Memory required for data: 1182547968
I0905 17:28:22.032253 11265 layer_factory.hpp:77] Creating layer segmentation
I0905 17:28:22.032263 11265 net.cpp:84] Creating Layer segmentation
I0905 17:28:22.032268 11265 net.cpp:406] segmentation <- deconv1_2
I0905 17:28:22.032276 11265 net.cpp:380] segmentation -> segmentation
I0905 17:28:22.034447 11265 net.cpp:122] Setting up segmentation
I0905 17:28:22.034538 11265 net.cpp:129] Top shape: 4 2 224 224 (401408)
I0905 17:28:22.034544 11265 net.cpp:137] Memory required for data: 1184153600
I0905 17:28:22.034554 11265 layer_factory.hpp:77] Creating layer infogainLoss
I0905 17:28:22.034564 11265 net.cpp:84] Creating Layer infogainLoss
I0905 17:28:22.034569 11265 net.cpp:406] infogainLoss <- segmentation
I0905 17:28:22.034575 11265 net.cpp:406] infogainLoss <- label
I0905 17:28:22.034586 11265 net.cpp:380] infogainLoss -> loss
…
I0905 17:28:22.036682 11265 solver.cpp:172] Creating test net (#0) specified by net file: train_val.prototxt
I0905 17:28:22.036722 11265 net.cpp:294] The NetState phase (1) differed from the phase (0) specified by a rule in layer data
I0905 17:28:22.036926 11265 net.cpp:51] Initializing net from parameters: 
name: "SegNet5"
state {
  phase: TEST
}
layer {
  name: "data"
  type: "HDF5Data"
  top: "data"
  top: "label"
  include {
    phase: TEST
  }
  hdf5_data_param {
    source: "/home/grochette/Documents/SegNet/data/HDF5/Validation/hdf5_list.txt"
    batch_size: 2
  }
}
layer {
  name: "batchnorm0"
  type: "BatchNorm"
  bottom: "data"
  top: "data"
}
layer {
  name: "conv1_1"
  type: "Convolution"
  bottom: "data"
  top: "conv1_1"
  param {
    lr_mult: 1
    decay_mult: 1
  }
  param {
    lr_mult: 2
    decay_mult: 0
  }
  convolution_param {
    num_output: 64
    pad: 1
    kernel_size: 3
    stride: 1
    weight_filler {
      type: "xavier"
    }
    bias_filler {
      type: "constant"
    }
  }
}
layer {
  name: "batchnorm1_1"
  type: "BatchNorm"
  bottom: "conv1_1"
  top: "conv1_1"
}
layer {
  name: "elu1_1"
  type: "ELU"
  bottom: "conv1_1"
  top: "conv1_1"
}
layer {
  name: "conv1_2"
  type: "Convolution"
  bottom: "conv1_1"
  top: "conv1_2"
  param {
    lr_mult: 1
    decay_mult: 1
  }
  param {
    lr_mult: 2
    decay_mult: 0
  }
  convolution_param {
    num_output: 64
    pad: 1
    kernel_size: 3
    stride: 1
    weight_filler {
      type: "xavier"
    }
    bias_filler {
      type: "constant"
    }
  }
}
layer {
  name: "batchnorm1_2"
  type: "BatchNorm"
  bottom: "conv1_2"
  top: "conv1_2"
}
layer {
  name: "elu1_2"
  type: "ELU"
  bottom: "conv1_2"
  top: "conv1_2"
}
layer {
  name: "pool1"
  type: "Pooling"
  bottom: "conv1_2"
  top: "pool1"
  top: "pool1_mask"
  top: "pool1_argmax_count"
  pooling_param {
    pool: MAX
    kernel_size: 2
    stride: 2
  }
}
layer {
  name: "conv2_1"
  type: "Convolution"
  bottom: "pool1"
  top: "conv2_1"
  param {
    lr_mult: 1
    decay_mult: 1
  }
  param {
    lr_mult: 2
    decay_mult: 0
  }
  convolution_param {
    num_output: 128
    pad: 1
    kernel_size: 3
    stride: 1
    weight_filler {
      type: "xavier"
    }
    bias_filler {
      type: "constant"
    }
  }
}
layer {
  name: "batchnorm2_1"
  type: "BatchNorm"
  bottom: "conv2_1"
  top: "conv2_1"
}
layer {
  name: "elu2_1"
  type: "ELU"
  bottom: "conv2_1"
  top: "conv2_1"
}
layer {
  name: "conv2_2"
  type: "Convolution"
  bottom: "conv2_1"
  top: "conv2_2"
  param {
    lr_mult: 1
    decay_mult: 1
  }
  param {
    lr_mult: 2
    decay_mult: 0
  }
  convolution_param {
    num_output: 128
    pad: 1
    kernel_size: 3
    stride: 1
    weight_filler {
      type: "xavier"
    }
    bias_filler {
      type: "constant"
    }
  }
}
layer {
  name: "batchnorm2_2"
  type: "BatchNorm"
  bottom: "conv2_2"
  top: "conv2_2"
}
layer {
  name: "elu2_2"
  type: "ELU"
  bottom: "conv2_2"
  top: "conv2_2"
}
layer {
  name: "pool2"
  type: "Pooling"
  bottom: "conv2_2"
  top: "pool2"
  top: "pool2_mask"
  top: "pool2_argmax_count"
  pooling_param {
    pool: MAX
    kernel_size: 2
    stride: 2
  }
}
layer {
  name: "conv3_1"
  type: "Convolution"
  bottom: "pool2"
  top: "conv3_1"
  param {
    lr_mult: 1
    decay_mult: 1
  }
  param {
    lr_mult: 2
    decay_mult: 0
  }
  convolution_param {
    num_output: 256
    pad: 1
    kernel_size: 3
    stride: 1
    weight_filler {
      type: "xavier"
    }
    bias_filler {
      type: "constant"
    }
  }
}
layer {
  name: "batchnorm3_1"
  type: "BatchNorm"
  bottom: "conv3_1"
  top: "conv3_1"
}
layer {
  name: "elu3_1"
  type: "ELU"
  bottom: "conv3_1"
  top: "conv3_1"
}
layer {
  name: "conv3_2"
  type: "Convolution"
  bottom: "conv3_1"
  top: "conv3_2"
  param {
    lr_mult: 1
    decay_mult: 1
  }
  param {
    lr_mult: 2
    decay_mult: 0
  }
  convolution_param {
    num_output: 256
    pad: 1
    kernel_size: 3
    stride: 1
    weight_filler {
      type: "xavier"
    }
    bias_filler {
      type: "constant"
    }
  }
}
layer {
  name: "batchnorm3_2"
  type: "BatchNorm"
  bottom: "conv3_2"
  top: "conv3_2"
}
layer {
  name: "elu3_2"
  type: "ELU"
  bottom: "conv3_2"
  top: "conv3_2"
}
layer {
  name: "deconv3_3"
  type: "Deconvolution"
  bottom: "conv3_2"
  top: "deconv3_3"
  param {
    lr_mult: 1
    decay_mult: 1
  }
  param {
    lr_mult: 2
    decay_mult: 0
  }
  convolution_param {
    num_output: 128
    pad: 1
    kernel_size: 3
    stride: 1
    weight_filler {
      type: "xavier"
    }
    bias_filler {
      type: "constant"
    }
  }
}
layer {
  name: "debatchnorm3_3"
  type: "BatchNorm"
  bottom: "deconv3_3"
  top: "deconv3_3"
}
layer {
  name: "deelu3_3"
  type: "ELU"
  bottom: "deconv3_3"
  top: "deconv3_3"
}
layer {
  name: "unpool2"
  type: "Unpooling"
  bottom: "deconv3_3"
  bottom: "pool2_mask"
  bottom: "pool2_argmax_count"
  top: "unpool2"
  pooling_param {
    pool: MAX
    kernel_size: 2
    stride: 2
  }
}
layer {
  name: "deconv2_1"
  type: "Deconvolution"
  bottom: "unpool2"
  top: "deconv2_1"
  param {
    lr_mult: 1
    decay_mult: 1
  }
  param {
    lr_mult: 2
    decay_mult: 0
  }
  convolution_param {
    num_output: 128
    pad: 1
    kernel_size: 3
    stride: 1
    weight_filler {
      type: "xavier"
    }
    bias_filler {
      type: "constant"
    }
  }
}
layer {
  name: "debatchnorm2_1"
  type: "BatchNorm"
  bottom: "deconv2_1"
  top: "deconv2_1"
}
layer {
  name: "deelu2_1"
  type: "ELU"
  bottom: "deconv2_1"
  top: "deconv2_1"
}
layer {
  name: "deconv2_2"
  type: "Deconvolution"
  bottom: "deconv2_1"
  top: "deconv2_2"
  param {
    lr_mult: 1
    decay_mult: 1
  }
  param {
    lr_mult: 2
    decay_mult: 0
  }
  convolution_param {
    num_output: 64
    pad: 1
    kernel_size: 3
    stride: 1
    weight_filler {
      type: "xavier"
    }
    bias_filler {
      type: "constant"
    }
  }
}
layer {
  name: "debatchnorm2_2"
  type: "BatchNorm"
  bottom: "deconv2_2"
  top: "deconv2_2"
}
layer {
  name: "deelu2_2"
  type: "ELU"
  bottom: "deconv2_2"
  top: "deconv2_2"
}
layer {
  name: "unpool1"
  type: "Unpooling"
  bottom: "deconv2_2"
  bottom: "pool1_mask"
  bottom: "pool1_argmax_count"
  top: "unpool1"
  pooling_param {
    pool: MAX
    kernel_size: 2
    stride: 2
  }
}
layer {
  name: "deconv1_1"
  type: "Deconvolution"
  bottom: "unpool1"
  top: "deconv1_1"
  param {
    lr_mult: 1
    decay_mult: 1
  }
  param {
    lr_mult: 2
    decay_mult: 0
  }
  convolution_param {
    num_output: 64
    pad: 1
    kernel_size: 3
    stride: 1
    weight_filler {
      type: "xavier"
    }
    bias_filler {
      type: "constant"
    }
  }
}
layer {
  name: "debatchnorm1_1"
  type: "BatchNorm"
  bottom: "deconv1_1"
  top: "deconv1_1"
}
layer {
  name: "deelu1_1"
  type: "ELU"
  bottom: "deconv1_1"
  top: "deconv1_1"
}
layer {
  name: "deconv1_2"
  type: "Deconvolution"
  bottom: "deconv1_1"
  top: "deconv1_2"
  param {
    lr_mult: 1
    decay_mult: 1
  }
  param {
    lr_mult: 2
    decay_mult: 0
  }
  convolution_param {
    num_output: 64
    pad: 1
    kernel_size: 3
    stride: 1
    weight_filler {
      type: "xavier"
    }
    bias_filler {
      type: "constant"
    }
  }
}
layer {
  name: "debatchnorm1_2"
  type: "BatchNorm"
  bottom: "deconv1_2"
  top: "deconv1_2"
}
layer {
  name: "deelu1_2"
  type: "ELU"
  bottom: "deconv1_2"
  top: "deconv1_2"
}
layer {
  name: "segmentation"
  type: "Convolution"
  bottom: "deconv1_2"
  top: "segmentation"
  param {
    lr_mult: 1
    decay_mult: 1
  }
  param {
    lr_mult: 2
    decay_mult: 0
  }
  convolution_param {
    num_output: 2
    pad: 0
    kernel_size: 1
    weight_filler {
      type: "xavier"
    }
    bias_filler {
      type: "constant"
    }
  }
}
layer {
  name: "infogainLoss"
  type: "InfogainLoss"
  bottom: "segmentation"
  bottom: "label"
  top: "loss"
  loss_param {
    ignore_label: 2
  }
  infogain_loss_param {
    source: "/home/grochette/Documents/SegNet/data/infogainH.binaryproto"
  }
}
layer {
  name: "accuracy"
  type: "Accuracy"
  bottom: "segmentation"
  bottom: "label"
  top: "accuracy"
  top: "per_class_accuracy"
  include {
    phase: TEST
  }
  accuracy_param {
    ignore_label: 2
  }
}
I0905 17:28:22.037267 11265 layer_factory.hpp:77] Creating layer data
I0905 17:28:22.037279 11265 net.cpp:84] Creating Layer data
I0905 17:28:22.037286 11265 net.cpp:380] data -> data
I0905 17:28:22.037297 11265 net.cpp:380] data -> label
I0905 17:28:22.037305 11265 hdf5_data_layer.cpp:80] Loading list of HDF5 filenames from: /home/grochette/Documents/SegNet/data/HDF5/Validation/hdf5_list.txt
I0905 17:28:22.037333 11265 hdf5_data_layer.cpp:94] Number of HDF5 files: 10
I0905 17:28:22.503010 11265 net.cpp:122] Setting up data
I0905 17:28:22.503037 11265 net.cpp:129] Top shape: 2 4 224 224 (401408)
I0905 17:28:22.503072 11265 net.cpp:129] Top shape: 2 1 224 224 (100352)
I0905 17:28:22.503077 11265 net.cpp:137] Memory required for data: 2007040
I0905 17:28:22.503087 11265 layer_factory.hpp:77] Creating layer label_data_1_split
I0905 17:28:22.503101 11265 net.cpp:84] Creating Layer label_data_1_split
I0905 17:28:22.503105 11265 net.cpp:406] label_data_1_split <- label
I0905 17:28:22.503114 11265 net.cpp:380] label_data_1_split -> label_data_1_split_0
I0905 17:28:22.503125 11265 net.cpp:380] label_data_1_split -> label_data_1_split_1
I0905 17:28:22.503170 11265 net.cpp:122] Setting up label_data_1_split
I0905 17:28:22.503177 11265 net.cpp:129] Top shape: 2 1 224 224 (100352)
I0905 17:28:22.503185 11265 net.cpp:129] Top shape: 2 1 224 224 (100352)
I0905 17:28:22.503188 11265 net.cpp:137] Memory required for data: 2809856
I0905 17:28:22.503193 11265 layer_factory.hpp:77] Creating layer batchnorm0
I0905 17:28:22.503202 11265 net.cpp:84] Creating Layer batchnorm0
I0905 17:28:22.503206 11265 net.cpp:406] batchnorm0 <- data
I0905 17:28:22.503213 11265 net.cpp:367] batchnorm0 -> data (in-place)
I0905 17:28:22.503422 11265 net.cpp:122] Setting up batchnorm0
I0905 17:28:22.503429 11265 net.cpp:129] Top shape: 2 4 224 224 (401408)
I0905 17:28:22.503434 11265 net.cpp:137] Memory required for data: 4415488
I0905 17:28:22.503448 11265 layer_factory.hpp:77] Creating layer conv1_1
I0905 17:28:22.503459 11265 net.cpp:84] Creating Layer conv1_1
I0905 17:28:22.503464 11265 net.cpp:406] conv1_1 <- data
I0905 17:28:22.503473 11265 net.cpp:380] conv1_1 -> conv1_1
I0905 17:28:22.505470 11265 net.cpp:122] Setting up conv1_1
I0905 17:28:22.505483 11265 net.cpp:129] Top shape: 2 64 224 224 (6422528)
I0905 17:28:22.505488 11265 net.cpp:137] Memory required for data: 30105600
I0905 17:28:22.505499 11265 layer_factory.hpp:77] Creating layer batchnorm1_1
I0905 17:28:22.505509 11265 net.cpp:84] Creating Layer batchnorm1_1
I0905 17:28:22.505513 11265 net.cpp:406] batchnorm1_1 <- conv1_1
I0905 17:28:22.505522 11265 net.cpp:367] batchnorm1_1 -> conv1_1 (in-place)
I0905 17:28:22.506180 11265 net.cpp:122] Setting up batchnorm1_1
I0905 17:28:22.506191 11265 net.cpp:129] Top shape: 2 64 224 224 (6422528)
I0905 17:28:22.506197 11265 net.cpp:137] Memory required for data: 55795712
I0905 17:28:22.506207 11265 layer_factory.hpp:77] Creating layer elu1_1
I0905 17:28:22.506213 11265 net.cpp:84] Creating Layer elu1_1
I0905 17:28:22.506218 11265 net.cpp:406] elu1_1 <- conv1_1
I0905 17:28:22.506225 11265 net.cpp:367] elu1_1 -> conv1_1 (in-place)
I0905 17:28:22.506232 11265 net.cpp:122] Setting up elu1_1
I0905 17:28:22.506255 11265 net.cpp:129] Top shape: 2 64 224 224 (6422528)
I0905 17:28:22.506260 11265 net.cpp:137] Memory required for data: 81485824
I0905 17:28:22.506265 11265 layer_factory.hpp:77] Creating layer conv1_2
I0905 17:28:22.506275 11265 net.cpp:84] Creating Layer conv1_2
I0905 17:28:22.506279 11265 net.cpp:406] conv1_2 <- conv1_1
I0905 17:28:22.506287 11265 net.cpp:380] conv1_2 -> conv1_2
I0905 17:28:22.508685 11265 net.cpp:122] Setting up conv1_2
I0905 17:28:22.508698 11265 net.cpp:129] Top shape: 2 64 224 224 (6422528)
I0905 17:28:22.508704 11265 net.cpp:137] Memory required for data: 107175936
I0905 17:28:22.508718 11265 layer_factory.hpp:77] Creating layer batchnorm1_2
I0905 17:28:22.508724 11265 net.cpp:84] Creating Layer batchnorm1_2
I0905 17:28:22.508728 11265 net.cpp:406] batchnorm1_2 <- conv1_2
I0905 17:28:22.508738 11265 net.cpp:367] batchnorm1_2 -> conv1_2 (in-place)
I0905 17:28:22.508955 11265 net.cpp:122] Setting up batchnorm1_2
I0905 17:28:22.508962 11265 net.cpp:129] Top shape: 2 64 224 224 (6422528)
I0905 17:28:22.508967 11265 net.cpp:137] Memory required for data: 132866048
I0905 17:28:22.508976 11265 layer_factory.hpp:77] Creating layer elu1_2
I0905 17:28:22.508985 11265 net.cpp:84] Creating Layer elu1_2
I0905 17:28:22.508988 11265 net.cpp:406] elu1_2 <- conv1_2
I0905 17:28:22.508994 11265 net.cpp:367] elu1_2 -> conv1_2 (in-place)
I0905 17:28:22.509001 11265 net.cpp:122] Setting up elu1_2
I0905 17:28:22.509007 11265 net.cpp:129] Top shape: 2 64 224 224 (6422528)
I0905 17:28:22.509012 11265 net.cpp:137] Memory required for data: 158556160
I0905 17:28:22.509016 11265 layer_factory.hpp:77] Creating layer pool1
I0905 17:28:22.509022 11265 layer_factory.cpp:91] cuDNN does not support multiple tops. Using Caffe's own pooling layer.
I0905 17:28:22.509029 11265 net.cpp:84] Creating Layer pool1
I0905 17:28:22.509034 11265 net.cpp:406] pool1 <- conv1_2
I0905 17:28:22.509042 11265 net.cpp:380] pool1 -> pool1
I0905 17:28:22.509047 11265 net.cpp:380] pool1 -> pool1_mask
I0905 17:28:22.509053 11265 net.cpp:380] pool1 -> pool1_argmax_count
I0905 17:28:22.509105 11265 net.cpp:122] Setting up pool1
I0905 17:28:22.509111 11265 net.cpp:129] Top shape: 2 64 112 112 (1605632)
I0905 17:28:22.509115 11265 net.cpp:129] Top shape: 2 64 112 112 (1605632)
I0905 17:28:22.509120 11265 net.cpp:129] Top shape: 2 64 224 224 (6422528)
I0905 17:28:22.509122 11265 net.cpp:137] Memory required for data: 197091328
I0905 17:28:22.509125 11265 layer_factory.hpp:77] Creating layer conv2_1
I0905 17:28:22.509132 11265 net.cpp:84] Creating Layer conv2_1
I0905 17:28:22.509136 11265 net.cpp:406] conv2_1 <- pool1
I0905 17:28:22.509140 11265 net.cpp:380] conv2_1 -> conv2_1
I0905 17:28:22.511824 11265 net.cpp:122] Setting up conv2_1
I0905 17:28:22.511837 11265 net.cpp:129] Top shape: 2 128 112 112 (3211264)
I0905 17:28:22.511840 11265 net.cpp:137] Memory required for data: 209936384
I0905 17:28:22.511847 11265 layer_factory.hpp:77] Creating layer batchnorm2_1
I0905 17:28:22.511852 11265 net.cpp:84] Creating Layer batchnorm2_1
I0905 17:28:22.511855 11265 net.cpp:406] batchnorm2_1 <- conv2_1
I0905 17:28:22.511860 11265 net.cpp:367] batchnorm2_1 -> conv2_1 (in-place)
I0905 17:28:22.512066 11265 net.cpp:122] Setting up batchnorm2_1
I0905 17:28:22.512073 11265 net.cpp:129] Top shape: 2 128 112 112 (3211264)
I0905 17:28:22.512075 11265 net.cpp:137] Memory required for data: 222781440
I0905 17:28:22.512085 11265 layer_factory.hpp:77] Creating layer elu2_1
I0905 17:28:22.512089 11265 net.cpp:84] Creating Layer elu2_1
I0905 17:28:22.512092 11265 net.cpp:406] elu2_1 <- conv2_1
I0905 17:28:22.512097 11265 net.cpp:367] elu2_1 -> conv2_1 (in-place)
I0905 17:28:22.512102 11265 net.cpp:122] Setting up elu2_1
I0905 17:28:22.512109 11265 net.cpp:129] Top shape: 2 128 112 112 (3211264)
I0905 17:28:22.512114 11265 net.cpp:137] Memory required for data: 235626496
I0905 17:28:22.512118 11265 layer_factory.hpp:77] Creating layer conv2_2
I0905 17:28:22.512128 11265 net.cpp:84] Creating Layer conv2_2
I0905 17:28:22.512132 11265 net.cpp:406] conv2_2 <- conv2_1
I0905 17:28:22.512152 11265 net.cpp:380] conv2_2 -> conv2_2
I0905 17:28:22.515102 11265 net.cpp:122] Setting up conv2_2
I0905 17:28:22.515115 11265 net.cpp:129] Top shape: 2 128 112 112 (3211264)
I0905 17:28:22.515118 11265 net.cpp:137] Memory required for data: 248471552
I0905 17:28:22.515125 11265 layer_factory.hpp:77] Creating layer batchnorm2_2
I0905 17:28:22.515130 11265 net.cpp:84] Creating Layer batchnorm2_2
I0905 17:28:22.515133 11265 net.cpp:406] batchnorm2_2 <- conv2_2
I0905 17:28:22.515139 11265 net.cpp:367] batchnorm2_2 -> conv2_2 (in-place)
I0905 17:28:22.515348 11265 net.cpp:122] Setting up batchnorm2_2
I0905 17:28:22.515354 11265 net.cpp:129] Top shape: 2 128 112 112 (3211264)
I0905 17:28:22.515358 11265 net.cpp:137] Memory required for data: 261316608
I0905 17:28:22.515363 11265 layer_factory.hpp:77] Creating layer elu2_2
I0905 17:28:22.515367 11265 net.cpp:84] Creating Layer elu2_2
I0905 17:28:22.515370 11265 net.cpp:406] elu2_2 <- conv2_2
I0905 17:28:22.515377 11265 net.cpp:367] elu2_2 -> conv2_2 (in-place)
I0905 17:28:22.515380 11265 net.cpp:122] Setting up elu2_2
I0905 17:28:22.515384 11265 net.cpp:129] Top shape: 2 128 112 112 (3211264)
I0905 17:28:22.515388 11265 net.cpp:137] Memory required for data: 274161664
I0905 17:28:22.515394 11265 layer_factory.hpp:77] Creating layer pool2
I0905 17:28:22.515399 11265 layer_factory.cpp:91] cuDNN does not support multiple tops. Using Caffe's own pooling layer.
I0905 17:28:22.515408 11265 net.cpp:84] Creating Layer pool2
I0905 17:28:22.515413 11265 net.cpp:406] pool2 <- conv2_2
I0905 17:28:22.515420 11265 net.cpp:380] pool2 -> pool2
I0905 17:28:22.515429 11265 net.cpp:380] pool2 -> pool2_mask
I0905 17:28:22.515436 11265 net.cpp:380] pool2 -> pool2_argmax_count
I0905 17:28:22.515496 11265 net.cpp:122] Setting up pool2
I0905 17:28:22.515503 11265 net.cpp:129] Top shape: 2 128 56 56 (802816)
I0905 17:28:22.515509 11265 net.cpp:129] Top shape: 2 128 56 56 (802816)
I0905 17:28:22.515516 11265 net.cpp:129] Top shape: 2 128 112 112 (3211264)
I0905 17:28:22.515519 11265 net.cpp:137] Memory required for data: 293429248
I0905 17:28:22.515524 11265 layer_factory.hpp:77] Creating layer conv3_1
I0905 17:28:22.515535 11265 net.cpp:84] Creating Layer conv3_1
I0905 17:28:22.515539 11265 net.cpp:406] conv3_1 <- pool2
I0905 17:28:22.515548 11265 net.cpp:380] conv3_1 -> conv3_1
I0905 17:28:22.519587 11265 net.cpp:122] Setting up conv3_1
I0905 17:28:22.519605 11265 net.cpp:129] Top shape: 2 256 56 56 (1605632)
I0905 17:28:22.519611 11265 net.cpp:137] Memory required for data: 299851776
I0905 17:28:22.519630 11265 layer_factory.hpp:77] Creating layer batchnorm3_1
I0905 17:28:22.519639 11265 net.cpp:84] Creating Layer batchnorm3_1
I0905 17:28:22.519644 11265 net.cpp:406] batchnorm3_1 <- conv3_1
I0905 17:28:22.519651 11265 net.cpp:367] batchnorm3_1 -> conv3_1 (in-place)
I0905 17:28:22.519875 11265 net.cpp:122] Setting up batchnorm3_1
I0905 17:28:22.519883 11265 net.cpp:129] Top shape: 2 256 56 56 (1605632)
I0905 17:28:22.519887 11265 net.cpp:137] Memory required for data: 306274304
I0905 17:28:22.519896 11265 layer_factory.hpp:77] Creating layer elu3_1
I0905 17:28:22.519902 11265 net.cpp:84] Creating Layer elu3_1
I0905 17:28:22.519907 11265 net.cpp:406] elu3_1 <- conv3_1
I0905 17:28:22.519914 11265 net.cpp:367] elu3_1 -> conv3_1 (in-place)
I0905 17:28:22.519920 11265 net.cpp:122] Setting up elu3_1
I0905 17:28:22.519925 11265 net.cpp:129] Top shape: 2 256 56 56 (1605632)
I0905 17:28:22.519932 11265 net.cpp:137] Memory required for data: 312696832
I0905 17:28:22.519937 11265 layer_factory.hpp:77] Creating layer conv3_2
I0905 17:28:22.519948 11265 net.cpp:84] Creating Layer conv3_2
I0905 17:28:22.519953 11265 net.cpp:406] conv3_2 <- conv3_1
I0905 17:28:22.519961 11265 net.cpp:380] conv3_2 -> conv3_2
I0905 17:28:22.526159 11265 net.cpp:122] Setting up conv3_2
I0905 17:28:22.526171 11265 net.cpp:129] Top shape: 2 256 56 56 (1605632)
I0905 17:28:22.526196 11265 net.cpp:137] Memory required for data: 319119360
I0905 17:28:22.526206 11265 layer_factory.hpp:77] Creating layer batchnorm3_2
I0905 17:28:22.526229 11265 net.cpp:84] Creating Layer batchnorm3_2
I0905 17:28:22.526234 11265 net.cpp:406] batchnorm3_2 <- conv3_2
I0905 17:28:22.526245 11265 net.cpp:367] batchnorm3_2 -> conv3_2 (in-place)
I0905 17:28:22.526470 11265 net.cpp:122] Setting up batchnorm3_2
I0905 17:28:22.526477 11265 net.cpp:129] Top shape: 2 256 56 56 (1605632)
I0905 17:28:22.526480 11265 net.cpp:137] Memory required for data: 325541888
I0905 17:28:22.526490 11265 layer_factory.hpp:77] Creating layer elu3_2
I0905 17:28:22.526496 11265 net.cpp:84] Creating Layer elu3_2
I0905 17:28:22.526499 11265 net.cpp:406] elu3_2 <- conv3_2
I0905 17:28:22.526504 11265 net.cpp:367] elu3_2 -> conv3_2 (in-place)
I0905 17:28:22.526509 11265 net.cpp:122] Setting up elu3_2
I0905 17:28:22.526515 11265 net.cpp:129] Top shape: 2 256 56 56 (1605632)
I0905 17:28:22.526517 11265 net.cpp:137] Memory required for data: 331964416
I0905 17:28:22.526520 11265 layer_factory.hpp:77] Creating layer deconv3_3
I0905 17:28:22.526526 11265 net.cpp:84] Creating Layer deconv3_3
I0905 17:28:22.526530 11265 net.cpp:406] deconv3_3 <- conv3_2
I0905 17:28:22.526535 11265 net.cpp:380] deconv3_3 -> deconv3_3
I0905 17:28:22.528789 11265 net.cpp:122] Setting up deconv3_3
I0905 17:28:22.528800 11265 net.cpp:129] Top shape: 2 128 56 56 (802816)
I0905 17:28:22.528805 11265 net.cpp:137] Memory required for data: 335175680
I0905 17:28:22.528810 11265 layer_factory.hpp:77] Creating layer debatchnorm3_3
I0905 17:28:22.528815 11265 net.cpp:84] Creating Layer debatchnorm3_3
I0905 17:28:22.528820 11265 net.cpp:406] debatchnorm3_3 <- deconv3_3
I0905 17:28:22.528825 11265 net.cpp:367] debatchnorm3_3 -> deconv3_3 (in-place)
I0905 17:28:22.529040 11265 net.cpp:122] Setting up debatchnorm3_3
I0905 17:28:22.529048 11265 net.cpp:129] Top shape: 2 128 56 56 (802816)
I0905 17:28:22.529052 11265 net.cpp:137] Memory required for data: 338386944
I0905 17:28:22.529062 11265 layer_factory.hpp:77] Creating layer deelu3_3
I0905 17:28:22.529068 11265 net.cpp:84] Creating Layer deelu3_3
I0905 17:28:22.529073 11265 net.cpp:406] deelu3_3 <- deconv3_3
I0905 17:28:22.529079 11265 net.cpp:367] deelu3_3 -> deconv3_3 (in-place)
I0905 17:28:22.529088 11265 net.cpp:122] Setting up deelu3_3
I0905 17:28:22.529093 11265 net.cpp:129] Top shape: 2 128 56 56 (802816)
I0905 17:28:22.529096 11265 net.cpp:137] Memory required for data: 341598208
I0905 17:28:22.529101 11265 layer_factory.hpp:77] Creating layer unpool2
I0905 17:28:22.529111 11265 net.cpp:84] Creating Layer unpool2
I0905 17:28:22.529114 11265 net.cpp:406] unpool2 <- deconv3_3
I0905 17:28:22.529121 11265 net.cpp:406] unpool2 <- pool2_mask
I0905 17:28:22.529126 11265 net.cpp:406] unpool2 <- pool2_argmax_count
I0905 17:28:22.529134 11265 net.cpp:380] unpool2 -> unpool2
I0905 17:28:22.529161 11265 net.cpp:122] Setting up unpool2
I0905 17:28:22.529168 11265 net.cpp:129] Top shape: 2 128 112 112 (3211264)
I0905 17:28:22.529172 11265 net.cpp:137] Memory required for data: 354443264
I0905 17:28:22.529177 11265 layer_factory.hpp:77] Creating layer deconv2_1
I0905 17:28:22.529187 11265 net.cpp:84] Creating Layer deconv2_1
I0905 17:28:22.529191 11265 net.cpp:406] deconv2_1 <- unpool2
I0905 17:28:22.529199 11265 net.cpp:380] deconv2_1 -> deconv2_1
I0905 17:28:22.530676 11265 net.cpp:122] Setting up deconv2_1
I0905 17:28:22.530689 11265 net.cpp:129] Top shape: 2 128 112 112 (3211264)
I0905 17:28:22.530694 11265 net.cpp:137] Memory required for data: 367288320
I0905 17:28:22.530702 11265 layer_factory.hpp:77] Creating layer debatchnorm2_1
I0905 17:28:22.530710 11265 net.cpp:84] Creating Layer debatchnorm2_1
I0905 17:28:22.530714 11265 net.cpp:406] debatchnorm2_1 <- deconv2_1
I0905 17:28:22.530722 11265 net.cpp:367] debatchnorm2_1 -> deconv2_1 (in-place)
I0905 17:28:22.530935 11265 net.cpp:122] Setting up debatchnorm2_1
I0905 17:28:22.530943 11265 net.cpp:129] Top shape: 2 128 112 112 (3211264)
I0905 17:28:22.530947 11265 net.cpp:137] Memory required for data: 380133376
I0905 17:28:22.530956 11265 layer_factory.hpp:77] Creating layer deelu2_1
I0905 17:28:22.530984 11265 net.cpp:84] Creating Layer deelu2_1
I0905 17:28:22.530990 11265 net.cpp:406] deelu2_1 <- deconv2_1
I0905 17:28:22.530998 11265 net.cpp:367] deelu2_1 -> deconv2_1 (in-place)
I0905 17:28:22.531004 11265 net.cpp:122] Setting up deelu2_1
I0905 17:28:22.531011 11265 net.cpp:129] Top shape: 2 128 112 112 (3211264)
I0905 17:28:22.531015 11265 net.cpp:137] Memory required for data: 392978432
I0905 17:28:22.531020 11265 layer_factory.hpp:77] Creating layer deconv2_2
I0905 17:28:22.531028 11265 net.cpp:84] Creating Layer deconv2_2
I0905 17:28:22.531033 11265 net.cpp:406] deconv2_2 <- deconv2_1
I0905 17:28:22.531040 11265 net.cpp:380] deconv2_2 -> deconv2_2
I0905 17:28:22.531718 11265 net.cpp:122] Setting up deconv2_2
I0905 17:28:22.531810 11265 net.cpp:129] Top shape: 2 64 112 112 (1605632)
I0905 17:28:22.531813 11265 net.cpp:137] Memory required for data: 399400960
I0905 17:28:22.531822 11265 layer_factory.hpp:77] Creating layer debatchnorm2_2
I0905 17:28:22.531831 11265 net.cpp:84] Creating Layer debatchnorm2_2
I0905 17:28:22.531836 11265 net.cpp:406] debatchnorm2_2 <- deconv2_2
I0905 17:28:22.531843 11265 net.cpp:367] debatchnorm2_2 -> deconv2_2 (in-place)
I0905 17:28:22.532073 11265 net.cpp:122] Setting up debatchnorm2_2
I0905 17:28:22.532079 11265 net.cpp:129] Top shape: 2 64 112 112 (1605632)
I0905 17:28:22.532081 11265 net.cpp:137] Memory required for data: 405823488
I0905 17:28:22.532088 11265 layer_factory.hpp:77] Creating layer deelu2_2
I0905 17:28:22.532096 11265 net.cpp:84] Creating Layer deelu2_2
I0905 17:28:22.532099 11265 net.cpp:406] deelu2_2 <- deconv2_2
I0905 17:28:22.532104 11265 net.cpp:367] deelu2_2 -> deconv2_2 (in-place)
I0905 17:28:22.532107 11265 net.cpp:122] Setting up deelu2_2
I0905 17:28:22.532114 11265 net.cpp:129] Top shape: 2 64 112 112 (1605632)
I0905 17:28:22.532119 11265 net.cpp:137] Memory required for data: 412246016
I0905 17:28:22.532122 11265 layer_factory.hpp:77] Creating layer unpool1
I0905 17:28:22.532130 11265 net.cpp:84] Creating Layer unpool1
I0905 17:28:22.532135 11265 net.cpp:406] unpool1 <- deconv2_2
I0905 17:28:22.532142 11265 net.cpp:406] unpool1 <- pool1_mask
I0905 17:28:22.532148 11265 net.cpp:406] unpool1 <- pool1_argmax_count
I0905 17:28:22.532157 11265 net.cpp:380] unpool1 -> unpool1
I0905 17:28:22.532186 11265 net.cpp:122] Setting up unpool1
I0905 17:28:22.532194 11265 net.cpp:129] Top shape: 2 64 224 224 (6422528)
I0905 17:28:22.532196 11265 net.cpp:137] Memory required for data: 437936128
I0905 17:28:22.532199 11265 layer_factory.hpp:77] Creating layer deconv1_1
I0905 17:28:22.532205 11265 net.cpp:84] Creating Layer deconv1_1
I0905 17:28:22.532208 11265 net.cpp:406] deconv1_1 <- unpool1
I0905 17:28:22.532214 11265 net.cpp:380] deconv1_1 -> deconv1_1
I0905 17:28:22.533222 11265 net.cpp:122] Setting up deconv1_1
I0905 17:28:22.533236 11265 net.cpp:129] Top shape: 2 64 224 224 (6422528)
I0905 17:28:22.533241 11265 net.cpp:137] Memory required for data: 463626240
I0905 17:28:22.533249 11265 layer_factory.hpp:77] Creating layer debatchnorm1_1
I0905 17:28:22.533267 11265 net.cpp:84] Creating Layer debatchnorm1_1
I0905 17:28:22.533272 11265 net.cpp:406] debatchnorm1_1 <- deconv1_1
I0905 17:28:22.533279 11265 net.cpp:367] debatchnorm1_1 -> deconv1_1 (in-place)
I0905 17:28:22.533526 11265 net.cpp:122] Setting up debatchnorm1_1
I0905 17:28:22.533535 11265 net.cpp:129] Top shape: 2 64 224 224 (6422528)
I0905 17:28:22.533540 11265 net.cpp:137] Memory required for data: 489316352
I0905 17:28:22.533550 11265 layer_factory.hpp:77] Creating layer deelu1_1
I0905 17:28:22.533555 11265 net.cpp:84] Creating Layer deelu1_1
I0905 17:28:22.533558 11265 net.cpp:406] deelu1_1 <- deconv1_1
I0905 17:28:22.533566 11265 net.cpp:367] deelu1_1 -> deconv1_1 (in-place)
I0905 17:28:22.533571 11265 net.cpp:122] Setting up deelu1_1
I0905 17:28:22.533576 11265 net.cpp:129] Top shape: 2 64 224 224 (6422528)
I0905 17:28:22.533581 11265 net.cpp:137] Memory required for data: 515006464
I0905 17:28:22.533584 11265 layer_factory.hpp:77] Creating layer deconv1_2
I0905 17:28:22.533592 11265 net.cpp:84] Creating Layer deconv1_2
I0905 17:28:22.533609 11265 net.cpp:406] deconv1_2 <- deconv1_1
I0905 17:28:22.533619 11265 net.cpp:380] deconv1_2 -> deconv1_2
I0905 17:28:22.534096 11265 net.cpp:122] Setting up deconv1_2
I0905 17:28:22.534103 11265 net.cpp:129] Top shape: 2 64 224 224 (6422528)
I0905 17:28:22.534108 11265 net.cpp:137] Memory required for data: 540696576
I0905 17:28:22.534117 11265 layer_factory.hpp:77] Creating layer debatchnorm1_2
I0905 17:28:22.534124 11265 net.cpp:84] Creating Layer debatchnorm1_2
I0905 17:28:22.534129 11265 net.cpp:406] debatchnorm1_2 <- deconv1_2
I0905 17:28:22.534135 11265 net.cpp:367] debatchnorm1_2 -> deconv1_2 (in-place)
I0905 17:28:22.534451 11265 net.cpp:122] Setting up debatchnorm1_2
I0905 17:28:22.534466 11265 net.cpp:129] Top shape: 2 64 224 224 (6422528)
I0905 17:28:22.534471 11265 net.cpp:137] Memory required for data: 566386688
I0905 17:28:22.534479 11265 layer_factory.hpp:77] Creating layer deelu1_2
I0905 17:28:22.534485 11265 net.cpp:84] Creating Layer deelu1_2
I0905 17:28:22.534490 11265 net.cpp:406] deelu1_2 <- deconv1_2
I0905 17:28:22.534497 11265 net.cpp:367] deelu1_2 -> deconv1_2 (in-place)
I0905 17:28:22.534503 11265 net.cpp:122] Setting up deelu1_2
I0905 17:28:22.534510 11265 net.cpp:129] Top shape: 2 64 224 224 (6422528)
I0905 17:28:22.534515 11265 net.cpp:137] Memory required for data: 592076800
I0905 17:28:22.534519 11265 layer_factory.hpp:77] Creating layer segmentation
I0905 17:28:22.534533 11265 net.cpp:84] Creating Layer segmentation
I0905 17:28:22.534538 11265 net.cpp:406] segmentation <- deconv1_2
I0905 17:28:22.534548 11265 net.cpp:380] segmentation -> segmentation
I0905 17:28:22.537032 11265 net.cpp:122] Setting up segmentation
I0905 17:28:22.537046 11265 net.cpp:129] Top shape: 2 2 224 224 (200704)
I0905 17:28:22.537052 11265 net.cpp:137] Memory required for data: 592879616
I0905 17:28:22.537062 11265 layer_factory.hpp:77] Creating layer segmentation_segmentation_0_split
I0905 17:28:22.537070 11265 net.cpp:84] Creating Layer segmentation_segmentation_0_split
I0905 17:28:22.537075 11265 net.cpp:406] segmentation_segmentation_0_split <- segmentation
I0905 17:28:22.537084 11265 net.cpp:380] segmentation_segmentation_0_split -> segmentation_segmentation_0_split_0
I0905 17:28:22.537094 11265 net.cpp:380] segmentation_segmentation_0_split -> segmentation_segmentation_0_split_1
I0905 17:28:22.537147 11265 net.cpp:122] Setting up segmentation_segmentation_0_split
I0905 17:28:22.537155 11265 net.cpp:129] Top shape: 2 2 224 224 (200704)
I0905 17:28:22.537161 11265 net.cpp:129] Top shape: 2 2 224 224 (200704)
I0905 17:28:22.537168 11265 net.cpp:137] Memory required for data: 594485248
I0905 17:28:22.537171 11265 layer_factory.hpp:77] Creating layer infogainLoss
I0905 17:28:22.537180 11265 net.cpp:84] Creating Layer infogainLoss
I0905 17:28:22.537184 11265 net.cpp:406] infogainLoss <- segmentation_segmentation_0_split_0
I0905 17:28:22.537192 11265 net.cpp:406] infogainLoss <- label_data_1_split_0
I0905 17:28:22.537199 11265 net.cpp:380] infogainLoss -> loss
I0905 17:28:22.537209 11265 layer_factory.hpp:77] Creating layer infogainLoss
I0905 17:28:22.538120 11265 net.cpp:122] Setting up infogainLoss
I0905 17:28:22.538131 11265 net.cpp:129] Top shape: (1)
I0905 17:28:22.538136 11265 net.cpp:132]     with loss weight 1
I0905 17:28:22.538143 11265 net.cpp:137] Memory required for data: 594485252
I0905 17:28:22.538147 11265 layer_factory.hpp:77] Creating layer accuracy
I0905 17:28:22.538156 11265 net.cpp:84] Creating Layer accuracy
I0905 17:28:22.538161 11265 net.cpp:406] accuracy <- segmentation_segmentation_0_split_1
I0905 17:28:22.538166 11265 net.cpp:406] accuracy <- label_data_1_split_1
I0905 17:28:22.538172 11265 net.cpp:380] accuracy -> accuracy
I0905 17:28:22.538182 11265 net.cpp:380] accuracy -> per_class_accuracy
I0905 17:28:22.538228 11265 net.cpp:122] Setting up accuracy
I0905 17:28:22.538234 11265 net.cpp:129] Top shape: (1)
I0905 17:28:22.538240 11265 net.cpp:129] Top shape: 2 (2)
I0905 17:28:22.538245 11265 net.cpp:137] Memory required for data: 594485264
I0905 17:28:22.538262 11265 net.cpp:200] accuracy does not need backward computation.
I0905 17:28:22.538269 11265 net.cpp:198] infogainLoss needs backward computation.
I0905 17:28:22.538275 11265 net.cpp:198] segmentation_segmentation_0_split needs backward computation.
I0905 17:28:22.538281 11265 net.cpp:198] segmentation needs backward computation.
…
